mappo_ros/onpolicy/scripts/results/MPE/simple_spread/mappo/check/wandb/offline-run-20230123_100957-czgr6s16/files/actor.pt (torch_old, 42840 bytes, 16 tensors)

base.feature_norm.weight f4 [14]
0.99740815 1.0136724 1.0070965 0.9996824 1.0108944 0.9941987 1.010049 1.000075
1.0123862 0.9968659 1.0135037 0.98469543 1.012286 0.9969224
00000000: 2456 7f3f 04c0 813f 8ae8 803f 30eb 7f3f
00000010: fd64 813f ce83 7e3f 4949 813f 7502 803f
00000020: df95 813f 9b32 7f3f 7dba 813f 0015 7c3f
00000030: 9692 813f 4e36 7f3f

base.feature_norm.bias f4 [14]
0.0065160603 -0.0015736676 0.0025843699 0.0071889726 0.0013883408 0.0041445876 -0.01653745 -0.009017467
-0.012465627 -0.013731761 9.994081e-06 0.008506589 -0.00503712 -0.01750319
00000000: ad84 d53b 8643 ceba 885e 293b 7991 eb3b
00000010: fdf8 b53a 52cf 873b 8c79 87bc ffbd 13bc
00000020: a13c 4cbc 2efb 60bc 40ac 2737 385f 0b3c
00000030: 6d0e a5bb da62 8fbc

base.mlp.fc1.0.weight f4 [64, 14]
0.17750996 -0.027404103 0.06468458 -0.047047436 -0.057318054 -0.22911994 -0.24783689 0.22987624
-0.16601224 -0.021293186 -0.029091492 0.05553644 0.39580128 0.31530628 0.17033693 0.07731465
0.16020632 -0.109316885 -0.108734995 0.2715531 0.08482453 0.040740237 -0.18693908 0.18249413
0.12678911 0.06096321 0.40202785 -0.19032983 0.05628903 0.2800009 -0.06412259 -0.08368339
-0.22390784 -0.067833275 0.106825955 -0.056474194 -0.19082807 -0.068635955 -0.01724477 -0.06277324
0.20280403 0.029466933 0.0915475 0.5026205 0.0612652 -0.012459968 -0.09149934 0.15471402
-0.062365204 0.03132811 -0.33062652 0.36582708 0.31629634 -0.20801733 -0.05768553 0.041162454
-0.15735471 0.008907102 -0.11559004 0.3288339 -0.052438345 0.03874378 0.20537834 0.14887486
0.22220917 -0.12342047 0.0725398 -0.17976928 0.051645383 -0.07502457 0.0716593 -0.1283292
-0.1647022 -0.15010962 -0.27426156 0.110258296 0.02319323 -0.13899767 0.2425869 0.04000037
-0.11837465 -0.41754988 -0.012776167 0.26864654 0.32205543 -0.31493995 0.012690517 -0.287083
0.01255631 0.07562925 -0.017103773 0.19882645 -0.07659335 -0.048753414 -0.2939414 0.011948496
0.16226266 -0.21558098 -0.09650072 0.20690058 0.25422022 -0.19851007 0.1475732 0.15718673
0.05342868 0.020565452 0.007311734 0.1786222 -0.094987065 0.07660374 0.035271835 -0.10866775
0.100170255 -0.1301273 0.085626766 0.037904806 0.15419948 -0.41263017 0.09207216 0.23104961
-0.17364994 -0.07958313 0.12347675 -0.10842626 -0.22054334 -0.07699475 0.09670119 0.11469195
0.16985223 -0.29042464 -0.15471105 -0.2704037 -0.027623177 -0.06009195 0.20924951 -0.20742637
0.11131386 0.08400366 0.084276475 0.100654036 -0.09079737 -0.08466691 0.2495841 0.061479624
0.10430371 -0.2783783 -0.3179871 0.34974605 0.07886665 0.1908821 -0.012263104 -0.0659689
-0.023515344 -0.12130079 -0.016009053 -0.007268723 0.3824351 0.092331 0.051088348 -0.09132021
0.12747523 -0.19219802 0.051028013 0.12499361 0.23063995 0.0834196 0.15304828 -0.16223437
0.29317153 -0.31366196 -0.30518377 -0.23092479 -0.057766557 -0.057688843 0.107319266 0.12848432
-0.32992214 -0.10157206 0.15430409 -0.08794344 -0.13125212 0.3217408 0.42746305 -0.15779257
-0.17391685 0.115125194 0.09070753 0.29695192 -0.085243255 0.29869148 0.4667961 -0.08990181
0.13810264 0.059783697 0.1530437 -0.011270619 -0.18030298 0.1262355 0.05948686 -0.071788505
0.103095174 -0.13748333 -0.0426278 0.10967457 0.36868972 0.014642742 0.12700199 -0.08787126
-0.10342561 0.14467259 -0.18223105 0.004554324 0.2715669 0.22382987 -0.02715234 0.0035771828
-0.09458608 -0.031473882 0.0010508976 -0.014018285 0.022210227 -0.007974831 -0.21648067 -0.046958305
-0.23326367 -0.07525021 -0.30554414 0.15123701 0.046936966 -0.0345842 -0.23269282 -0.097881965
0.029844057 0.42229512 -0.2473628 -0.05580859 -0.18621242 -0.0209324 0.2546111 -0.28946793
0.19969979 0.45131508 0.09606525 -0.07891891 0.043765098 -0.012186091 -0.016480092 -0.062195137
0.36514127 0.08751263 -0.23198152 -0.029729335 0.15521784 -0.017585045 -0.1289144 -0.24200614
00000000: 2cc5 353e 927e e0bc 5979 843d d0b4 40bd
00000010: 56c6 6abd 6b9e 6abe f4c8 7dbe ad64 6b3e
00000020: 1dff 29be 0c6f aebc 4851 eebc 2e7a 633d
00000030: 77a6 ca3e d36f a13e ce6c 2e3e 2557 9e3d
00000040: 200d 243e 88e1 dfbd 74b0 debd 0209 8b3e
00000050: 7cb8 ad3d 3cdf 263d f56c 3fbe bedf 3a3e
00000060: 01d5 013e 8fb4 793d 98d6 cd3e d3e5 42be
00000070: 538f 663d 475c 8f3e b452 83bd 3262 abbd
00000080: 1948 65be 2cec 8abd 91c7 da3d 7c51 67bd
00000090: 6f68 43be 0291 8cbd e744 8dbc 428f 80bd
000000a0: dcab 4f3e a364 f13c 417d bb3d bdab 003f
000000b0: 38f1 7a3d e524 4cbc 0264 bbbd 5a6d 1e3e
000000c0: a872 7fbd e751 003d e147 a9be b04d bb3e
000000d0: 98f1 a13e 7f02 55be aa47 6cbd f699 283d
000000e0: 9821 21be 18ef 113c 79ba ecbd eb5c a83e
000000f0: 97c9 56bd ccb1 1e3d b34e 523e a772 183e
00000100: cd8a 633e dfc3 fcbd bf8f 943d 7015 38be
00000110: 1c8a 533d 7ba6 99bd 1cc2 923d bb68 03be
00000120: b2a7 28be 56b6 19be 036c 8cbe 1acf e13d
00000130: bbff bd3c 6855 0ebe b368 783e 6ed7 233d
00000140: 696e f2bd 19c9 d5be 2153 51bc 0a8c 893e
00000150: 73e4 a43e cf3f a1be e3eb 4f3c 8bfc 92be
00000160: fbb8 4d3c 82e3 9a3d 361d 8cbc 2999 4b3e
00000170: f9dc 9cbd a9b1 47bd 7d7f 96be a0c3 433c
00000180: 2f28 263e 43c1 5cbe 2ba2 c5bd bfdd 533e
00000190: 2729 823e 3946 4bbe 6e1d 173e 8ff5 203e
000001a0: 08d8 5a3d e178 a83c 4597 ef3b bde8 363e
000001b0: 9488 c2bd 6ce2 9c3d 3379 103d 338d debd
000001c0: 1026 cd3d 1740 05be 165d af3d 1242 1b3d
000001d0: 78e6 1d3e 4344 d3be 5490 bc3d 4598 6c3e
000001e0: 4ad1 31be 7bfc a2bd 61e1 fc3d 960e debd
000001f0: 1dd6 61be 6caf 9dbd 460b c63d 9de3 ea3d
00000200: beed 2d3e 8ab2 94be 936c 1ebe 5b72 8abe
00000210: 004a e2bc fa22 76bd 8145 563e 9467 54be
00000220: 85f8 e33d 1c0a ac3d 2599 ac3d b423 ce3d
00000230: f9f3 b9bd d865 adbd f992 7f3e 0fd2 7b3d
00000240: 2f9d d53d 9a87 8ebe 35cf a2be ea11 b33e
00000250: d784 a13d 9976 433e 30eb 48bc b41a 87bd
00000260: 40a3 c0bc 8c6c f8bd 6b25 83bc 782e eebb
00000270: 89ce c33e 0918 bd3d 0442 513d 1706 bbbd
00000280: de88 023e 8fcf 44be c002 513d a6fc ff3d
00000290: e12c 6c3e e5d7 aa3d b0b8 1c3e c420 26be
000002a0: 941a 963e 4d98 a0be 0c41 9cbe 8c77 6cbe
000002b0: a09c 6cbd 234b 6cbd 34ca db3d 6591 033e
000002c0: 8eeb a8be 0305 d0bd e401 1e3e b11b b4bd
000002d0: f566 06be 36bb a43e 70dc da3e 6094 21be
000002e0: 4217 32be c2c6 eb3d dfc4 b93d 150a 983e
000002f0: 0494 aebd 17ee 983e e6ff ee3e 711e b8bd
00000300: c76a 0d3e c0df 743d 7db7 1c3e 67a8 38bc
00000310: 58a1 38be e143 013e 7ea8 733d da05 93bd
00000320: 9023 d33d 6ec8 0cbe 7d9a 2ebd 109d e03d
00000330: e6c4 bc3e 1de8 6f3c cf0c 023e d9f5 b3bd
00000340: ced0 d3bd 0d25 143e c79a 3abe 703c 953b
00000350: d10a 8b3e a833 653e 966e debc 2b6f 6a3b
00000360: 59b6 c1bd c2ea 00bd 46be 893a f3ac 65bc
00000370: 39f2 b53c dea8 02bc 1cad 5dbe 5a57 40bd
00000380: acdc 6ebe c81c 9abd 4870 9cbe e0dd 1a3e
00000390: fa40 403d 29a8 0dbd 0747 6ebe 5776 c8bd
000003a0: 867b f43c 1137 d83e ad4c 7dbe 8c97 64bd
000003b0: 78ae 3ebe 6d7a abbc 635c 823e 2435 94be
000003c0: 1a7e 4c3e c512 e73e dcbd c43d 3da0 a1bd
000003d0: 0843 333d 2ca8 47bc 4201 87bc 54c0 7ebd
000003e0: ccf3 ba3e d239 b33d 908c 6dbe ef8a f3bc
000003f0: 6df1 1e3e 830e 90bc 2302 04be 75d0 77be

base.mlp.fc1.0.bias f4 [64]
0.009435941 0.0014156254 -0.013421746 -0.0007758851 0.009325197 -0.014510502 0.0092177605 -0.0035485085
-0.008716815 1.272621e-05 -0.017209444 -0.013304695 0.0010325785 0.00811851 0.0001478001 -0.004083593
0.002917973 0.0054580495 -0.0039784806 0.017991098 0.00022117926 0.005872059 -0.0032209416 0.008680105
-0.018951694 -0.010826693 -0.004099949 0.005821388 0.021773258 -0.013499812 0.014167629 -0.000103962775
0.0011857937 0.0014607981 -0.014484634 -0.0006035134 -0.008515815 0.0041211396 -0.015366783 -0.00051025907
-0.0066418685 -0.0084517095 -0.0019925823 0.0024040698 -0.0008569231 -0.009401329 -0.009171215 0.0031435625
0.0011391613 0.0023373151 0.0010085725 0.0032484063 5.981476e-05 0.016416842 -0.017678482 0.0075639626
0.0032210757 0.0040633883 0.021531064 0.0076337815 0.0062017795 -0.010791383 0.007840426 -0.0018132932
00000000: 3599 1a3c 828c b93a e2e6 5bbc c564 4bba
00000010: b6c8 183c 75bd 6dbc 1706 173c 188e 68bb
00000020: f9d0 0ebc a882 5537 d2fa 8cbc effb 59bc
00000030: 9657 873a 8003 053c cafa 1a39 a9cf 85bb
00000040: 773b 3f3b 70d9 b23b ea5d 82bb 1162 933c
00000050: 5bec 6739 676a c03b 6f16 53bb 0037 0e3c
00000060: 9540 9bbc 7162 31bc dd58 86bb 58c1 be3b
00000070: d55d b23c 512e 5dbc 581f 683c 9706 dab8
00000080: a26c 9b3a 4078 bf3a f550 6dbc 1935 1eba
00000090: eb85 0bbc a00a 873b f6c4 7bbc e8c2 05ba
000000a0: 08a4 d9bb 0a79 0abc fc95 02bb 998d 1d3b
000000b0: 23a3 60ba 0808 1abc dd42 16bc 3a04 4e3b
000000c0: e94f 953a a42d 193b 1432 843a 37e3 543b
000000d0: 9ce1 7a38 9d7c 863c 77d2 90bc 1edb f73b
000000e0: af18 533b 2c26 853b ea61 b03c cd24 fa3b
000000f0: 4c38 cb3b 57ce 30bc 2175 003c 06ac edba

base.mlp.fc1.2.weight f4 [64]
1.0089588 0.9955491 0.9932472 1.0018874 0.9911269 0.9851032 1.000552 0.99669385
0.99357533 1.0103679 1.0140846 1.005383 1.016292 1.019646 0.98867 0.9911654
0.9933372 1.0121213 0.9941961 1.010176 0.98969245 1.0027635 1.0092745 1.0068628
1.00172 0.99857605 0.9955828 1.0036267 0.988273 0.9815813 0.9967227 1.0079368
1.0077156 0.99107075 0.98816985 1.0181122 1.0061893 1.01066 0.9878082 1.0066537
0.9934622 1.0082966 0.98859644 1.0016645 1.0145305 0.9898155 0.99315387 0.9943144
0.98716336 1.0095506 0.99297404 1.0000262 1.0121175 1.0009311 0.98848563 1.0066687
0.9969808 1.002528 0.99789643 0.9993901 1.0196124 0.99990463 0.9888293 0.9913776
00000000: 9025 813f 4edc 7e3f 7345 7e3f d93d 803f
00000010: 7eba 7d3f b92f 7c3f 1712 803f 5427 7f3f
00000020: f45a 7e3f bc53 813f 86cd 813f 64b0 803f
00000030: db15 823f c383 823f 7a19 7d3f 04bd 7d3f
00000040: 594b 7e3f 318d 813f a383 7e3f 724d 813f
00000050: 7c5c 7d3f 8e5a 803f e82f 813f e1e0 803f
00000060: 5c38 803f aea2 7f3f 84de 7e3f d776 803f
00000070: 76ff 7c3f e948 7b3f 3829 7f3f 1304 813f
00000080: d3fc 803f d0b6 7d3f b3f8 7c3f 8051 823f
00000090: d0ca 803f 4f5d 813f 00e1 7c3f 07da 803f
000000a0: 8a53 7e3f dd0f 813f a814 7d3f 8b36 803f
000000b0: 23dc 813f 8c64 7d3f 553f 7e3f 638b 7e3f
000000c0: bdb6 7c3f f438 813f 8c33 7e3f dc00 803f
000000d0: 118d 813f 831e 803f 650d 7d3f 85da 803f
000000e0: 223a 7f3f d652 803f 2476 7f3f 08d8 7f3f
000000f0: a982 823f c0f9 7f3f eb23 7d3f ecca 7d3f

base.mlp.fc1.2.bias f4 [64]
-0.0015903319 0.0003263907 -0.0053764675 -0.0013555035 0.008840005 -0.016071426 0.011528522 -0.0015210919
-0.0053934488 -0.0130770905 -0.015725663 -0.008911385 -0.007857771 -0.008904136 0.0029734785 0.007604707
-0.0016491228 0.00893185 -0.004161327 0.0051600286 -0.0058600237 0.0027185942 -0.013523906 0.009071834
-0.011979848 -0.009493606 -0.0020302925 -0.004664846 0.014763255 -0.0037572654 0.010666979 -0.006347553
0.008034738 0.0036625997 -0.0056328513 -0.013115268 -0.007855465 -0.0028960414 -0.015443718 -0.00048011573
-0.007152378 -0.0059244633 -0.0015725216 0.0019087398 -0.0055436045 -0.020367118 -0.010116438 0.0039261174
0.01467885 -0.007565276 0.0010107942 -0.00020123023 -0.006268451 0.011214682 -0.013547673 0.00108077
0.003833835 0.009701857 0.021859815 0.00014152084 -0.0033169955 -0.0005558152 0.0055189966 -0.01718251
00000000: af72 d0ba 6b1f ab39 142d b0bb 26ab b1ba
00000010: abd5 103c 39a8 83bc 20e2 3c3c 605f c7ba
00000020: 87bb b0bb 4b41 56bc 1bd3 80bc 0f01 12bc
00000030: e1bd 00bc a7e2 11bc b1de 423b e830 f93b
00000040: 6127 d8ba e556 123c be5b 88bb 7515 a93b
00000050: 7105 c0bb 712a 323b 5f93 5dbc 08a2 143c
00000060: 2047 44bc 128b 1bbc a80e 05bb 91db 98bb
00000070: 94e1 713c 743c 76bb 8dc4 2e3c 22ff cfbb
00000080: 22a4 033c 3a08 703b c893 b8bb 6ce1 56bc
00000090: 35b4 00bc 83cb 3dbb a607 7dbc 0bb8 fbb9
000000a0: 7f5e eabb 0022 c2bb 121d ceba ae2e fa3a
000000b0: 20a7 b5bb f1d8 a6bc 6bbf 25bc a9a6 803b
000000c0: 8f7f 703c 23e6 f7bb a07c 843a 5401 53b9
000000d0: 9467 cdbb c9bd 373c 0ff7 5dbc a0a8 8d3a
000000e0: 1441 7b3b 8af4 1e3c 5b13 b33c 3665 1439
000000f0: f361 59bb 20b4 11ba b3d8 b43b 56c2 8cbc

base.mlp.fc_h.0.weight f4 [64, 64]
-0.18151923 -0.15650305 0.007034219 0.16918506 -0.12546782 -0.1639309 -0.2508229 0.08914019
0.30820143 -0.11710076 0.2685054 -0.1611017 0.16290715 -0.18449783 -0.23151371 0.12878413
-0.02583267 -0.17070174 0.062008444 0.114307866 0.19807817 0.089374855 -0.18258974 -0.055601828
0.034676984 0.36204413 0.06635777 0.0013869433 -0.21818253 0.11048583 0.42368522 -0.11157967
-0.15286411 0.06290794 -0.25205323 0.105282634 0.23751466 -0.15249595 -0.017405616 0.03410189
0.038248148 0.08227637 -0.12667213 -0.10368304 -0.12784117 0.019374887 0.4239747 -0.15151635
-0.03529359 -0.122580975 -0.21953006 -0.20427561 -0.14448714 -0.15304981 0.04564557 -0.32804704
-0.03370769 -0.020030675 0.16829419 -0.23630747 -0.11480426 -0.13504405 0.25639758 -0.2519726
-0.16996875 -0.09081795 0.2196299 -0.1456748 0.049022883 -0.25145102 0.011618311 0.011172241
0.13203943 -0.14809741 -0.09473683 0.027993022 0.37336147 0.18219426 -0.097469546 -0.08045812
-0.39772105 0.0013356179 -0.015057428 -0.23549418 -0.16749452 0.05874452 -0.27758697 -0.034474622
0.021418907 -0.17957157 -0.25430688 0.18972737 -0.17606223 0.032951705 0.04871372 0.06940287
-0.115615144 -0.0892094 0.14285783 -0.19446264 0.03326347 0.31601 0.25099546 -0.20784102
0.19795723 0.2904297 -0.17570665 -0.28663602 0.050898887 -0.1162629 -0.029008785 -0.17440498
0.16610365 0.19592321 0.1716484 -0.17611879 0.2649839 -0.110736206 0.029247658 0.33126953
-0.19032179 0.033401135 0.18126349 0.18121895 -0.22986084 0.12925966 0.14806217 -0.094202384
0.13883111 0.2608916 0.081028745 0.3120043 -0.16574685 0.22913893 -0.16803001 -0.07266301
-0.28488693 -0.31264082 -0.27705395 0.054188408 -0.08194117 0.06784877 -0.18120058 0.3103108
-0.037723213 0.12316663 0.16452573 -0.1666903 0.10440487 -0.3992971 -0.022124736 -0.27775297
-0.15064816 -0.054353166 -0.00858594 -0.26577517 0.007143569 0.04346096 0.17171402 -0.27411717
-0.038239807 -0.07736813 0.14575842 -0.38951644 0.22680536 -0.06291786 0.3109352 -0.28871903
-0.09886347 0.07313058 0.037929054 -0.031143934 0.06409411 -0.09859446 -0.029580375 -0.1488664
0.17309366 -0.21410342 0.17490527 0.21904878 -0.20868999 0.03800312 -0.010212178 -0.10133329
-0.002818739 0.0115221385 -0.18251249 -0.05253393 0.03553597 0.029333178 0.22359155 -0.074455865
0.11573053 -0.015546103 0.016775845 0.16583292 -0.15396078 0.15724273 0.13792393 0.14173976
0.061763298 -0.15225686 0.055199537 -0.1553009 0.012589386 0.28667557 -0.11814151 -0.19023041
0.16620491 -0.17371465 -0.22211477 -0.120162405 0.16954342 0.12842023 0.15091531 0.1947228
-0.12509768 -0.044418037 -0.04146962 -0.09857249 0.31479418 -0.07545646 0.4542885 -0.14514954
-0.05517917 0.064654954 0.1350285 -0.04672221 0.088182665 0.16562311 -0.012635883 0.011085676
0.25396326 0.18022572 -0.18492784 -0.042803377 0.44156697 3.9107663e-06 -0.2181838 0.25797263
-0.33125836 0.28346342 0.1611637 -0.007614047 -0.029788908 0.24454746 -0.105271496 -0.16626497
-0.041932523 -0.30104464 0.30887747 -0.11127584 0.15974635 -0.06533713 -0.13368125 -0.16417621
00000000: 2de0 39be 5642 20be 4e7f e63b d93e 2d3e
00000010: a37a 00be 80dd 27be dc6b 80be 228f b63d
00000020: 94cc 9d3e 86d2 efbd 8a79 893e d8f7 24be
00000030: 22d1 263e 00ed 3cbe ee11 6dbe fddf 033e
00000040: 099f d3bc 70cc 2ebe 91fc 7d3d 3e1a ea3d
00000050: 01d5 4a3e 2a0a b73d cef8 3abe bebe 63bd
00000060: 7409 0e3d d95d b93e 95e6 873d 18ca b53a
00000070: 3e6b 5fbe 6546 e23d 45ed d83e e283 e4bd
00000080: 6988 1cbe e1d5 803d 1f0d 81be 6c9e d73d
00000090: 0b37 733e e627 1cbe 3996 8ebc 6cae 0b3d
000000a0: 17aa 1c3d 8380 a83d 57b6 01be c657 d4bd
000000b0: cce8 02be 15b8 9e3c 3613 d93e 1a27 1bbe
000000c0: 0390 10bd bc0b fbbd 7dcc 60be a02d 51be
000000d0: 70f4 13be 17b9 1cbe d9f6 3a3d c8f5 a7be
000000e0: 1311 0abd 5f17 a4bc 5055 2c3e 96fa 71be
000000f0: 7f1e ebbd fd48 0abe 8b46 833e 8d02 81be
00000100: 4a0c 2ebe c3fe b9bd a9e6 603e c62b 15be
00000110: 38cc 483d 30be 80be ba5a 3e3c c60b 373c
00000120: 5835 073e d9a6 17be 6205 c2bd 9f51 e53c
00000130: 3c29 bf3e 2291 3a3e 1d9e c7bd 3ac7 a4bd
00000140: 18a2 cbbe e60f af3a 6eb3 76bc 6325 71be
00000150: af83 2bbe 189e 703d e11f 8ebe 4335 0dbd
00000160: b476 af3c 9ce1 37be 8334 82be e447 423e
00000170: a849 34be 5ef8 063d 0a88 473d 1823 8e3d
00000180: a2c7 ecbd 6bb3 b6bd 5349 123e 3721 47be
00000190: 473f 083d 10cc a13e 7a82 803e 47d4 54be
000001a0: 4db5 4a3e 34b3 943e 72ec 33be f5c1 92be
000001b0: 5a7b 503d 3e1b eebd d5a3 edbc 3897 32be
000001c0: 1317 2a3e 18a0 483e 99c4 2f3e 7c58 34be
000001d0: f8ab 873e aac9 e2bd c998 ef3c 299c a93e
000001e0: b7e3 42be a1cf 083d 239d 393e 7691 393e
000001f0: a460 6bbe a55c 043e 9c9d 173e 2eed c0bd
00000200: be29 0e3e 9593 853e 66f2 a53d 07bf 9f3e
00000210: 8bb9 29be 65a3 6a3e 0f10 2cbe 58d0 94bd
00000220: b3dc 91be 7512 a0be 04da 8dbe aaf4 5d3d
00000230: c6d0 a7bd 4cf4 8a3d a58c 39be 0fe1 9e3e
00000240: a883 1abd c93e fc3d 6f79 283e ddb0 2abe
00000250: 38d2 d53d ab70 ccbe ef3e b5bc a335 8ebe
00000260: 8343 1abe 6da1 5ebd 0bac 0cbc af13 88be
00000270: 9a14 ea3b 1f04 323d cdd5 2f3e 1659 8cbe
00000280: 58a1 1cbd 2f73 9ebd b241 153e b36e c7be
00000290: aa3f 683e 14db 80bd e632 9f3e fbd2 93be
000002a0: ee78 cabd 7cc5 953d 7f5b 1b3d 9021 ffbc
000002b0: c643 833d e4eb c9bd 8b52 f2bc 6f70 18be
000002c0: 773f 313e ed3d 5bbe 5e1a 333e 534e 603e
000002d0: d4b2 55be 29a9 1b3d fb50 27bc d487 cfbd
000002e0: 98ba 38bb 5ac7 3c3c 8ee4 3abe d12d 57bd
000002f0: 2a8e 113d 224c f03c 2ff5 643e 517c 98bd
00000300: 2104 ed3d 15b5 7ebc 7f6d 893c 1bd0 293e
00000310: e5a7 1dbe 3d04 213e ee3b 0d3e 3a24 113e
00000320: 83fb 7c3d 39e9 1bbe e918 623d 3307 1fbe
00000330: b643 4e3c 24c7 923e 2df4 f1bd c3cb 42be
00000340: 9f31 2a3e 41e2 31be 0e72 63be b517 f6bd
00000350: ca9c 2d3e 9880 033e 8b89 1a3e 6a65 473e
00000360: 9b19 00be b0ef 35bd 0cdc 29bd 60e0 c9bd
00000370: b42c a13e eb88 9abd 8198 e83e 15a2 14be
00000380: 8e03 62bd d169 843d e944 0a3e ca5f 3fbd
00000390: 1d99 b43d 1b99 293e bc06 4fbc b2a0 353c
000003a0: 7907 823e 178d 383e b95d 3dbe 9852 2fbd
000003b0: 1115 e23e 3a39 8336 936b 5fbe fd14 843e
000003c0: b29a a9be 1e22 913e 1908 253e 417f f9bb
000003d0: de07 f4bc a66a 7a3e 9598 d7bd 5d41 2abe
000003e0: 70c1 2bbd 8622 9abe 3025 9e3e 96e4 e3bd
000003f0: 8c94 233e 79cf 85bd bde3 08be cf1d 28be

base.mlp.fc_h.0.bias f4 [64]
0.0 0.0 0.0 0.0 0.0 0.0 0.0 0.0
0.0 0.0 0.0 0.0 0.0 0.0 0.0 0.0
0.0 0.0 0.0 0.0 0.0 0.0 0.0 0.0
0.0 0.0 0.0 0.0 0.0 0.0 0.0 0.0
0.0 0.0 0.0 0.0 0.0 0.0 0.0 0.0
0.0 0.0 0.0 0.0 0.0 0.0 0.0 0.0
0.0 0.0 0.0 0.0 0.0 0.0 0.0 0.0
0.0 0.0 0.0 0.0 0.0 0.0 0.0 0.0
00000000: 0000 0000 0000 0000 0000 0000 0000 0000
00000010: 0000 0000 0000 0000 0000 0000 0000 0000
00000020: 0000 0000 0000 0000 0000 0000 0000 0000
00000030: 0000 0000 0000 0000 0000 0000 0000 0000
00000040: 0000 0000 0000 0000 0000 0000 0000 0000
00000050: 0000 0000 0000 0000 0000 0000 0000 0000
00000060: 0000 0000 0000 0000 0000 0000 0000 0000
00000070: 0000 0000 0000 0000 0000 0000 0000 0000
00000080: 0000 0000 0000 0000 0000 0000 0000 0000
00000090: 0000 0000 0000 0000 0000 0000 0000 0000
000000a0: 0000 0000 0000 0000 0000 0000 0000 0000
000000b0: 0000 0000 0000 0000 0000 0000 0000 0000
000000c0: 0000 0000 0000 0000 0000 0000 0000 0000
000000d0: 0000 0000 0000 0000 0000 0000 0000 0000
000000e0: 0000 0000 0000 0000 0000 0000 0000 0000
000000f0: 0000 0000 0000 0000 0000 0000 0000 0000

base.mlp.fc_h.2.weight f4 [64]
1.0 1.0 1.0 1.0 1.0 1.0 1.0 1.0
1.0 1.0 1.0 1.0 1.0 1.0 1.0 1.0
1.0 1.0 1.0 1.0 1.0 1.0 1.0 1.0
1.0 1.0 1.0 1.0 1.0 1.0 1.0 1.0
1.0 1.0 1.0 1.0 1.0 1.0 1.0 1.0
1.0 1.0 1.0 1.0 1.0 1.0 1.0 1.0
1.0 1.0 1.0 1.0 1.0 1.0 1.0 1.0
1.0 1.0 1.0 1.0 1.0 1.0 1.0 1.0
00000000: 0000 803f 0000 803f 0000 803f 0000 803f
00000010: 0000 803f 0000 803f 0000 803f 0000 803f
00000020: 0000 803f 0000 803f 0000 803f 0000 803f
00000030: 0000 803f 0000 803f 0000 803f 0000 803f
00000040: 0000 803f 0000 803f 0000 803f 0000 803f
00000050: 0000 803f 0000 803f 0000 803f 0000 803f
00000060: 0000 803f 0000 803f 0000 803f 0000 803f
00000070: 0000 803f 0000 803f 0000 803f 0000 803f
00000080: 0000 803f 0000 803f 0000 803f 0000 803f
00000090: 0000 803f 0000 803f 0000 803f 0000 803f
000000a0: 0000 803f 0000 803f 0000 803f 0000 803f
000000b0: 0000 803f 0000 803f 0000 803f 0000 803f
000000c0: 0000 803f 0000 803f 0000 803f 0000 803f
000000d0: 0000 803f 0000 803f 0000 803f 0000 803f
000000e0: 0000 803f 0000 803f 0000 803f 0000 803f
000000f0: 0000 803f 0000 803f 0000 803f 0000 803f

base.mlp.fc_h.2.bias f4 [64]
0.0 0.0 0.0 0.0 0.0 0.0 0.0 0.0
0.0 0.0 0.0 0.0 0.0 0.0 0.0 0.0
0.0 0.0 0.0 0.0 0.0 0.0 0.0 0.0
0.0 0.0 0.0 0.0 0.0 0.0 0.0 0.0
0.0 0.0 0.0 0.0 0.0 0.0 0.0 0.0
0.0 0.0 0.0 0.0 0.0 0.0 0.0 0.0
0.0 0.0 0.0 0.0 0.0 0.0 0.0 0.0
0.0 0.0 0.0 0.0 0.0 0.0 0.0 0.0
00000000: 0000 0000 0000 0000 0000 0000 0000 0000
00000010: 0000 0000 0000 0000 0000 0000 0000 0000
00000020: 0000 0000 0000 0000 0000 0000 0000 0000
00000030: 0000 0000 0000 0000 0000 0000 0000 0000
00000040: 0000 0000 0000 0000 0000 0000 0000 0000
00000050: 0000 0000 0000 0000 0000 0000 0000 0000
00000060: 0000 0000 0000 0000 0000 0000 0000 0000
00000070: 0000 0000 0000 0000 0000 0000 0000 0000
00000080: 0000 0000 0000 0000 0000 0000 0000 0000
00000090: 0000 0000 0000 0000 0000 0000 0000 0000
000000a0: 0000 0000 0000 0000 0000 0000 0000 0000
000000b0: 0000 0000 0000 0000 0000 0000 0000 0000
000000c0: 0000 0000 0000 0000 0000 0000 0000 0000
000000d0: 0000 0000 0000 0000 0000 0000 0000 0000
000000e0: 0000 0000 0000 0000 0000 0000 0000 0000
000000f0: 0000 0000 0000 0000 0000 0000 0000 0000

base.mlp.fc2.0.0.weight f4 [64, 64]
-0.17190807 -0.16050914 0.016492346 0.17482741 -0.115340404 -0.1612709 -0.26482615 0.09382839
0.3147912 -0.11721923 0.28015897 -0.14887519 0.14481927 -0.20403132 -0.22637895 0.13659899
-0.007981615 -0.15196748 0.052136783 0.13365467 0.1805916 0.09697056 -0.17198548 -0.048499726
0.015592113 0.35576892 0.07611844 -0.01183014 -0.20762312 0.12550618 0.4145661 -0.11502091
-0.13485503 0.051272728 -0.24105018 0.11876576 0.22059472 -0.12959817 -0.030298665 0.045174714
0.046395756 0.0885051 -0.12749395 -0.08771171 -0.12141687 0.022237893 0.42468917 -0.16154239
-0.029418739 -0.1271079 -0.21334133 -0.21406318 -0.13383362 -0.14677241 0.035230134 -0.31116343
-0.015889386 -0.03713441 0.18923788 -0.23853114 -0.12619375 -0.1382288 0.25041023 -0.2427251
-0.16945739 -0.09146605 0.2233429 -0.13930985 0.044714138 -0.23456787 0.013245291 -0.006985507
0.12780471 -0.14425212 -0.09650594 0.019875648 0.38780794 0.19639872 -0.079530716 -0.08211743
-0.39031678 -0.0122189475 -0.019306421 -0.24656282 -0.1505203 0.06422259 -0.27431393 -0.051351365
0.043214723 -0.17169523 -0.25124356 0.18804565 -0.1858647 0.022335783 0.042014107 0.07096911
-0.12903343 -0.076107346 0.13793904 -0.20170562 0.038444363 0.29666802 0.2568819 -0.21830146
0.1778232 0.2979992 -0.17666739 -0.3005836 0.055750012 -0.10463112 -0.023210594 -0.1630366
0.15808281 0.19869858 0.16916162 -0.1761998 0.27035788 -0.11400935 0.025833398 0.31680024
-0.20487446 0.044641078 0.16438413 0.18898803 -0.21234025 0.13255668 0.14349164 -0.102044076
0.14254189 0.2722123 0.07282045 0.3110685 -0.17647237 0.22173224 -0.16338204 -0.0690238
-0.29025683 -0.31961086 -0.28183076 0.054600745 -0.077504516 0.07076775 -0.19616948 0.30706283
-0.03766688 0.1316082 0.17250602 -0.1588819 0.10456798 -0.41171136 -0.029848674 -0.27000305
-0.15357849 -0.052478034 -0.008505437 -0.25816074 0.006290399 0.03985226 0.1848338 -0.27439746
-0.04485288 -0.083770804 0.1398605 -0.3948771 0.22537555 -0.06725877 0.31224144 -0.28292048
-0.08743751 0.07053709 0.026450004 -0.018800521 0.056608804 -0.097429276 -0.028995764 -0.15009482
0.17719416 -0.21896163 0.17761266 0.22085294 -0.22453873 0.045145873 -0.002230176 -0.105215155
-0.0065115145 0.009393864 -0.17825894 -0.05437191 0.03887335 0.021811048 0.22554009 -0.07094993
0.12374756 -0.006587461 0.020637928 0.16769227 -0.14287886 0.16654512 0.14657313 0.1281348
0.06200896 -0.15500242 0.052698724 -0.16425574 0.029769009 0.30012405 -0.11044447 -0.19037199
0.15976417 -0.18707965 -0.22460371 -0.12459845 0.17750606 0.1291682 0.16014427 0.19334339
-0.110446915 -0.035174083 -0.042890497 -0.101341136 0.3270271 -0.07020097 0.44776866 -0.15619735
-0.057739228 0.06922421 0.15155698 -0.058666263 0.090415984 0.15713066 -0.013294469 0.011805635
0.24501933 0.1807057 -0.18461458 -0.05988285 0.447069 -0.006157136 -0.21914162 0.26294005
-0.32853708 0.2946578 0.1599999 -0.022760345 -0.029163819 0.24218018 -0.109087646 -0.1763429
-0.058550548 -0.29611605 0.2922791 -0.10904247 0.16708916 -0.06689612 -0.12911545 -0.15324366
00000000: ab08 30be 825c 24be f51a 873c f505 333e
00000010: 9737 ecbd 3324 25be 4b97 87be 1929 c03d
00000020: 502c a13e a310 f0bd ff70 8f3e bd72 18be
00000030: 814b 143e 96ed 50be e2cf 67be 9be0 0b3e
00000040: 52c5 02bc 5d9d 1bbe 618d 553d c5dc 083e
00000050: 01ed 383e 8098 c63d f61c 30be a6a7 46bd
00000060: 1076 7f3c 5827 b63e fce3 9b3d 34d3 41bc
00000070: 289b 54be b184 003e 0242 d43e 1590 ebbd
00000080: 7017 0abe 5a03 523d dcd5 76be 763b f33d
00000090: 95e3 613e 62b5 04be e834 f8bc 1f09 393d
000000a0: 7a09 3e3d 2942 b53d c68d 02be 32a2 b3bd
000000b0: 68a9 f8bd 3e2c b63c dc70 d93e 5e6b 25be
000000c0: 91ff f0bc 9328 02be 2676 5abe 6133 5bbe
000000d0: ae0b 09be 824b 16be 794d 103d d050 9fbe
000000e0: 752a 82bc 401a 18bd 93c7 413e 8241 74be
000000f0: ef38 01be da8b 0dbe c535 803e ee8c 78be
00000100: 3d86 2dbe 8d52 bbbd 00b4 643e 3ea7 0ebe
00000110: 2c26 373d 8f32 70be c702 593c aee6 e4bb
00000120: 3ddf 023e d4b6 13be e8a4 c5bd 41d2 a23c
00000130: c38e c63e bf1c 493e 00e1 a2bd 2f2d a8bd
00000140: 9ad7 c7be fb31 48bc 8028 9ebc f77a 7cbe
00000150: fe21 1abe 2287 833d e072 8cbe cf55 52bd
00000160: ec01 313d e0d0 2fbe ffa2 80be 0a8f 403e
00000170: 5153 3ebe 88f9 b63c fc16 2c3d 4158 913d
00000180: 5721 04be 2bde 9bbd e43f 0d3e eb8b 4ebe
00000190: d677 1d3d dfe4 973e 0686 833e 6b8a 5fbe
000001a0: 4917 363e 5a93 983e 4ce8 34be 18e6 99be
000001b0: 205a 643d d748 d6bd 2524 bebc 11f3 26be
000001c0: 76e0 213e a477 4b3e b438 2d3e b86d 34be
000001d0: 596c 8a3e bc7d e9bd 90a0 d33c a433 a23e
000001e0: 9cca 51be 90d9 363d 5054 283e 1486 413e
000001f0: b96f 59be f0bc 073e 79ef 123e 7cfc d0bd
00000200: 80f6 113e 695f 8b3e e322 953d 5f44 9f3e
00000210: 2cb5 34be c70d 633e 9f4d 27be 5a5c 8dbd
00000220: 8b9c 94be 09a4 a3be 1f4c 90be 08a5 5f3d
00000230: b0ba 9ebd afee 903d a7e0 48be 5737 9d3e
00000240: 9648 1abd 4dc4 063e 6ba5 303e f0b1 22be
00000250: bd27 d63d d5cb d2be 3585 f4bc d73d 8abe
00000260: ae43 1dbe 35f3 56bd 635a 0bbc a52d 84be
00000270: b11f ce3b 203c 233d 1245 3d3e d37d 8cbe
00000280: a7b7 37bd 0790 abbd 9737 0f3e 552d cabe
00000290: d9c8 663e f7be 89bd 1cde 9f3e f4da 90be
000002a0: 7012 b3bd c075 903d aead d83c 8d03 9abc
000002b0: a2de 673d 0089 c7bd 8688 edbc 75b2 19be
000002c0: 6372 353e 7a37 60be 18e0 353e 4627 623e
000002d0: 7bed 65be e1ea 383d 2528 12bb 0b7b d7bd
000002e0: 8b5e d5bb b9e8 193c 8389 36be 14b5 5ebd
000002f0: a939 1f3d 15ad b23c fbf3 663e 324e 91bd
00000300: 5c6f fd3d a1db d7bb df10 a93c 86b7 2b3e
00000310: d64e 12be ce8a 2a3e 4417 163e c535 033e
00000320: 1bfd 7d3d f4b8 1ebe 9eda 573d a832 28be
00000330: 23de f33c dca9 993e b630 e2bd e0f0 42be
00000340: 3899 233e cf91 3fbe 84fe 65be 792d ffbd
00000350: 26c4 353e ab44 043e dcfc 233e cffb 453e
00000360: fe31 e2bd b312 10bd f2ad 2fbd f18b cfbd
00000370: 1970 a73e 87c5 8fbd ef41 e53e 33f2 1fbe
00000380: f87f 6cbd 6cc5 8d3d c131 1b3e 094c 70bd
00000390: 042c b93d dce6 203e 0bd1 59bc 6c6c 413c
000003a0: 59e6 7a3e ea0a 393e 9b0b 3dbe b847 75bd
000003b0: 3ae6 e43e cdc1 c9bb a966 60be 14a0 863e
000003c0: 0336 a8be 63dd 963e 04d7 233e e773 babc
000003d0: f6e8 eebc 15fe 773e 5869 dfbd 3c93 34be
000003e0: b3d2 6fbd 869c 97be 9ba5 953e a951 dfbd
000003f0: 6c19 2b3e d500 89bd d736 04be e8eb 1cbe

base.mlp.fc2.0.0.bias f4 [64]
-0.0092182085 0.0017802509 0.006450888 0.0042157713 0.011225482 -0.008183891 0.0050005936 0.008152363
-0.0019454987 -0.0076856064 -0.015077466 -0.005177552 -0.01106194 0.007500042 -0.00022110034 0.004096084
0.009334648 -0.004349668 -0.0028876117 0.0006244073 0.010007383 -0.0015941388 -0.012807589 0.0021492867
-0.002578637 0.014119182 -0.00021670209 -0.00973166 0.011296332 0.0035393229 -0.0052896407 -0.013234649
-0.011596236 -0.004392427 0.009511511 0.011861293 -0.012646664 -0.007753953 -0.0045630736 -0.00084390957
0.0042517413 0.012389425 0.0007939366 -0.01112981 -0.00391934 0.0059924684 0.0143458145 -0.014517972
0.016455926 0.0028988093 -0.005104633 -0.010164288 0.0031309212 0.007871615 -0.0049796137 0.0058251284
0.011114871 0.010606404 0.00047619783 0.0075754384 -0.0020961415 0.004119064 0.013427981 -0.0018590915
00000000: f807 17bc 4f57 e93a f861 d33b 7424 8a3b
00000010: 16eb 373c ba15 06bc 05dc a33b 7d91 053c
00000020: 1b00 ffba 8ad7 fbbb 7a07 77bc 74a8 a9bb
00000030: 243d 35bc eac2 f53b 2cd7 67b9 7138 863b
00000040: 5af0 183c a987 8ebb 163e 3dbb 44af 233a
00000050: 02f6 233c 6cf2 d0ba ecd6 51bc 0cdb 0c3b
00000060: 5afe 28bb 2454 673c 863a 63b9 8a71 1fbc
00000070: 4014 393c fcf3 673b b954 adbb 24d6 58bc
00000080: 24fe 3dbc 59ee 8fbb 2bd6 1b3c de55 423c
00000090: f433 4fbc df14 febb d685 95bb d039 5dba
000000a0: 3152 8b3b 04fd 4a3c 2f20 503a ce59 36bc
000000b0: cf6d 80bb 785c c43b b50a 6b3c cadc 6dbc
000000c0: 94ce 863c f3f9 3d3b c444 a7bb 1d88 26bc
000000d0: 2430 4d3b f2f7 003c 072c a3bb b8e0 be3b
000000e0: 261b 363c 7cc6 2d3c 31aa f939 623b f83b
000000f0: 6b5f 09bb 37f9 863b 0901 5c3c c2ac f3ba

base.mlp.fc2.0.2.weight f4 [64]
1.001738 1.0029091 1.0159084 1.0119573 1.0150856 1.0067985 1.0063851 1.0108281
1.0019177 1.0074445 1.004667 1.0028669 0.9951903 1.0070153 0.9983649 1.0158198
1.021203 1.0056967 1.0029647 1.0084709 1.0073135 1.0124266 1.0013251 1.0084952
1.0044346 1.0182462 1.0031896 1.0060339 1.0097172 1.0105147 1.0000706 1.0177692
1.0108802 1.0013945 1.0087404 1.0160625 0.99873084 1.0108881 1.0011967 0.9971718
1.0031103 1.0189542 1.0037949 1.0045437 1.0058336 1.0105672 1.012751 1.0085897
0.9938261 1.0154517 1.010997 0.9955788 1.0164309 1.0002099 1.0115579 1.0142584
1.0158573 1.00961 1.0118552 1.0007302 1.0091345 0.9950914 1.0026423 0.99780416
00000000: f338 803f 535f 803f 4909 823f d187 813f
00000010: 53ee 813f c6de 803f 3ad1 803f d162 813f
00000020: d73e 803f f1f3 803f ee98 803f f15d 803f
00000030: cbc4 7e3f e1e5 803f d894 7f3f 6206 823f
00000040: c8b6 823f abba 803f 2661 803f 9315 813f
00000050: a6ef 803f 3297 813f 6c2b 803f 5f16 813f
00000060: 5091 803f e455 823f 8468 803f b8c5 803f
00000070: 6a3e 813f 8c58 813f 5002 803f 4346 823f
00000080: 8664 813f b22d 803f 681e 813f 560e 823f
00000090: d3ac 7f3f c864 813f 3727 803f a746 7f3f
000000a0: eb65 803f 176d 823f 5a7c 803f e394 803f
000000b0: 28bf 803f 445a 813f d3a1 813f 7819 813f
000000c0: 636b 7e3f 52fa 813f 5a68 813f 41de 7e3f
000000d0: 681a 823f e106 803f bb7a 813f 38d3 813f
000000e0: 9d07 823f e73a 813f 7984 813f ed17 803f
000000f0: 522b 813f 4fbe 7e3f 9556 803f 1870 7f3f

base.mlp.fc2.0.2.bias f4 [64]
0.0064622946 -0.010073504 -0.00093529123 -0.005019028 0.012553922 0.007440902 -0.003932348 0.0031671806
-0.0013717043 -0.011781985 -0.0031775818 -0.0066765877 0.00040347985 -0.0073124785 -0.0044623255 0.001656088
-0.0076503544 -0.0077419383 0.0046657105 0.010277098 0.0046796612 -0.008701856 0.007620708 -0.005435512
0.004809896 -0.00060495356 0.0021842232 0.0033062187 0.0066378363 0.0052991966 0.008195049 -0.011372586
0.0098559 -0.0028093418 0.0006553257 -0.005214237 -0.004825555 -0.011084077 -0.0065336097 0.011449069
-0.00058454426 0.011109667 0.0017173648 -0.009745096 -0.0057466277 0.0050641904 0.008488054 -0.0073323254
0.013625957 -0.01404301 -0.008802481 0.003906461 -0.008119844 0.0034718288 -0.0010149867 0.0072442177
0.00498581 0.005862321 -0.0065474813 -0.0006097732 -0.0031701848 0.0046481513 0.013622445 -0.002278748
00000000: a8c1 d33b 570b 25bc 552e 75ba a976 a4bb
00000010: f7ae 4d3c cfd2 f33b edda 80bb 7990 4f3b
00000020: c2ca b3ba 3a09 41bc fa3e 50bb 47c7 dabb
00000030: 268a d339 849d efbb b338 92bb 1811 d93a
00000040: d3af fabb 16b0 fdbb d1e2 983b 4661 283c
00000050: d857 993b 3b92 0ebc 22b7 f93b 611c b2bb
00000060: 559c 9d3b bf95 1eba 2f25 0f3b 25ad 583b
00000070: 3582 d93b e2a4 ad3b 8744 063c 1554 3abc
00000080: a47a 213c ef1c 38bb 2aca 2b3a 31dc aabb
00000090: b01f 9ebb fd99 35bc e417 d6bb e094 3b3c
000000a0: 1a3c 19ba 5205 363c 3319 e13a e5a9 1fbc
000000b0: 354e bcbb 82f1 a53b 7b11 0b3c 0144 f0bb
000000c0: 683f 5f3c a714 66bc 4838 10bc c501 803b
000000d0: 1809 05bc 9f87 633b 4d09 85ba e760 ed3b
000000e0: 0160 a33b b618 c03b 418c d6bb 30d9 1fba
000000f0: e0c2 4fbb 854f 983b ad30 5f3c 0c57 15bb

act.action_out.linear.weight f4 [5, 64]
0.006899561 -0.0072782976 -0.01800767 0.00043114822 0.007017847 0.011712204 0.010105454 0.0041353004
0.003635662 -0.009403449 0.0104522025 -0.0028719653 0.008498621 -0.007572116 -0.005349587 -0.016922504
-0.019931069 -0.005210196 -0.0045913663 0.01016589 0.0044974093 -0.010293748 0.006216268 0.012544447
-0.008583741 -0.007605402 0.008033748 0.014874645 -0.012653175 0.01591551 0.005796741 0.009433823
0.010437211 0.008293237 0.008721005 -0.014694316 -0.01330856 -0.012185616 -0.009188481 -0.0034276198
-0.0019165732 0.017667213 0.011638345 -0.008982057 -0.0009144159 0.0064931996 0.0023968285 -0.0074592237
0.0102440715 -0.014792069 -0.0027466966 0.0010074927 -0.010742379 0.0072302935 -0.0011811218 -0.0029112208
0.01584289 0.0059399125 -0.00800063 0.0079762535 -0.0044688783 -0.007955722 0.0032014905 0.0064352676
-0.004854856 0.0114893885 0.0020593011 0.0011660715 -0.0156117175 -0.007083829 -0.010383028 0.0011949094
-0.008568513 0.011194491 0.010049523 0.01718326 0.009642652 -0.006078463 -0.008259549 0.019760052
0.021598646 0.017445149 -0.0065016225 -0.004951248 0.0018997294 0.013292888 -0.008973474 -0.004239804
0.0010596405 0.004531566 -0.0061430386 -0.0031304033 0.0026337882 -0.014490791 -0.00030173542 0.016185295
-0.0027898783 0.0041369465 -0.0018810026 0.015438726 0.0024107674 0.012988047 0.010405512 -0.010248173
0.0042989505 -0.015424331 0.009206517 0.012814843 0.0101770675 -0.0024444018 -0.0020909752 0.012008507
-0.0051009655 0.0066147796 0.01974459 -0.004212987 0.009921579 -0.003216457 0.013903993 -0.008684601
0.0061450545 0.010495012 0.010480516 -0.00018346764 -0.014013459 -0.004742273 -0.0021696095 -0.00916769
0.0029939031 -0.007770467 -0.012497075 0.016690096 0.013135062 -0.00777054 0.011959475 0.014701491
0.012782874 -0.00043530526 0.003965879 0.00640794 -0.00068820384 0.010769759 0.0009319984 -0.019898692
-0.011537007 0.0023246184 -0.0068470538 0.014571271 0.014272001 -0.01749931 -0.0016418756 0.013086702
-0.009320123 -0.022477377 0.010653595 8.2157596e-05 -0.003980741 -0.005155224 -0.007768301 -0.008417364
-0.007916984 -0.009627749 0.01325682 -0.01305207 0.0011550562 -0.007884597 0.0015414888 0.0113737425
0.011986556 0.003522175 0.002430516 -0.0074942727 0.0069682146 0.022036467 0.020046469 0.0070219217
0.0061400225 -0.007914226 -0.0090446165 -0.010446992 -0.022578178 0.007850201 0.014183453 -0.017058022
0.014981607 0.008020559 -0.0122781405 0.009514695 0.016640136 -0.00478685 0.0043976433 0.01107889
0.008543979 0.002371894 0.014206591 -0.009737211 0.0047984216 0.0067044455 -0.0048946417 -0.01531657
-0.0064082835 -0.01844734 -0.00872491 -0.008585028 -0.006846033 -0.005361673 0.0030509722 0.010008899
0.014975493 -0.0043142475 0.00640832 -0.0028498883 -0.0182483 0.014942735 0.005070225 -0.008128116
0.0071157836 0.02388475 -0.014111297 -0.0054180026 0.018169226 0.0062533882 0.0073440555 -0.023310667
0.008224485 -0.0035470012 -0.01284309 0.005188491 -0.0030841331 0.0012262501 -0.0020000234 -0.0021434564
-0.00799484 0.0059977933 -0.002747483 0.005962796 -0.010045664 -0.013006764 -0.0013265563 -0.010690594
0.00059313304 -0.0047016717 -0.002778012 -0.0025267762 -0.0023499816 -0.007994751 -0.013188869 0.014435288
-0.013734684 -0.009197232 0.0035119688 -0.0070521147 -0.00640879 0.01150321 0.007835391 -0.0021353124
00000000: b615 e23b c97e eebb d284 93bc bc0b e239
00000010: f8f5 e53b 8be4 3f3c 5991 253c 6a81 873b
00000020: 4944 6e3b ec10 1abc b73f 2b3c 9537 3cbb
00000030: cd3d 0b3c 831f f8bb 974b afbb 10a1 8abc
00000040: 7b46 a3bc 4bba aabb 2c73 96bb d58e 263c
00000050: 015f 933b 1ca7 28bc d6b1 cb3b 3987 4d3c
00000060: d2a2 0cbc bc36 f9bb fb9f 033c c8b4 733c
00000070: 434f 4fbc 3e61 823c 97f2 bd3b 5290 1a3c
00000080: d600 2b3c 5be0 073c 8ce2 0e3c 6ec0 70bc
00000090: 250c 5abc 2ea6 47bc 488b 16bc eba1 60bb
000000a0: 8635 fbba d5ba 903c c2ae 3e3c 7a29 13bc
000000b0: 6ab5 6fba e8c4 d43b 1c14 1d3b 816c f4bb
000000c0: c0d6 273c 6f5a 72bc ec01 34bb d80d 843a
000000d0: ce00 30bc 19ec ec3b dfcf 9aba 2eca 3ebb
000000e0: f3c8 813c 99a3 c23b 1315 03bc d5ae 023c
000000f0: ab6f 92bb b758 02bc 19d0 513b f0de d23b
00000100: 7c15 9fbb fd3d 3c3c 57f5 063b ded6 983a
00000110: 4ac8 7fbc 771f e8bb 931d 2abc 829e 9c3a
00000120: f362 0cbc 1969 373c c1a6 243c e8c3 8c3c
00000130: 37fc 1d3c d82d c7bb 0f53 07bc d5df a13c
00000140: a5ef b03c 21e9 8e3c 900b d5bb 143e a2bb
00000150: 5700 f93a 6aca 593c 7a05 13bc 0eee 8abb
00000160: a3e3 8a3a 887d 943b 8b4b c9bb 7427 4dbb
00000170: a29b 2c3b c86a 6dbc 3e32 9eb9 0697 843c
00000180: 64d6 36bb 398f 873b f98b f6ba b6f2 7c3c
00000190: f7fd 1d3b d1cb 543c e17b 2a3c f4e7 27bc
000001a0: 36de 8c3b 55b6 7cbc eed6 163c 59f5 513c
000001b0: b7bd 263c 4232 20bb be08 09bb 54bf 443c
000001c0: 0026 a7bb cbc0 d83b 68bf a13c 190d 8abb
000001d0: 1e8e 223c 32cb 52bb 93cd 633c db49 0ebc
000001e0: 745c c93b 45f3 2b3c 78b6 2b3c 3861 40b9
000001f0: b598 65bc 1265 9bbb 0230 0ebb 1434 16bc
00000200: 5c35 443b 679f febb 88c0 4cbc abb9 883c
00000210: 7134 573c 04a0 febb adf1 433c 86de 703c
00000220: 426f 513c af39 e4b9 34f4 813b b2f9 d13b
00000230: 9468 34ba a573 303c 5b51 743a 9502 a3bc
00000240: b705 3dbc a058 183b 405d e0bb 57bc 6e3c
00000250: 1cd5 693c b75a 8fbc 3434 d7ba 9b69 563c
00000260: 6eb3 18bc 7a22 b8bc 6b8c 2e3c 064c ac38
00000270: e070 82bb 27ed a8bb 3b8d febb fce8 09bc
00000280: 3db6 01bc b5bd 1dbc 2233 593c 59d8 55bc
00000290: 4165 973a 662e 01bc c80b ca3a ef58 3a3c
000002a0: 4363 443c 4ad4 663b 4b49 1f3b 8492 f5bb
000002b0: 9f55 e43b d285 b43c 7e38 a43c 2618 e63b
000002c0: 3e32 c93b abaa 01bc df2f 14bc dc29 2bbc
000002d0: dff5 b8bc 219e 003c b761 683c 44bd 8bbc
000002e0: 6a75 753c aa68 033c 412a 49bc 86e3 1b3c
000002f0: e550 883c 02db 9cbb 1b1a 903b 3c84 353c
00000300: 0cfc 0b3c c771 1b3b c3c2 683c d388 1fbc
00000310: 143c 9d3b f7b0 db3b 3b63 a0bb 5af2 7abc
00000320: 94fc d1bb e01e 97bc edf2 0ebc 38a8 0cbc
00000330: b054 e0bb f9b0 afbb d2f2 473b 5dfc 233c
00000340: c55b 753c 885e 8dbb e2fc d13b 31c5 3abb
00000350: 757d 95bc 60d2 743c 2124 a63b ca2b 05bc
00000360: 852b e93b f4a9 c33c 1233 67bc 8089 b1bb
00000370: a1d7 943c 39e9 cc3b 67a6 f03b 03f6 bebc
00000380: febf 063c ce74 68bb d36b 52bc 3804 aa3b
00000390: 2b1f 4abb 20ba a03a d312 03bb 3b79 0cbb
000003a0: cafc 02bc 2389 c43b 1e0f 34bb 8f63 c33b
000003b0: 9296 24bc 531a 55bc d8df adba 9a27 2fbc
000003c0: 7c7c 1b3a 7b10 9abb 4f0f 36bb 4598 25bb
000003d0: 2602 1abb 6bfc 02bc 2016 58bc fc81 6c3c
000003e0: 7107 61bc fdaf 16bc 0f29 663b 6d15 e7bb
000003f0: d400 d2bb f677 3c3c 0360 003c 99f0 0bbb

act.action_out.linear.bias f4 [5]
-0.003171442 -0.012566326 -0.00034562603 0.008813631 -0.0034411089
00000000: f8d7 4fbb fee2 4dbc 2435 b5b9 0c67 103c
00000010: 3a84 61bb
