mappo_ros/onpolicy/scripts/results/MPE/simple_spread/mappo/check/wandb/offline-run-20230123_100957-czgr6s16/files/critic.pt (torch_old, 45400 bytes, 15 tensors)

base.feature_norm.weight f4 [28]
0	0x3f80cd9d	1.0062748
1	0x3f8019da	1.0007889
2	0x3f7f8260	0.9980831
3	0x3f801ab3	1.0008148
4	0x3f7dee67	0.991919
5	0x3f7fc13f	0.99904245
6	0x3f80dcb1	1.006735
7	0x3f802693	1.0011772
8	0x3f7f304b	0.99683064
9	0x3f7fe55c	0.9995935
10	0x3f801f64	1.000958
11	0x3f802fb4	1.0014558
12	0x3f7eee16	0.9958204
13	0x3f816ea0	1.0111885
14	0x3f7faf82	0.9987718
15	0x3f80053e	1.00016
16	0x3f80c9bb	1.0061563
17	0x3f7e2dc1	0.99288565
18	0x3f809dbb	1.0048136
19	0x3f800584	1.0001683
20	0x3f7f7656	0.9978994
21	0x3f7e20b4	0.9926865
22	0x3f80cbfb	1.006225
23	0x3f80f794	1.0075555
24	0x3f812253	1.00886
25	0x3f8145ad	1.0099388
26	0x3f810559	1.0079757
27	0x3f7f3220	0.9968586

base.feature_norm.bias f4 [28]
0	0x3b80ad31	0.003926896
1	0x3bad44b8	0.005287733
2	0x3bb710f6	0.0055867387
3	0xba989672	-0.0011641516
4	0xbb190d5e	-0.0023353915
5	0x3a8f76ee	0.0010945478
6	0x392553bf	0.00015766824
7	0x3ab381d6	0.001369531
8	0x3b85eb90	0.004086919
9	0xbb180c2a	-0.002320061
10	0x3a783b8c	0.00094693224
11	0x35a6afd0	1.2419132e-06
12	0xbbfa4b9f	-0.0076384093
13	0xbb50346b	-0.0031769525
14	0xb8611072	-5.3659496e-05
15	0xbb80aa3e	-0.0039265445
16	0xba37a790	-0.0007005865
17	0xb9d9c682	-0.00041537365
18	0x3a12c4d4	0.00055987877
19	0xbabe0b9e	-0.0014499312
20	0xbb82ffe4	-0.0039977897
21	0x3ac6be2b	0.0015162876
22	0x3b64339d	0.0034820803
23	0x3bdbc7b7	0.0067071575
24	0x3bf8c6cb	0.0075920573
25	0xbba4b964	-0.005026983
26	0xbbf9a700	-0.007618785
27	0x3a9adf57	0.0011815828

base.mlp.fc1.0.weight f4 [64, 28]
0	0x3e4eb990	0.20187974
1	0x3d5a57fa	0.053306557
2	0x3d0d5b6e	0.034511022
3	0xbd380a7d	-0.044931877
4	0x3e38c100	0.18042374
5	0x3e1eca1f	0.1550679
6	0xbe64a7d9	-0.22329654
7	0xbd39165b	-0.045187335
8	0x3d8becc7	0.06832271
9	0x3d82200e	0.0635377
10	0xbd8026b1	-0.0625738
11	0x3ea25c65	0.31711116
12	0xbd91ceae	-0.07119499
13	0xbe8c6055	-0.27417246
14	0x3ddf84c7	0.10913997
15	0x3e76f899	0.2411827
16	0xbd820c87	-0.06350046
17	0x3e9e4ee1	0.30919555
18	0x3d31c31f	0.043398973
19	0xbd84e6fe	-0.06489371
20	0xbe5a2cef	-0.21306203
21	0xbd3fe09d	-0.046845067
22	0xbeb23dc5	-0.3481275
23	0xbd8697a7	-0.06571894
24	0x3d897eec	0.067136616
25	0x3e96afe9	0.29431084
26	0xbdfd751b	-0.12375852
27	0x3e24659a	0.16054383
28	0x3e294803	0.16531377
29	0xbce36ce1	-0.027761878
30	0x390029fd	0.00012222673
31	0xbe0f0f14	-0.13970596
32	0x3ed165fd	0.40898123
33	0x3e329c8f	0.17442535
34	0x3ed4fb7e	0.41598123
35	0x3ec3ecaa	0.38266498
36	0x3c802973	0.015644765
37	0xbe7cc918	-0.24686086
38	0xbbd205d1	-0.006409385
39	0xbd7229de	-0.05912196
40	0xbdb88ff5	-0.090118326
41	0x3e06a762	0.13149789
42	0x3e3950d1	0.18097235
43	0xbdc4b544	-0.09604886
44	0xbe5b21e5	-0.21399648
45	0xbe6acb41	-0.22929098
46	0xbed7833c	-0.4209231
47	0xbda507be	-0.08058117
48	0xbea7c1bb	-0.32764992
49	0xbe8344c4	-0.25638402
50	0xbdaddc02	-0.08489229
51	0x3e7a6039	0.24450769
52	0x3e2d7bb2	0.16941717
53	0xbde20f7d	-0.110381104
54	0xbe54937c	-0.20759386
55	0xbeac7846	-0.3368551
56	0x3e26e3f6	0.16297898
57	0x3e2c84a3	0.16847472
58	0x3cf0a69f	0.029376326
59	0x3cb032d9	0.021508621
60	0xbd0ffe33	-0.035154533
61	0xbd02ff13	-0.03198154
62	0x3cf2f14d	0.029656077
63	0x3d0d0f65	0.03443851
64	0x3dae705a	0.08517523
65	0x3dcdca5d	0.10048363
66	0xbdf22ad4	-0.11824575
67	0x3cc2dde3	0.023787444
68	0x3ecdac79	0.4017065
69	0x3ec2156f	0.37906978
70	0xbd99b12c	-0.07504496
71	0x3e1e017f	0.15430258
72	0x3dee5e73	0.116391085
73	0xbdb53323	-0.08847644
74	0x3e699387	0.22810183
75	0xbe88ae06	-0.2669527
76	0x3cd7b42a	0.026331026
77	0xbe30d1a2	-0.17267469
78	0xbe316b76	-0.1732615
79	0x3e04b414	0.1295932
80	0xbd22fc97	-0.03979167
81	0x3c858349	0.016297953
82	0x3ca3e6bd	0.020007486
83	0xbca66b73	-0.020314908
84	0x3e9d6bee	0.30746406
85	0xbd5e0388	-0.054202586
86	0xbd939564	-0.072062284
87	0xbed3b1cd	-0.4134659
88	0xbe221c5e	-0.15831134
89	0xbd231eed	-0.039824415
90	0xbdd83a93	-0.10558047
91	0x3dac2b6f	0.08406722
92	0xbe3d4670	-0.18483901
93	0xbe5033a7	-0.20332204
94	0x3d3a57f7	0.045494046
95	0x3da66530	0.08124769
96	0xbe3328cd	-0.17496033
97	0x3e1902b1	0.14942433
98	0xbde29876	-0.11064236
99	0x3d4b7fc2	0.049682386
100	0x3cf758c4	0.030193694
101	0xbd8a7760	-0.0676105
102	0x3e5f407a	0.2180194
103	0x3e561697	0.20907055
104	0x3e17733b	0.1479005
105	0xbe0829fc	-0.13297266
106	0x3d0b0183	0.03393699
107	0x3cb168b3	0.02165637
108	0x3e5f3e5e	0.21801135
109	0xb9b39e01	-0.00034259263
110	0xbc88aad0	-0.016683012
111	0x3ec5cf65	0.38634792
112	0xbd612ce8	-0.054974467
113	0xbd5a7a95	-0.05333956
114	0xbe4d9d46	-0.20079526
115	0xbdecddd8	-0.11565751
116	0xbdd60494	-0.10450092
117	0xbe49a970	-0.19693542
118	0x3e5c2d98	0.21501768
119	0xbefb9bca	-0.49142295
120	0xbd10281c	-0.0351945
121	0x3e157aa9	0.14597572
122	0x3dc5447f	0.09632205
123	0xbe02a4b5	-0.12758143
124	0xbeb92eb2	-0.36168438
125	0xbd74c2c4	-0.059756055
126	0x3dd16ad6	0.102254555
127	0x3e9b3b14	0.3031851
128	0xbcfe0718	-0.031009242
129	0xbde81cd4	-0.113336235
130	0x3c953f76	0.018218737
131	0xbdcd7ca8	-0.10033542
132	0xbe81551c	-0.25260246
133	0x3adf813f	0.0017052068
134	0xbd7a1505	-0.061055202
135	0xbe57210f	-0.21008705
136	0x3e458959	0.19290675
137	0xbd226e97	-0.039656248
138	0xbe06f664	-0.13179928
139	0x3d2ce3b7	0.042209353
140	0x3dd74af9	0.10512347
141	0xbd8c873c	-0.068617314
142	0xbe01b306	-0.12665948
143	0x3ce4c5a3	0.027926272
144	0x3d97f4e6	0.074197575
145	0xbd5ce22e	-0.05392664
146	0x3d70defc	0.058806404
147	0xbdccdff1	-0.10003651
148	0x3e30390c	0.17209262
149	0xbe940ae2	-0.28914553
150	0x3e3bf335	0.18354495
151	0x3d230851	0.039802853
152	0x3d2ab89b	0.04167996
153	0xbe218b3f	-0.15775774
154	0xbdc25fff	-0.09490966
155	0x3e213655	0.15743382
156	0xbc1bf313	-0.009518403
157	0xbe9b3c55	-0.30319467
158	0x3d8bb039	0.06820721
159	0xbe9f1359	-0.3106945
160	0x3ed3afc2	0.4134503
161	0xbdacb35d	-0.08432648
162	0x3d9bb11f	0.076021425
163	0x3e0c45a7	0.13698445
164	0xbd64ee0d	-0.055891085
165	0xbe608472	-0.21925524
166	0x3c26d98a	0.010183701
167	0xbd7bdd0a	-0.061490096
168	0xbe1782ba	-0.14795962
169	0x3e512b66	0.20426711
170	0xbe02b3d0	-0.12763906
171	0x3dc058e4	0.093919545
172	0x3d34d2de	0.04414641
173	0xbd0addf3	-0.033903074
174	0x3d41c6cb	0.047308724
175	0xbd911355	-0.070837654
176	0x3e12aefd	0.14324565
177	0x3d41a22c	0.0472738
178	0xbd1e8397	-0.038699713
179	0xbe3068b9	-0.17227449
180	0x3d376a43	0.044779073
181	0xbd6c1be2	-0.05764378
182	0x3e17d61d	0.14827771
183	0xbe96f5ae	-0.29484314
184	0x3d43ab16	0.047770582
185	0xbdcfc43f	-0.10144853
186	0x3d180632	0.037115283
187	0x3dad243b	0.08454176
188	0xbea70201	-0.32618716
189	0xbd8a3368	-0.06748086
190	0xbdab23e6	-0.083564565
191	0xbe645de6	-0.22301444
192	0x3e56ae99	0.20965041
193	0x3e04998d	0.129492
194	0xbe7bad40	-0.24577808
195	0x3c3d1b5d	0.011542168
196	0x3e86584a	0.26239234
197	0xbd92be51	-0.07165206
198	0xbcdbc524	-0.026827402
199	0x3ec582b4	0.3857628
200	0xbdc34132	-0.095339194
201	0xbe1ce750	-0.15322614
202	0xbe05d487	-0.13069354
203	0xbcbbf199	-0.022942351
204	0x3d9bf769	0.07615549
205	0xbe85d90d	-0.2614216
206	0xbe54d315	-0.20783646
207	0xbc5bf863	-0.013425919
208	0x3e667e4a	0.22509113
209	0xbe198668	-0.14992678
210	0xbde5d2aa	-0.112218216
211	0x3e03d410	0.12873864
212	0xbdeaafd6	-0.11459319
213	0xbe3ac603	-0.18239598
214	0xbe92cc8c	-0.28671682
215	0x3e1cde69	0.15319218
216	0x3c89d0ad	0.016823137
217	0x3d6d2243	0.057894003
218	0x3e1e6ae5	0.15470465
219	0xbe12366f	-0.14278577
220	0x3dcde22c	0.100529045
221	0x3eff042d	0.49807873
222	0xbc1a3b4b	-0.009413551
223	0xbd201ad7	-0.039088096
224	0xbe2095b2	-0.15682104
225	0x3e9fdf10	0.3122487
226	0xbda82587	-0.08210283
227	0x3e00fd29	0.12596573
228	0x3d8946ef	0.06702983
229	0x3dd5f518	0.104471385
230	0xbe248b57	-0.16068779
231	0x3d7301b2	0.05932779
232	0xbecf977a	-0.40545255
233	0xbdc02541	-0.093821056
234	0x3da4bb4b	0.08043536
235	0x3e9192f5	0.28432432
236	0x3e3d6f71	0.18499543
237	0xbc9c06af	-0.019046156
238	0x3cbdf0a4	0.023186035
239	0xbe317a0a	-0.1733171
240	0xbd7bda67	-0.06148758
241	0x3ddc0f77	0.10745137
242	0xbe4197da	-0.18905583
243	0x3e35f969	0.17770924
244	0x3dfa7bb8	0.12230629
245	0xbe87a66d	-0.2649416
246	0xbebeb63a	-0.37248403
247	0x3dda2e5d	0.10653374
248	0xbea14c40	-0.31503487
249	0x3e1bcc33	0.15214615
250	0xbcc8e887	-0.02452494
251	0x3d342aae	0.043986015
252	0xbea10752	-0.31450897
253	0x3e95ad97	0.29234
254	0x3dc4e451	0.096138604
255	0x3df1f295	0.11813847

base.mlp.fc1.0.bias f4 [64]
0	0xbbed5114	-0.0072423313
1	0x3b075562	0.0020650257
2	0xbb98120a	-0.0046408223
3	0xba89d7f4	-0.001051663
4	0x3c275922	0.010214122
5	0xbb85c6a8	-0.0040825196
6	0xbbbf7ca1	-0.0058437143
7	0xbadab80e	-0.0016686933
8	0xba49ea73	-0.0007702477
9	0x3b230f5b	0.0024880979
10	0x3aca2eb0	0.0015425291
11	0x3a2601f4	0.00063326885
12	0x3afb8ef4	0.0019192384
13	0xbb2aa872	-0.0026040343
14	0xbb20f606	-0.0024560704
15	0xbbfd09c6	-0.0077221124
16	0x3adfd105	0.0017075842
17	0x3c52d4e4	0.01286814
18	0x3b985e0e	0.004649884
19	0xba4a02d5	-0.00077061105
20	0x3ba2fefd	0.0049742446
21	0xbb93e4f4	-0.0045133773
22	0xbb60cc79	-0.0034301563
23	0xbc0fd59e	-0.008778958
24	0xbbca2f2d	-0.0061701746
25	0x3b067b0b	0.0020520117
26	0xbb533443	-0.0032227195
27	0xbb273a7c	-0.0025517037
28	0xbc1225ba	-0.0089201275
29	0xbba6dd77	-0.0050923186
30	0x3a8b381b	0.0010621579
31	0x3a38b6cf	0.00070462836
32	0xbbc4184d	-0.005984342
33	0xb9e47056	-0.00043571246
34	0xbbdd0a91	-0.0067456444
35	0xbb4320a5	-0.0029774096
36	0xb90ccdf5	-0.00013428165
37	0x3b7da929	0.0038705564
38	0x3b5ffec7	0.0034178959
39	0xba0e6150	-0.0005431371
40	0xba5cee8c	-0.000842788
41	0xbc3a997e	-0.011389134
42	0xbb4f4a6f	-0.003163006
43	0xbb68d831	-0.003552925
44	0x3b578bdb	0.0032889757
45	0xba241125	-0.0006258658
46	0x3c0083ec	0.007843953
47	0xbb3e531c	-0.0029041236
48	0xbaf39d36	-0.0018586281
49	0x3a912418	0.0011073379
50	0x3b53c01a	0.0032310546
51	0xbb1b868d	-0.0023731322
52	0xbb50463f	-0.0031780151
53	0xbb38efb9	-0.0028219058
54	0xb9b1002e	-0.00033760205
55	0x3c01f35e	0.007931558
56	0xbbaaf236	-0.005216862
57	0x3ba53906	0.005042198
58	0x3b9137c7	0.004431698
59	0x3c1926df	0.0093476465
60	0x3b9987cd	0.004685378
61	0x3b99151e	0.004671707
62	0xbc1e2a2e	-0.009653611
63	0xbbaf37ef	-0.005347244

base.mlp.fc1.2.weight f4 [64]
0	0x3f800aa0	1.0003242
1	0x3f801433	1.0006164
2	0x3f80f853	1.0075783
3	0x3f801b0f	1.0008258
4	0x3f801d55	1.0008951
5	0x3f7e29ac	0.99282336
6	0x3f803258	1.0015364
7	0x3f800530	1.0001583
8	0x3f7f7a8f	0.99796385
9	0x3f8067d0	1.0031681
10	0x3f807e79	1.0038596
11	0x3f805434	1.0025697
12	0x3f80fb8d	1.0076767
13	0x3f80546f	1.0025767
14	0x3f80a32d	1.0049797
15	0x3f7ec7a4	0.9952338
16	0x3f7f7b1b	0.9979722
17	0x3f809f7d	1.0048672
18	0x3f80f318	1.0074186
19	0x3f7f2743	0.99669284
20	0x3f7f8df6	0.9982599
21	0x3f7e4343	0.99321383
22	0x3f80a082	1.0048983
23	0x3f7ee2dd	0.99564916
24	0x3f7f3319	0.99687344
25	0x3f810056	1.0078228
26	0x3f7eab4b	0.9948012
27	0x3f7ef5e1	0.9959393
28	0x3f801c18	1.0008574
29	0x3f7f807c	0.99805427
30	0x3f80a02d	1.0048882
31	0x3f805647	1.002633
32	0x3f7e7c39	0.994083
33	0x3f7e2974	0.99282
34	0x3f7e8d14	0.9943402
35	0x3f807c7a	1.0037987
36	0x3f7e67b9	0.9937702
37	0x3f80b4c9	1.0055171
38	0x3f8017db	1.000728
39	0x3f815689	1.0104533
40	0x3f7f1808	0.99646044
41	0x3f8071c1	1.0034715
42	0x3f7e260c	0.99276805
43	0x3f7eb87f	0.9950027
44	0x3f80f175	1.0073687
45	0x3f8030a5	1.0014845
46	0x3f7ffdc2	0.9999658
47	0x3f7eb13c	0.9948919
48	0x3f7f6a50	0.99771595
49	0x3f7f0b15	0.99626285
50	0x3f8063e4	1.0030484
51	0x3f7fadcf	0.99874586
52	0x3f7fa86f	0.99866384
53	0x3f7d5340	0.98955154
54	0x3f804e17	1.0023831
55	0x3f80a206	1.0049446
56	0x3f7ec111	0.99513346
57	0x3f7f2276	0.9966196
58	0x3f81855e	1.0118825
59	0x3f806521	1.0030862
60	0x3f806db4	1.0033479
61	0x3f804c83	1.002335
62	0x3f7f4bd8	0.99725103
63	0x3f7fc4b5	0.99909526

base.mlp.fc1.2.bias f4 [64]
0	0xbb60ee1a	-0.0034321607
1	0x3ba0f9b1	0.004912578
2	0xbc0566f2	-0.00814222
3	0x3ab646e3	0.0013906624
4	0x3b4ca5da	0.0031226785
5	0x3a2ec492	0.00066668645
6	0x378a04aa	1.6453054e-05
7	0x3b67caca	0.0035368674
8	0xba660f7d	-0.00087761116
9	0xba8bef6d	-0.0010676213
10	0xba1c8d8c	-0.000597202
11	0x3abe885c	0.0014536488
12	0x3ac92c70	0.0015348326
13	0xbab88d5f	-0.0014080218
14	0xbb01c9db	-0.0019804153
15	0xbbbef99b	-0.005828095
16	0x3b002574	0.0019553574
17	0x3bf1dc6a	0.0073810117
18	0x3a9cc3cd	0.0011960209
19	0x3b56a834	0.0032754065
20	0x3b5ec539	0.0033992066
21	0xbb3a1029	-0.002839098
22	0xbb8a973d	-0.004229455
23	0xbb3bc995	-0.0028654088
24	0xbb6fa7de	-0.0036568563
25	0xba994147	-0.0011692428
26	0xbb985cba	-0.0046497257
27	0xbb6d632a	-0.0036222436
28	0xbbecea30	-0.0072300658
29	0x39e3c474	0.00043443183
30	0xb8a1929a	-7.704385e-05
31	0xb955d836	-0.00020393808
32	0x3af3d6d7	0.0018603456
33	0x38ec426a	0.000112657275
34	0xbaeae72c	-0.0017921678
35	0xbaf365d2	-0.0018569774
36	0xba9c732d	-0.001193618
37	0x3b61d699	0.0034460186
38	0xbac4e21a	-0.0015020997
39	0xbb465ab6	-0.003026647
40	0xbb0d8c60	-0.0021598563
41	0xbbe23262	-0.0069029788
42	0xbb1fd76b	-0.0024389874
43	0xba6b1e7d	-0.00089690817
44	0x3b48e989	0.0030656776
45	0xba8065c0	-0.0009795949
46	0x3c0bf467	0.008542157
47	0xbb79abca	-0.003809678
48	0x3b16e4bd	0.0023024522
49	0x3ba65746	0.005076322
50	0x3abd85fd	0.0014459487
51	0xbb8bdb16	-0.0042680604
52	0x3badb8bf	0.0053015645
53	0x3bcf23cd	0.0063214065
54	0x3b44d4a8	0.003003398
55	0xbaad5f68	-0.0013227286
56	0xbb9b4f9a	-0.004739714
57	0x3c2107dc	0.009828534
58	0x3a8b17c5	0.0010611942
59	0x3b96f19e	0.0046064397
60	0x3a8a5d90	0.0010556448
61	0xbb90e406	-0.0044217138
62	0xbc06e225	-0.008232628
63	0xbbc1fbab	-0.0059198937

base.mlp.fc_h.0.weight f4 [64, 64]
0	0x3d034de9	0.032056723
1	0x3c001825	0.0078182565
2	0x3d8644f2	0.06556119
3	0x3ed4ed96	0.41587514
4	0x3d845a3b	0.064625226
5	0xbec30551	-0.38089994
6	0x3de9a97a	0.11409278
7	0x3db33e7b	0.087521516
8	0x3d54d102	0.051957138
9	0x3d9d4275	0.07678691
10	0x3e01d00d	0.12677021
11	0xbe5c327c	-0.21503633
12	0x3d8a5741	0.067549236
13	0x3e58e54e	0.21181223
14	0x3e90a22a	0.2824872
15	0xbea98978	-0.33112693
16	0xbe5a4d07	-0.21318446
17	0x3ca974a3	0.0206855
18	0xbd7520e3	-0.059845816
19	0x3da28b52	0.079367295
20	0xbd52ea61	-0.051493052
21	0x3e863b56	0.26217145
22	0xbda1b35f	-0.078955404
23	0xbee39091	-0.44446233
24	0x3e53b4e8	0.20674479
25	0xbe8e13f0	-0.27749586
26	0x3e1d51c1	0.15363218
27	0xbe68ea22	-0.22745565
28	0x3ebcd28b	0.36879382
29	0x3ce386f0	0.027774304
30	0xbe2d9d4e	-0.16954538
31	0xbd9f1c9b	-0.07769128
32	0xbdcdc85b	-0.100479804
33	0xbddf11c3	-0.1089206
34	0x3e8f8e8c	0.28038442
35	0xbddb5684	-0.10709861
36	0x3d83038b	0.0639716
37	0x3cfa931c	0.030587725
38	0x3dd1a0c1	0.102357395
39	0x3b8876a6	0.0041645346
40	0xbd948c3b	-0.07253309
41	0xbd932ab3	-0.071858786
42	0x3d835fb8	0.06414741
43	0xbcbaab8f	-0.022786884
44	0xbde8cbe9	-0.11367018
45	0x3e449760	0.1919837
46	0x3d070381	0.032962326
47	0x3d8d4f6f	0.068999164
48	0xbe2ddd7b	-0.1697902
49	0xbddb505b	-0.10708686
50	0x3cd3220b	0.025773069
51	0x3b7097c6	0.0036711558
52	0x3e1629a3	0.1466432
53	0x3e918d88	0.28428292
54	0x3e7a7ac3	0.24460892
55	0xbe332c75	-0.17497428
56	0xbd98ec47	-0.07466941
57	0x3aceb290	0.0015769769
58	0xbd2d4999	-0.042306516
59	0xbdc0f7ce	-0.09422265
60	0x3bf80bb4	0.0075697545
61	0xbdc2146a	-0.0947655
62	0x3edc8bda	0.43075448
63	0xbd20e7ac	-0.03928344
64	0xbe465eb1	-0.1937206
65	0x3d97d4e3	0.07413652
66	0x3e8b73d2	0.272368
67	0xbe7c3e8b	-0.24633233
68	0xbc9a4ea0	-0.01883632
69	0xbe9dbd8a	-0.3080867
70	0xbe86a2ff	-0.2629623
71	0xbe7bde95	-0.24596627
72	0x3cabb2ff	0.020959375
73	0x3db2f3db	0.08737918
74	0x3e97644a	0.29568702
75	0xbde66d16	-0.11251275
76	0xbd99388b	-0.07481488
77	0xbea1d546	-0.31608027
78	0x3dc77358	0.09738797
79	0x3df5702d	0.119842865
80	0x3df1365c	0.11777946
81	0x3e937d19	0.2880638
82	0x3e441fd0	0.1915276
83	0xbb99ba33	-0.004691386
84	0x3ea980aa	0.33105975
85	0xbbd43a05	-0.006476643
86	0xbce7db6a	-0.028302867
87	0xbddaf989	-0.10692126
88	0xbe9dd419	-0.3082588
89	0xbdf40108	-0.11914259
90	0x3cab36bb	0.020900121
91	0x3cd7553a	0.026285756
92	0x3d8206ae	0.0634893
93	0xbc0574b5	-0.008145501
94	0xbe1afd8f	-0.15135787
95	0xbea085b5	-0.3135201
96	0x3da42169	0.08014185
97	0x3e28d219	0.16486396
98	0x3dba2c9c	0.0909054
99	0x3e72ee2c	0.23723668
100	0xbe4c5a9d	-0.19956441
101	0xbcf5d104	-0.030006893
102	0xbdd0e8c6	-0.10200648
103	0x3e68fb15	0.2275203
104	0xbd729a48	-0.059229165
105	0xbe8a8f70	-0.2706256
106	0xbc782dbe	-0.015147625
107	0xbcd854c7	-0.026407612
108	0xbe8e7e4f	-0.2783074
109	0x3d45fc66	0.04833641
110	0x3da40ff2	0.08010854
111	0x3ea6a328	0.32546353
112	0x3e1f67b8	0.1556691
113	0xbe27adcb	-0.1637489
114	0x3d09e374	0.03366418
115	0xbd5118a4	-0.05104889
116	0xbaa73ba6	-0.0012758865
117	0xbe003757	-0.1252111
118	0x3ea1eff4	0.31628382
119	0x3df743e9	0.120735
120	0xbe25121a	-0.16120186
121	0x3d00bcc9	0.03143004
122	0x3c7aa013	0.015296954
123	0xbe542080	-0.20715523
124	0xbea519ed	-0.32246342
125	0x3dd2784b	0.1027685
126	0xbe2a212d	-0.16614218
127	0xbca302ce	-0.019898798
128	0xbd0dc36a	-0.03461019
129	0xbbbd998e	-0.0057861274
130	0xbd1ea6b7	-0.03873321
131	0x3df42a3a	0.119221166
132	0x3ddbd87c	0.107346505
133	0xbd5357ae	-0.05159729
134	0xbea95c86	-0.33078402
135	0xbe611557	-0.21980797
136	0x3d85e0e3	0.06537034
137	0x3f019ee6	0.50633085
138	0xbc8b18b2	-0.01697955
139	0x3d007927	0.03136554
140	0xbe3c5a8d	-0.18393917
141	0xbe558875	-0.20852835
142	0xbdc03208	-0.09384543
143	0x3e5fb5a9	0.21846642
144	0xbd817dd5	-0.06322829
145	0x3e32cbfd	0.17460628
146	0xbdc7bb62	-0.09752537
147	0xbe92bd99	-0.28660277
148	0x3d86510a	0.06558426
149	0x3e14e727	0.14541303
150	0xbe0f15ab	-0.1397311
151	0x3e494df4	0.19658643
152	0x3e3ecdfb	0.18633263
153	0xbd059748	-0.032614976
154	0x3e0b36ae	0.13595077
155	0xbe703980	-0.23459435
156	0x3e23eefc	0.16009134
157	0x3e5b2621	0.21401264
158	0x3df1cb58	0.11806363
159	0xbe1dccb0	-0.15410113
160	0xbe3b1a2d	-0.18271704
161	0xbe884496	-0.26614827
162	0xbcbc5f7d	-0.022994751
163	0xbe90eb70	-0.28304625
164	0x3e34f36f	0.17670988
165	0x3e1c748d	0.15278836
166	0xbce33ba0	-0.027738392
167	0xbd854ff4	-0.065093905
168	0xbe613dd7	-0.21996246
169	0x3e33c6ef	0.17556356
170	0x3dfd9a4d	0.12382946
171	0x3e3ad9b1	0.18247105
172	0x3e29ffbf	0.16601466
173	0xbe47b9f4	-0.19504529
174	0x3bc0c18a	0.0058824467
175	0x3c874ac6	0.016515147
176	0xbe82e655	-0.25566354
177	0x3d9eeb24	0.07759693
178	0xbe9a6678	-0.30156302
179	0xbe58921f	-0.21149491
180	0xbe4a49f0	-0.19754767
181	0xbe872645	-0.26396385
182	0xbdfdfcfd	-0.12401769
183	0xbe91abba	-0.2845133
184	0x3d2c1d51	0.042020146
185	0x3e5d81ad	0.21631499
186	0x3d8837bd	0.06651256
187	0xbc83f272	-0.016106818
188	0xbe927c25	-0.2861034
189	0xbd027321	-0.031848077
190	0xbc7e529d	-0.015522626
191	0xbcc35e22	-0.023848597
192	0x3d4e227a	0.05032585
193	0x3ebf2686	0.3733408
194	0x3cfe1bef	0.03101918
195	0x3e8d8925	0.27643695
196	0xbc4769c8	-0.012171216
197	0x3e79832b	0.24366443
198	0xbeb4fcdd	-0.3534917
199	0xbde05c6a	-0.109551266
200	0x3d190bf7	0.037364926
201	0xbe283724	-0.16427284
202	0x3d1d5f1d	0.038420785
203	0xbe9cbe84	-0.30614102
204	0x3d07a25f	0.033113834
205	0x3e8daefe	0.2767257
206	0xbd9788e3	-0.07399156
207	0x3e65ba12	0.22434261
208	0x3e8295e6	0.25504988
209	0x3e338091	0.17529513
210	0x3dfe1299	0.12405891
211	0x3e892e6d	0.26793233
212	0x3e141da6	0.14464435
213	0xbec370dd	-0.38172045
214	0xbc306829	-0.010767021
215	0xbe2afeb6	-0.16698727
216	0xbd86b346	-0.065771624
217	0xbe60cb1c	-0.2195248
218	0x3d74c5bb	0.059758883
219	0x3b4a07fa	0.0030827508
220	0xbda2cb3b	-0.079489194
221	0x3c68a9fd	0.014200685
222	0x3e09f4cd	0.1347229
223	0x3d9ab0f3	0.07553282
224	0xbd8bbd60	-0.0682323
225	0xbe116151	-0.1419728
226	0xbd00ad2a	-0.031415142
227	0xbec550e7	-0.38538286
228	0xbddfca23	-0.109272264
229	0xbc8f297e	-0.01747584
230	0xbdb52c6a	-0.08846362
231	0xbe07954c	-0.13240546
232	0x3ca4edb1	0.020132871
233	0x3e3f89cd	0.1870491
234	0x3e0d475e	0.13796756
235	0x3ed42552	0.41434723
236	0x3dfe8531	0.12427748
237	0x3ddd6a23	0.108112596
238	0xbded90ac	-0.115998596
239	0xbe2cffdc	-0.16894478
240	0xbd8953d9	-0.06705446
241	0xbea4c53f	-0.32181737
242	0x3d9b484d	0.0758215
243	0x3d8bbfa5	0.06823663
244	0xbe129280	-0.14313698
245	0x3e6ada14	0.22934753
246	0x3de59c02	0.11211397
247	0x3dff835c	0.12476227
248	0xbe0a4b4d	-0.13505287
249	0xbe2de7f5	-0.16983016
250	0x3db0fc32	0.086418524
251	0xbe66db28	-0.22544539
252	0x3cde6963	0.027149862
253	0x3c9554b5	0.018228868
254	0xbe1e26f9	-0.15444554
255	0x3d9df8e4	0.07713488

base.mlp.fc_h.0.bias f4 [64]
0	0x00000000	0.0
1	0x00000000	0.0
2	0x00000000	0.0
3	0x00000000	0.0
4	0x00000000	0.0
5	0x00000000	0.0
6	0x00000000	0.0
7	0x00000000	0.0
8	0x00000000	0.0
9	0x00000000	0.0
10	0x00000000	0.0
11	0x00000000	0.0
12	0x00000000	0.0
13	0x00000000	0.0
14	0x00000000	0.0
15	0x00000000	0.0
16	0x00000000	0.0
17	0x00000000	0.0
18	0x00000000	0.0
19	0x00000000	0.0
20	0x00000000	0.0
21	0x00000000	0.0
22	0x00000000	0.0
23	0x00000000	0.0
24	0x00000000	0.0
25	0x00000000	0.0
26	0x00000000	0.0
27	0x00000000	0.0
28	0x00000000	0.0
29	0x00000000	0.0
30	0x00000000	0.0
31	0x00000000	0.0
32	0x00000000	0.0
33	0x00000000	0.0
34	0x00000000	0.0
35	0x00000000	0.0
36	0x00000000	0.0
37	0x00000000	0.0
38	0x00000000	0.0
39	0x00000000	0.0
40	0x00000000	0.0
41	0x00000000	0.0
42	0x00000000	0.0
43	0x00000000	0.0
44	0x00000000	0.0
45	0x00000000	0.0
46	0x00000000	0.0
47	0x00000000	0.0
48	0x00000000	0.0
49	0x00000000	0.0
50	0x00000000	0.0
51	0x00000000	0.0
52	0x00000000	0.0
53	0x00000000	0.0
54	0x00000000	0.0
55	0x00000000	0.0
56	0x00000000	0.0
57	0x00000000	0.0
58	0x00000000	0.0
59	0x00000000	0.0
60	0x00000000	0.0
61	0x00000000	0.0
62	0x00000000	0.0
63	0x00000000	0.0

base.mlp.fc_h.2.weight f4 [64]
0	0x3f800000	1.0
1	0x3f800000	1.0
2	0x3f800000	1.0
3	0x3f800000	1.0
4	0x3f800000	1.0
5	0x3f800000	1.0
6	0x3f800000	1.0
7	0x3f800000	1.0
8	0x3f800000	1.0
9	0x3f800000	1.0
10	0x3f800000	1.0
11	0x3f800000	1.0
12	0x3f800000	1.0
13	0x3f800000	1.0
14	0x3f800000	1.0
15	0x3f800000	1.0
16	0x3f800000	1.0
17	0x3f800000	1.0
18	0x3f800000	1.0
19	0x3f800000	1.0
20	0x3f800000	1.0
21	0x3f800000	1.0
22	0x3f800000	1.0
23	0x3f800000	1.0
24	0x3f800000	1.0
25	0x3f800000	1.0
26	0x3f800000	1.0
27	0x3f800000	1.0
28	0x3f800000	1.0
29	0x3f800000	1.0
30	0x3f800000	1.0
31	0x3f800000	1.0
32	0x3f800000	1.0
33	0x3f800000	1.0
34	0x3f800000	1.0
35	0x3f800000	1.0
36	0x3f800000	1.0
37	0x3f800000	1.0
38	0x3f800000	1.0
39	0x3f800000	1.0
40	0x3f800000	1.0
41	0x3f800000	1.0
42	0x3f800000	1.0
43	0x3f800000	1.0
44	0x3f800000	1.0
45	0x3f800000	1.0
46	0x3f800000	1.0
47	0x3f800000	1.0
48	0x3f800000	1.0
49	0x3f800000	1.0
50	0x3f800000	1.0
51	0x3f800000	1.0
52	0x3f800000	1.0
53	0x3f800000	1.0
54	0x3f800000	1.0
55	0x3f800000	1.0
56	0x3f800000	1.0
57	0x3f800000	1.0
58	0x3f800000	1.0
59	0x3f800000	1.0
60	0x3f800000	1.0
61	0x3f800000	1.0
62	0x3f800000	1.0
63	0x3f800000	1.0

base.mlp.fc_h.2.bias f4 [64]
0	0x00000000	0.0
1	0x00000000	0.0
2	0x00000000	0.0
3	0x00000000	0.0
4	0x00000000	0.0
5	0x00000000	0.0
6	0x00000000	0.0
7	0x00000000	0.0
8	0x00000000	0.0
9	0x00000000	0.0
10	0x00000000	0.0
11	0x00000000	0.0
12	0x00000000	0.0
13	0x00000000	0.0
14	0x00000000	0.0
15	0x00000000	0.0
16	0x00000000	0.0
17	0x00000000	0.0
18	0x00000000	0.0
19	0x00000000	0.0
20	0x00000000	0.0
21	0x00000000	0.0
22	0x00000000	0.0
23	0x00000000	0.0
24	0x00000000	0.0
25	0x00000000	0.0
26	0x00000000	0.0
27	0x00000000	0.0
28	0x00000000	0.0
29	0x00000000	0.0
30	0x00000000	0.0
31	0x00000000	0.0
32	0x00000000	0.0
33	0x00000000	0.0
34	0x00000000	0.0
35	0x00000000	0.0
36	0x00000000	0.0
37	0x00000000	0.0
38	0x00000000	0.0
39	0x00000000	0.0
40	0x00000000	0.0
41	0x00000000	0.0
42	0x00000000	0.0
43	0x00000000	0.0
44	0x00000000	0.0
45	0x00000000	0.0
46	0x00000000	0.0
47	0x00000000	0.0
48	0x00000000	0.0
49	0x00000000	0.0
50	0x00000000	0.0
51	0x00000000	0.0
52	0x00000000	0.0
53	0x00000000	0.0
54	0x00000000	0.0
55	0x00000000	0.0
56	0x00000000	0.0
57	0x00000000	0.0
58	0x00000000	0.0
59	0x00000000	0.0
60	0x00000000	0.0
61	0x00000000	0.0
62	0x00000000	0.0
63	0x00000000	0.0

base.mlp.fc2.0.0.weight f4 [64, 64]
0	0x3ca1c031	0.019744964
1	0x3c939464	0.018015094
2	0x3d7be997	0.061502066
3	0x3ed56c80	0.4168434
4	0x3d8c8496	0.06861226
5	0xbec3f100	-0.38269806
6	0x3de840fd	0.113405205
7	0x3dbf7baf	0.09349763
8	0x3d25126d	0.040300775
9	0x3d88a388	0.06671816
10	0x3e07f022	0.13275197
11	0xbe61e276	-0.22059044
12	0x3d80834c	0.06275043
13	0x3e5b8c6e	0.21440288
14	0x3e90eaa0	0.28304005
15	0xbea83fb3	-0.328611
16	0xbe5847b3	-0.21121101
17	0x3cf242a2	0.029572789
18	0xbd6200a5	-0.055176396
19	0x3dae26d0	0.08503497
20	0xbd554030	-0.052063167
21	0x3e81ff16	0.25389928
22	0xbda9c2cc	-0.08289108
23	0xbee6b3a7	-0.4505894
24	0x3e4fbd75	0.20287116
25	0xbe8ac6e1	-0.27104858
26	0x3e17a7f2	0.1481016
27	0xbe61cca4	-0.2205072
28	0x3ebfd1dc	0.37464797
29	0x3ce62862	0.028095428
30	0xbe2f757d	-0.17134662
31	0xbdab1e62	-0.083554044
32	0xbdc21135	-0.09475938
33	0xbdcf5de3	-0.10125329
34	0x3e93ed81	0.2889214
35	0xbdd5a9e8	-0.10432798
36	0x3d68a368	0.05679646
37	0x3cdfe9dd	0.027333194
38	0x3dce0d9b	0.10061189
39	0x3c6e3c2f	0.014540716
40	0xbd936bff	-0.07198333
41	0xbd8aad6d	-0.067713596
42	0x3d619f5b	0.055083614
43	0xbcdcc952	-0.026951466
44	0xbdd4b8e0	-0.103868246
45	0x3e430f67	0.19048844
46	0x3d105cd3	0.035244774
47	0x3d989482	0.074502006
48	0xbe30c77e	-0.172636
49	0xbddce662	-0.107861295
50	0x3cb65960	0.022259414
51	0x3b28ad19	0.002573794
52	0x3e14cbbd	0.14530845
53	0x3e96466e	0.2935061
54	0x3e74e0b8	0.23913848
55	0xbe3b291f	-0.18277405
56	0xbd9bd1d1	-0.07608379
57	0x3b249998	0.0025115963
58	0xbd2489c8	-0.04017046
59	0xbdbd2108	-0.09234816
60	0x3c021337	0.0079391515
61	0xbdd3c6ee	-0.10340677
62	0x3edbe5ac	0.42948663
63	0xbd169964	-0.03676738
64	0xbe4485a0	-0.19191599
65	0x3d9794cc	0.074014276
66	0x3e8a8c8a	0.27060348
67	0xbe7b2da3	-0.24529128
68	0xbcb0663e	-0.021533128
69	0xbe9acdd0	-0.30235147
70	0xbe87f27e	-0.26552194
71	0xbe7ccf4d	-0.24688454
72	0x3cb98ebc	0.022651069
73	0x3db6ad3c	0.089197606
74	0x3e982094	0.29712355
75	0xbde6f7ff	-0.1127777
76	0xbda33b93	-0.07970347
77	0xbea32e97	-0.31871483
78	0x3dcf8390	0.101325154
79	0x3debf7a4	0.11521843
80	0x3dec0a3c	0.115253896
81	0x3e93b902	0.28852087
82	0x3e42adc4	0.19011599
83	0xbc215ee2	-0.009849282
84	0x3ea8f768	0.33001256
85	0x39af9542	0.00033489807
86	0xbcdc4765	-0.026889512
87	0xbddef597	-0.10886686
88	0xbe9d572f	-0.30730578
89	0xbdf203cb	-0.1181713
90	0x3cb89927	0.022533966
91	0x3cc84986	0.024449121
92	0x3d675da5	0.05648579
93	0xbc381898	-0.011236332
94	0xbe1e0548	-0.15431702
95	0xbea041f6	-0.31300324
96	0x3d9b5be3	0.075858854
97	0x3e1e2224	0.15442711
98	0x3db4f51f	0.08835816
99	0x3e718d6d	0.23589106
100	0xbe4d2e06	-0.20037088
101	0xbcf1ac43	-0.029501086
102	0xbdd0d9c1	-0.10197783
103	0x3e6020a8	0.21887457
104	0xbd6565be	-0.056005232
105	0xbe8bddd4	-0.2731768
106	0xbbc6e8d1	-0.0060702343
107	0xbcbb41c8	-0.022858515
108	0xbe8dc90f	-0.27692458
109	0x3d3bba77	0.045832124
110	0x3da7d379	0.08194632
111	0x3ea56c7d	0.32309332
112	0x3e1eb763	0.15499644
113	0xbe28321c	-0.16425365
114	0x3d069931	0.03286094
115	0xbd663ac5	-0.05620839
116	0xbb695730	-0.0035604946
117	0xbe010e96	-0.1260322
118	0x3ea23435	0.31680456
119	0x3df862f4	0.12128249
120	0xbe242410	-0.16029382
121	0x3d14552d	0.036214042
122	0x3c8a5fe5	0.01689143
123	0xbe51abcb	-0.2047569
124	0xbea54603	-0.32279977
125	0x3dd6554b	0.10465487
126	0xbe2e9bf3	-0.17051677
127	0xbc98c642	-0.018649224
128	0xbd1c4cc3	-0.038159143
129	0xbb1835da	-0.0023225457
130	0xbd1edb36	-0.038783275
131	0x3dedeee2	0.11617829
132	0x3ddcdb7d	0.107840516
133	0xbd682af7	-0.0566816
134	0xbea960e0	-0.33081722
135	0xbe6222b1	-0.22083546
136	0x3d81c7a1	0.06336904
137	0x3f0066e9	0.5015703
138	0xbc8a0997	-0.016850276
139	0x3cfe250b	0.031023523
140	0xbe399417	-0.18122898
141	0xbe571896	-0.21005473
142	0xbdc4970f	-0.09599125
143	0x3e662e19	0.22478522
144	0xbd7ca972	-0.061685033
145	0x3e35d6a4	0.1775766
146	0xbdbf6de6	-0.09347133
147	0xbe8e6957	-0.27814743
148	0x3d8d1fed	0.06890855
149	0x3e0f0fcd	0.13970871
150	0xbe115b1d	-0.14194913
151	0x3e44b50c	0.19209689
152	0x3e3d7a56	0.18503699
153	0xbd082baf	-0.033244785
154	0x3e07fbe3	0.13279681
155	0xbe6df5b4	-0.2323826
156	0x3e2e1bc2	0.17002776
157	0x3e5ab93a	0.21359721
158	0x3df1e2e5	0.11810855
159	0xbe1e5555	-0.15462239
160	0xbe3383b5	-0.17530711
161	0xbe815981	-0.252636
162	0xbcb5aea7	-0.022178007
163	0xbe91af1b	-0.28453907
164	0x3e30e6c4	0.1727553
165	0x3e15e9c9	0.14639963
166	0xbcc8de4d	-0.024520064
167	0xbd5bb3a8	-0.05363813
168	0xbe64a6e0	-0.22329283
169	0x3e3174ff	0.17329787
170	0x3ded1497	0.11576193
171	0x3e37076a	0.17873922
172	0x3e2c7446	0.1684123
173	0xbe490f0d	-0.19634648
174	0x3b9b9472	0.0047479207
175	0x3ca0697e	0.019581553
176	0xbe83613f	-0.2566013
177	0x3da736f0	0.08164775
178	0xbe9c0e6d	-0.30479756
179	0xbe5795c9	-0.21053232
180	0xbe4b332d	-0.19843741
181	0xbe860ce6	-0.26181716
182	0xbdfc34bf	-0.12314748
183	0xbe93f57d	-0.2889823
184	0x3d28c4f9	0.041203473
185	0x3e59050e	0.21193334
186	0x3d885db9	0.06658501
187	0xbc97b129	-0.018517094
188	0xbe935f37	-0.2878358
189	0xbd07a70a	-0.033118285
190	0xbc784064	-0.015152071
191	0xbcee7e2c	-0.029112898
192	0x3d5308ac	0.051521942
193	0x3ec0711b	0.37586293
194	0x3ce8d986	0.028424036
195	0x3e8aad3f	0.270853
196	0xbc497a21	-0.012297184
197	0x3e70ba15	0.23508485
198	0xbeb504fe	-0.3535537
199	0xbde0462c	-0.10950884
200	0x3d254e77	0.040358033
201	0xbe28fac7	-0.16501914
202	0x3d10fb24	0.035395756
203	0xbe9dc471	-0.30813935
204	0x3d0f3107	0.034958865
205	0x3e8e9250	0.27846003
206	0xbda20d5c	-0.07912704
207	0x3e6e38e6	0.23263893
208	0x3e817022	0.25280863
209	0x3e34df3b	0.1766328
210	0x3e02b381	0.12763788
211	0x3e8dfbdc	0.27731216
212	0x3e1499ea	0.14511839
213	0xbec75e92	-0.3893934
214	0xbc9410a8	-0.018074349
215	0xbe3049e9	-0.17215694
216	0xbd873aa5	-0.066029824
217	0xbe63c1c8	-0.2224189
218	0x3d6d868f	0.057989653
219	0x3b3083e5	0.0026934084
220	0xbd8d6a64	-0.06905058
221	0x3c4b699f	0.012415319
222	0x3e0df87a	0.13864318
223	0x3d9a6a2e	0.075397834
224	0xbd745e1f	-0.059660073
225	0xbe06845b	-0.13136427
226	0xbd007c76	-0.031368695
227	0xbec267a0	-0.37969685
228	0xbde5bffe	-0.1121826
229	0xbcb40cbd	-0.02197873
230	0xbdb46da1	-0.088099726
231	0xbe00666f	-0.12539075
232	0x3c7eb987	0.015547163
233	0x3e401d2d	0.1876113
234	0x3e03e21a	0.1287922
235	0x3ecf2a3e	0.40461916
236	0x3e00b02b	0.12567203
237	0x3ddd7486	0.10813241
238	0xbdf3e3e0	-0.11908698
239	0xbe2aa03c	-0.16662687
240	0xbd871f16	-0.06597726
241	0xbea2cc90	-0.31796694
242	0x3d964c5d	0.07338784
243	0x3d930cbe	0.07180165
244	0xbe102b6b	-0.14079063
245	0x3e696a62	0.22794488
246	0x3de9cb2e	0.114157066
247	0x3df5800b	0.11987313
248	0xbe0c0b28	-0.13676131
249	0xbe376991	-0.17911364
250	0x3db06a04	0.08613971
251	0xbe6b3456	-0.22969183
252	0x3ce329f7	0.027729971
253	0x3ca717b0	0.020397037
254	0xbe173c7b	-0.14769165
255	0x3d948368	0.07251626

base.mlp.fc2.0.0.bias f4 [64]
0	0xba3fb25c	-0.00073126494
1	0x3b37af0e	0.0028027925
2	0xbb396501	-0.0028288963
3	0x3a98eaf7	0.0011666705
4	0x3bd96c6d	0.00663524
5	0xbb199e93	-0.0023440465
6	0x3afd6669	0.0019332889
7	0x39f66ea5	0.00047003213
8	0x3a3abfda	0.0007123925
9	0x3b1576f2	0.0022806493
10	0xba9a4de1	-0.0011772477
11	0x3bb13753	0.0054082065
12	0xbb878a8e	-0.00413639
13	0x3c134b61	0.00899014
14	0xbb352a9d	-0.0027643808
15	0x3abde3b7	0.001448742
16	0xbae321e2	-0.0017328823
17	0x3b6cba92	0.0036121947
18	0x3b584495	0.0032999862
19	0xbc150ee6	-0.00909779
20	0x3be3dacf	0.0069535743
21	0x3b133f55	0.0022468169
22	0x39e72cbc	0.00044093083
23	0x3a6b1678	0.00089678867
24	0x3b0b85db	0.00212895
25	0x3b940a79	0.00451785
26	0xbb889833	-0.004168534
27	0x3b9bdddc	0.0047566723
28	0x3c0e7b51	0.008696393
29	0xbc21614e	-0.009849859
30	0xbaf8106a	-0.001892579
31	0x3ad053ca	0.0015894112
32	0x3941d0b9	0.0001848367
33	0xb9bb3eff	-0.00035714355
34	0x3aad4430	0.0013219174
35	0x37875006	1.6130518e-05
36	0xbb1a1581	-0.0023511352
37	0xbaf7a773	-0.0018894508
38	0x3b8f585e	0.004374548
39	0x3b53a4a6	0.0032294183
40	0xb9055eff	-0.00012719257
41	0x3aa3bcf3	0.0012492224
42	0x3c059352	0.0081528
43	0xbb2347db	-0.0024914655
44	0xbc07391a	-0.00825336
45	0x3b4ab042	0.0030927812
46	0x3b5bda48	0.0033546854
47	0xbc238b34	-0.009981919
48	0x3b3987a9	0.002830962
49	0xbb0d9333	-0.002160263
50	0x3b733a8d	0.0037113756
51	0x3bf90f60	0.00760071
52	0xbb932c24	-0.004491346
53	0x3b6caa52	0.003611226
54	0x3ba2ebf9	0.004971978
55	0xbb45f06e	-0.0030203122
56	0x3bcb2cf7	0.0062004286
57	0xb88577f9	-6.364281e-05
58	0xba2b7336	-0.00065403
59	0x3ae58082	0.0017509612
60	0xbb118289	-0.002220305
61	0xba51a536	-0.00079973356
62	0x3a050b48	0.00050752284
63	0x3c2aaa02	0.01041651

base.mlp.fc2.0.2.weight f4 [64]
0	0x3f802ced	1.001371
1	0x3f7d264e	0.98886573
2	0x3f7ea61b	0.99472207
3	0x3f7f8f79	0.99828297
4	0x3f7f9cf7	0.99848884
5	0x3f7eac05	0.9948123
6	0x3f800f1d	1.0004612
7	0x3f7e87a9	0.9942575
8	0x3f7faa75	0.9986947
9	0x3f7f6a30	0.99771404
10	0x3f7ead2f	0.9948301
11	0x3f7fcd3b	0.9992253
12	0x3f7f4476	0.9971384
13	0x3f7e8065	0.99414665
14	0x3f7fc6aa	0.9991251
15	0x3f7f518d	0.9973381
16	0x3f7fe90c	0.99964976
17	0x3f7fb057	0.9987845
18	0x3f7fd9ad	0.9994152
19	0x3f7ec3ab	0.99517316
20	0x3f7ff321	0.9998036
21	0x3f7ecb38	0.9952884
22	0x3f804237	1.0020207
23	0x3f7f1ede	0.99656475
24	0x3f7effe0	0.99609184
25	0x3f7fe9e4	0.99966264
26	0x3f7eaa54	0.9947865
27	0x3f801c22	1.0008585
28	0x3f7ea635	0.9947236
29	0x3f805233	1.0025085
30	0x3f7faa21	0.9986897
31	0x3f7f4200	0.99710083
32	0x3f7f4ebd	0.9972952
33	0x3f7feb1a	0.9996811
34	0x3f808676	1.0041034
35	0x3f7d3606	0.9891056
36	0x3f7e3454	0.99298596
37	0x3f7fa3d0	0.99859333
38	0x3f7f32c1	0.9968682
39	0x3f7ff1cb	0.9997832
40	0x3f7fd90c	0.9994056
41	0x3f7ec314	0.99516416
42	0x3f7ffeed	0.9999836
43	0x3f7f113a	0.9963566
44	0x3f7e9e4b	0.99460286
45	0x3f7cd36e	0.98760116
46	0x3f7d6bbc	0.98992515
47	0x3f7ec7c4	0.9952357
48	0x3f800151	1.0000402
49	0x3f80488c	1.002214
50	0x3f80b0f0	1.0053997
51	0x3f80052b	1.0001577
52	0x3f7f16db	0.9964425
53	0x3f7f7f1c	0.9980333
54	0x3f8066f0	1.0031414
55	0x3f7fa239	0.9985691
56	0x3f7f7c8e	0.9979943
57	0x3f804d87	1.002366
58	0x3f7f0dbe	0.99630344
59	0x3f7ed81f	0.99548525
60	0x3f7facb6	0.9987291
61	0x3f7f7437	0.99786705
62	0x3f80b338	1.0054693
63	0x3f81538d	1.0103623

base.mlp.fc2.0.2.bias f4 [64]
0	0xbb6042fe	-0.0034219618
1	0x3b5e0ea9	0.003388325
2	0xbb66b3dc	-0.003520242
3	0xbb61c3ff	-0.0034449098
4	0xbb7c4d86	-0.0038498356
5	0x3b6677e1	0.0035166668
6	0x3b6569fc	0.0035005799
7	0xbb6480bb	-0.0034866768
8	0x3b65e261	0.003507756
9	0x3b65f3c8	0.0035087932
10	0x3b671046	0.0035257502
11	0x3b776523	0.0037749491
12	0x3b6613db	0.003510705
13	0xbb2aa3bb	-0.0026037532
14	0xbb626819	-0.003454691
15	0x3b6bfd27	0.0036009045
16	0xbb63d356	-0.0034763417
17	0x3b640e54	0.003479858
18	0x3b67e024	0.00353814
19	0xbb5f60eb	-0.0034084867
20	0xbb633a54	-0.0034672217
21	0x3b6b6d02	0.0035923128
22	0x3b6bb6af	0.0035967042
23	0xbb647fc6	-0.0034866198
24	0x3b628eab	0.00345699
25	0xbb64b27f	-0.003489643
26	0xbb60915b	-0.0034266326
27	0x3b6541ca	0.003498184
28	0x3b999d62	0.004687951
29	0xbb637d78	-0.0034712236
30	0xbb66819a	-0.0035172463
31	0x3b650c92	0.003495012
32	0xbb6a9434	-0.0035793902
33	0xbb663a37	-0.0035129914
34	0xbb531348	-0.0032207537
35	0x3b6390bf	0.0034723727
36	0xbb662ed2	-0.0035123122
37	0x3b7755b7	0.00377403
38	0xbb67bd19	-0.0035360514
39	0x3b6b2c43	0.0035884536
40	0x3b66fdb2	0.003524643
41	0xbb64b1a8	-0.003489593
42	0x3b68113c	0.0035410663
43	0xbb6587c5	-0.0035023552
44	0xbb64d59b	-0.0034917358
45	0x3b63293e	0.0034662033
46	0xbb263f88	-0.0025367457
47	0xbb5fe49f	-0.0034163368
48	0x3b72d5c2	0.003705368
49	0xbb643981	-0.0034824314
50	0x3b6831ce	0.0035430077
51	0xbb0fe24c	-0.0021954952
52	0x3b670dac	0.0035255952
53	0xbb665b97	-0.0035149807
54	0x3b6a2c78	0.0035732072
55	0x3b66895a	0.0035177083
56	0x3b6a05ed	0.0035709098
57	0xbb62fecd	-0.0034636736
58	0x3b419873	0.002954033
59	0xbbf73dd4	-0.0075452123
60	0xbb673b0b	-0.0035282995
61	0xbb6663f2	-0.0035154787
62	0xbb6359cc	-0.0034690974
63	0xbb628d77	-0.0034569183

v_out.weight f4 [1, 64]
0	0x3d1ff77c	0.03905438
1	0xbd06abe9	-0.03287879
2	0x3dd5ef62	0.10446049
3	0x3db6bb9b	0.08922502
4	0x3bb68dba	0.0055710943
5	0xbe736169	-0.23767628
6	0xbe374bbe	-0.17899987
7	0x3e0e825b	0.13916914
8	0xbe19b674	-0.15011007
9	0xbe347d82	-0.17626002
10	0xbe768378	-0.24073589
11	0xbca789d5	-0.020451466
12	0xbe784dcf	-0.24248432
13	0x3b8e32e9	0.004339565
14	0x3e2b6e13	0.16741209
15	0xbd6f5986	-0.058434986
16	0x3d8dbc25	0.06920651
17	0xbe6ba3bb	-0.23011677
18	0xbdad176b	-0.08451732
19	0x3d545943	0.05184294
20	0x3d9ad8cd	0.07560883
21	0xbd47c798	-0.04877433
22	0xbd5cb298	-0.053881258
23	0x3e2e8c95	0.17045815
24	0xbdca5264	-0.09878996
25	0x3dbdfe8b	0.09277066
26	0x3d1127f3	0.03543849
27	0xbd0ac9c3	-0.03388382
28	0x3a39c326	0.00070862693
29	0x3e3937bc	0.18087667
30	0x3e3b79e6	0.1830822
31	0xbe6e359a	-0.23262635
32	0x3d76f3a7	0.06029096
33	0x3e057488	0.13032734
34	0x3c617621	0.013761074
35	0xbd87fec8	-0.066403925
36	0x3e275bdb	0.16343634
37	0xbc35fbbb	-0.0111073805
38	0x3ce50b00	0.027959347
39	0xbdca4d37	-0.09878009
40	0xbe8a7e04	-0.27049267
41	0x3e27d9ac	0.16391629
42	0xbdb948e6	-0.090471074
43	0x3dc9d2f3	0.098546885
44	0x3df4ffdf	0.11962866
45	0xbdcb1623	-0.099163316
46	0xb7e440c0	-2.720987e-05
47	0x3d61e7e3	0.055152785
48	0xbb7eb08f	-0.0038862561
49	0x3db58cc3	0.08864739
50	0xbdaafeff	-0.08349418
51	0x3b9a158d	0.004702276
52	0xbdde0186	-0.10840134
53	0x3d847105	0.06466869
54	0xbd4fe628	-0.050756603
55	0xbe00e45a	-0.12587109
56	0xbda0c3a3	-0.07849815
57	0x3e017ef1	0.1264608
58	0xbb20d15c	-0.002453885
59	0x3b7505c9	0.0037387481
60	0x3e91cdac	0.28477228
61	0x3e0d49d9	0.13797702
62	0x3d8062a4	0.06268814
63	0x3dce715e	0.10080217
