mappo_ros/onpolicy/scripts/results/drone/test_drones/mappo/check/wandb/offline-run-20230123_224847-f3y5rdb9/files/actor.pt (torch_old, 41516 bytes, 16 tensors)

base.feature_norm.weight f4 [8]
1.0114108 0.9895094 0.99770594 0.9973733 1.0057204 0.983497 1.005737 1.0042529
00000000: e975 813f 7d50 7d3f a869 7f3f db53 7f3f
00000010: 72bb 803f 76c6 7b3f fdbb 803f 5c8b 803f

base.feature_norm.bias f4 [8]
-0.011587033 0.011121197 0.0020998402 0.002545003 -0.0057529313 -0.015941625 -0.0057862247 -0.004414312
00000000: 8ad7 3dbc ae35 363c 799d 093b 11ca 263b
00000010: 1683 bcbb 0398 82bc 5f9a bdbb efa5 90bb

base.mlp.fc1.0.weight f4 [64, 8]
-0.15450302 0.07767167 0.039938744 0.06269222 -0.046647344 0.14064048 -0.14801888 0.2786893
-0.1576092 0.12810044 0.28386322 -0.082579985 -0.25454035 -0.30065766 0.016600654 -0.21322638
0.15439136 -0.21262449 0.2353776 -0.024269981 0.102923274 0.16853155 0.08219829 0.4310127
-0.23932764 0.052491963 -0.01632469 -0.37561876 0.2729428 -0.0275246 -0.18552497 -0.08136823
-0.048015747 -0.035951566 0.23216568 -0.037612066 -0.0745727 -0.16514221 0.17087501 -0.272135
-0.11699894 -0.25651765 -0.070064664 -0.08124293 -0.05703233 0.2751615 -0.19334814 -0.21238248
-0.3173578 -0.09701107 -0.052700162 -0.174408 -0.13391788 -0.23169029 0.38850307 0.12164819
-0.028144931 0.4478128 0.14494337 0.125679 -0.012147962 0.23740374 0.1245223 0.22167772
0.17688698 -0.0692456 0.2557763 -0.115007326 0.33462512 -0.015867783 0.061781157 0.06904568
0.079767175 0.1358025 0.32437432 -0.2658574 0.25544563 0.14574103 0.13033643 0.40908888
0.07964928 -0.3160269 0.25874457 0.19422904 0.08091909 0.34399953 0.012002076 -0.183901
-0.11912297 0.35605064 -0.116765894 0.11195139 -0.074861646 0.23260333 -0.16674708 0.091738015
0.01903659 0.16719358 0.10328704 -0.054678973 -0.1088228 0.021549696 -0.2285429 0.010921036
-0.02985593 -0.111653455 0.20553036 0.2781441 -0.012193167 0.022460781 -0.2726862 0.11732353
-0.041631877 -0.029475952 0.19649918 0.09207203 0.070219286 0.016429296 -0.032821957 -0.009110245
-0.13405038 0.067233555 -0.27758256 -0.104616046 0.013247062 0.1783812 0.13317525 -0.017272377
0.17674688 0.01203572 0.0852789 -0.4094921 -0.18222679 -0.10832583 -0.24765705 0.0900719
-0.08768985 0.13652952 0.34033278 0.015126173 0.28744185 -0.1752837 -0.02657525 0.18174818
-0.34104416 -0.11706683 0.27449706 0.14313434 -0.18403664 0.09540104 0.111467406 0.036834028
-0.078866504 0.2604983 -0.09136181 -0.05822279 0.051946595 0.2279624 -0.24531317 -0.11730641
0.27110186 0.023913234 0.22473466 0.074123986 0.042438217 -0.096799195 0.14373994 0.16961996
0.10714708 -0.078724615 -0.19267178 -0.11243272 -0.086384915 0.10197832 -0.29679462 -0.18969086
0.20220786 0.024088414 0.13402304 0.24704124 -0.24974655 -0.24557501 0.003546899 -0.09295398
0.20864983 0.090067066 -0.12703127 0.10364199 0.17704546 -0.12864581 0.14408194 -0.1512176
-0.16024084 0.0075947004 0.03910732 0.030592423 0.0069294833 -0.28174052 -0.53685373 -0.081961446
-0.08030084 0.24256434 0.06017105 0.16733894 0.021884501 -0.2289866 0.20883049 0.043199804
-0.08294232 0.008737919 0.070935726 -0.038466517 0.24263702 -0.12625857 -0.016198652 0.046451673
-0.019565389 -0.09955086 -0.0035609808 -0.034091674 -0.2772668 0.22303951 -0.0081236 0.17849758
0.22986013 -0.0053628506 -0.32824913 0.047144722 -0.14118297 -0.07566884 -0.24092543 0.047223974
0.05960258 0.40424138 -0.21114773 0.38500506 -0.2588138 0.03387227 0.18068218 -0.27047482
-0.31636584 -0.10591087 -0.23078945 -0.09149502 0.18919186 -0.16378927 -0.054356962 0.20567076
-0.11878184 0.45190704 0.16785964 0.07992714 0.28284422 0.1693025 -0.04664813 -0.16191374
00000000: 0a36 1ebe 5312 9f3d cf96 233d c764 803d
00000010: 4911 3fbd 0f04 103e 4392 17be 5db0 8e3e
00000020: 4e64 21be c32c 033e 8556 913e b21f a9bd
00000030: 1d53 82be cdef 99be 18fe 873c 0458 5abe
00000040: c518 1e3e 3cba 59be d306 713e d7d1 c6bc
00000050: 70c9 d23d 8993 2c3e 9457 a83d b2ad dc3e
00000060: 4e12 75be d001 573d 5bbb 85bc 1a51 c0be
00000070: 29bf 8b3e 457b e1bc 42fa 3dbe 63a4 a6bd
00000080: 29ac 44bd f341 13bd d7bc 6d3e 1c0f 1abd
00000090: 92b9 98bd 0a1b 29be dcf9 2e3e 4755 8bbe
000000a0: 249d efbd 4856 83be 107e 8fbd b162 a6bd
000000b0: bc9a 69bd f8e1 8c3e 0efd 45be cb7a 59be
000000c0: b97c a2be bdad c6bd 20dc 57bd 0398 32be
000000d0: c521 09be 3840 6dbe e0e9 c63e b022 f93d
000000e0: 3390 e6bc b847 e53e 096c 143e ffb1 003e
000000f0: 3f08 47bc f719 733e 8c05 ff3d 7cff 623e
00000100: dc21 353e a3d0 8dbd 1cf5 823e f688 ebbd
00000110: fc53 ab3e 27fd 81bc 3d0e 7d3d d267 8d3d
00000120: f95c a33d d00f 0b3e 6414 a63e 761e 88be
00000130: c5c9 823e 233d 153e ea76 053e 1974 d13e
00000140: 291f a33d 47ce a1be 2b7a 843e fae3 463e
00000150: e8b8 a53d b520 b03e 5ba4 443c 8b50 3cbe
00000160: bef6 f3bd 454c b63e f522 efbd c546 e53d
00000170: 1051 99bd 912f 6e3e bfbf 2abe 24e1 bb3d
00000180: 9ff2 9b3c cb34 2b3e 2888 d33d 0ff7 5fbd
00000190: 7dde debd fd88 b03c 2607 6abe 25ee 323c
000001a0: 6c94 f4bc 91aa e4bd 8d76 523e e768 8e3e
000001b0: d9c5 47bc acff b73c 879d 8bbe 5247 f03d
000001c0: 3086 2abd 8d77 f1bc 1537 493e 4390 bc3d
000001d0: 21cf 8f3d bb96 863c 5170 06bd 2343 15bc
000001e0: 8144 09be bfb1 893d 4d1f 8ebe f040 d6bd
000001f0: 350a 593c 90a9 363e 185f 083e cd7e 8dbc
00000200: 22fd 343e 7831 453c b4a6 ae3d f3a8 d1be
00000210: a999 3abe efd9 ddbd cf99 7dbe 9e77 b83d
00000220: bc96 b3bd 65ce 0b3e 1940 ae3e c5d3 773c
00000230: 942b 933e 927d 33be 57b4 d9bc 321c 3a3e
00000240: 579d aebe bcc0 efbd e18a 8c3e cf91 123e
00000250: 1a74 3cbe 9f61 c33d 0649 e43d 47df 163d
00000260: c384 a1bd 0860 853e e71b bbbd 057b 6ebd
00000270: f4c5 543d fa6e 693e 6033 7bbe 583e f0bd
00000280: ddcd 8a3e b0e5 c33c d820 663e 51ce 973d
00000290: b2d3 2d3d a83e c6bd 9030 133e dbb0 2d3e
000002a0: ee6f db3d 5f3a a1bd c04b 45be 2043 e6bd
000002b0: 93ea b0bd 02da d03d 77f5 97be 523e 42be
000002c0: 940f 4f3e 1155 c53c 563d 093e 61f8 7c3e
000002d0: 8fbd 7fbe 0478 7bbe 1773 683b a85e bebd
000002e0: 4da8 553e 1575 b83d 7c14 02be 4042 d43d
000002f0: 684b 353e babb 03be 378a 133e c9d8 1abe
00000300: 2d16 24be f7dc f83b ff2e 203d f69c fa3c
00000310: b810 e33b 4b40 90be 3f6f 09bf 67db a7bd
00000320: c474 a4bd c962 783e eb75 763d e65a 2b3e
00000330: 2047 b33c 777b 6abe a9d7 553e 47f2 303d
00000340: aadd a9bd 7d29 0f3c c046 913d 118f 1dbd
00000350: d775 783e ed49 01be 09b3 84bc 1c44 3e3d
00000360: 9847 a0bc 52e1 cbbd 585f 69bb b6a3 0bbd
00000370: eaf5 8dbe 7864 643e d918 05bc 12c8 363e
00000380: 7460 6b3e daba afbb 4510 a8be d31a 413d
00000390: 4592 10be 44f8 9abd 28b5 76be ed6d 413d
000003a0: d621 743d baf8 ce3e 1c37 58be 621f c53e
000003b0: 3e83 84be a6bd 0a3d c004 393e ad7b 8abe
000003c0: b4fa a1be cce7 d8bd 1254 6cbe be61 bbbd
000003d0: 83bb 413e 60b8 27be 68a5 5ebd 5b9b 523e
000003e0: e543 f3bd 5c60 e73e 66e3 2b3e d7b0 a33d
000003f0: f5d0 903e a25d 2d3e 1c12 3fbd b7cc 25be

base.mlp.fc1.0.bias f4 [64]
0.0019255884 0.0 -0.007817797 -0.0056046555 0.0 0.009754011 0.0 -0.0077180844
0.0 -0.01099129 -0.0039729113 0.007163732 0.009003411 -0.007970403 0.0 0.0015275511
0.0 0.0 0.005860249 0.007345435 0.0 0.0024698114 0.0 0.0
0.0 0.0 0.0 -0.0017089827 0.0 0.0 0.0 -0.0031221597
0.0 0.0 0.0 0.017867362 0.0 0.0 0.0 0.0
-0.00647776 0.0 0.0030398702 -0.004742883 -0.0066359485 0.0 0.01590159 0.0
0.0 -0.010547893 0.005103501 0.007284081 0.0 0.0 0.0 -0.0028871712
0.0 -0.007823201 0.0 0.0 0.0 0.0 0.0 0.0
00000000: 0664 fc3a 0000 0000 3816 00bc 42a7 b7bb
00000010: 0000 0000 4acf 1f3c 0000 0000 fce7 fcbb
00000020: 0000 0000 d014 34bc 322f 82bb bdbd ea3b
00000030: 0b83 133c 4b96 02bc 0000 0000 1c38 c83a
00000040: 0000 0000 0000 0000 5507 c03b fab1 f03b
00000050: 0000 0000 8fdc 213b 0000 0000 0000 0000
00000060: 0000 0000 0000 0000 0000 0000 f2ff dfba
00000070: 0000 0000 0000 0000 0000 0000 269d 4cbb
00000080: 0000 0000 0000 0000 0000 0000 935e 923c
00000090: 0000 0000 0000 0000 0000 0000 0000 0000
000000a0: 6443 d4bb 0000 0000 8f38 473b 306a 9bbb
000000b0: 5f72 d9bb 0000 0000 0d44 823c 0000 0000
000000c0: 0000 0000 12d1 2cbc 453b a73b 4daf ee3b
000000d0: 0000 0000 0000 0000 0000 0000 b236 3dbb
000000e0: 0000 0000 e22c 00bc 0000 0000 0000 0000
000000f0: 0000 0000 0000 0000 0000 0000 0000 0000

base.mlp.fc1.2.weight f4 [64]
1.0015025 1.0011792 0.9961626 0.9921179 0.992933 1.0099908 1.0053798 0.99310535
0.9984245 1.004171 0.9963523 1.0075485 0.9918404 0.9949542 0.99656165 1.0031036
0.99711955 0.9900925 1.0073975 1.008653 0.99963254 1.0030676 1.0030344 1.0002002
0.99362653 1.0084299 0.99802625 0.99919605 1.0086267 0.993181 0.993397 0.99750197
1.0072773 1.0205255 0.9995261 0.9813482 1.0146502 1.0006257 1.0059897 1.0035348
1.0046867 1.004122 1.003037 0.99554914 0.9939851 1.0042701 1.0167283 0.9969151
1.0022377 0.99026096 1.0048157 1.0083232 0.97846866 0.98382455 0.99895805 0.9849302
0.9789182 1.0059035 0.99769 0.9986315 1.0042905 1.0027931 0.99253565 0.9923301
00000000: 3c31 803f a426 803f 8304 7f3f 70fb 7d3f
00000010: db30 7e3f 6147 813f 49b0 803f 273c 7e3f
00000020: bf98 7f3f ad88 803f f210 7f3f 59f7 803f
00000030: 41e9 7d3f 52b5 7e3f aa1e 7f3f b365 803f
00000040: 3a43 7f3f b476 7d3f 67f2 803f 8b1b 813f
00000050: ebe7 7f3f 8564 803f 6e63 803f 8f06 803f
00000060: 4f5e 7e3f 3b14 813f a67e 7f3f 50cb 7f3f
00000070: ae1a 813f 1c41 7e3f 444f 7e3f 4a5c 7f3f
00000080: 76ee 803f 94a0 823f f1e0 7f3f a339 7b3f
00000090: 0fe0 813f 8114 803f 45c4 803f d473 803f
000000a0: 9399 803f 1287 803f 8463 803f 4fdc 7e3f
000000b0: cf75 7e3f ec8b 803f 2724 823f d435 7f3f
000000c0: 5349 803f be81 7d3f cd9d 803f bc10 813f
000000d0: ec7c 7a3f eddb 7b3f b7bb 7f3f 6324 7c3f
000000e0: 629a 7a3f 72c1 803f 9d68 7f3f 50a6 7f3f
000000f0: 978c 803f 865b 803f d116 7e3f 5809 7e3f

base.mlp.fc1.2.bias f4 [64]
0.0027058006 -0.0012750216 -0.007371414 -0.0053266375 0.0070774336 0.009699446 -0.0054279272 -0.0074397507
0.0015183546 -0.0050715017 -0.0033880938 0.0077537447 0.008951636 0.0039475504 0.003517958 0.0035203325
0.0029235787 0.010286976 0.008529397 0.008513646 0.0003582917 0.0034142209 -0.003164031 -7.9874764e-05
0.0064507825 -0.008504296 0.002022096 -0.0003657657 -0.009022002 0.006934957 0.0066867 -0.0022624633
-0.0076129762 -0.021062363 0.0005392204 0.01809198 -0.015829388 -0.00035340982 -0.005992479 -0.0035626928
-0.006259142 -0.004114475 0.0032899086 -0.0043618726 -0.0059196725 -0.0042142295 0.015443875 0.0030932345
-0.0023444758 -0.010323498 0.0053580925 0.008581768 0.02341801 0.01718851 0.00071127084 0.015605285
0.022121057 -0.0064655324 0.0023271015 0.0014098141 -0.0044407705 -0.0027342236 0.0075635794 0.007777494
00000000: cd53 313b a01e a7ba e78b f1bb 138b aebb
00000010: d1e9 e73b 6dea 1e3c c1dc b1bb 27c9 f3bb
00000020: 8703 c73a d72e a6bb c80a 5ebb 2013 fe3b
00000030: e2a9 123c 745a 813b 8b8d 663b 61b5 663b
00000040: 8399 3f3b b48a 283c e2be 0b3c d27c 0b3c
00000050: 19d9 bb39 1fc1 5f3b a25b 4fbb 7082 a7b8
00000060: 1661 d33b 9a55 0bbc 2485 043b 3ec4 bfb9
00000070: 05d1 13bc a33e e33b 1b1c db3b d645 14bb
00000080: 4676 f9bb fa8a acbc 785a 0d3a a235 943c
00000090: a2ac 81bc dd49 b9b9 8f5c c4bb 117c 69bb
000000a0: 7d19 cdbb b8d2 86bb 829b 573b 0aee 8ebb
000000b0: d0f9 c1bb 8517 8abb 4f08 7d3c ddb7 4a3b
000000c0: c7a5 19bb e423 29bc f092 af3b 8b9a 0c3c
000000d0: 20d7 bf3c ebce 8c3c 9474 3a3a 4fad 7f3c
000000e0: 3837 b53c d1dc d3bb 4982 183b 83c9 b83a
000000f0: e283 91bb a930 33bb e7d7 f73b 59da fe3b

base.mlp.fc_h.0.weight f4 [64, 64]
0.14872071 -0.5787153 -0.03820079 0.114717975 -0.041736525 -0.10674276 0.20654573 -0.3077917
-0.050974775 0.31930676 -0.12951408 -0.11115825 -0.08481187 -0.112552494 -0.14641224 0.11026029
-0.003601378 -0.09856825 0.03499673 0.073724486 -0.10556211 0.022372406 0.15593417 0.019665198
0.16885996 0.07826562 0.27765462 0.14073524 -0.10034738 0.021373227 0.110091515 0.05239687
-0.17740251 0.16940671 0.23363064 -0.05312919 -0.32800147 -0.27563462 -0.088090986 -0.46532387
0.18442485 -0.17143348 0.041483827 -0.12997031 -0.25166973 0.02540155 0.027644686 0.24524488
-0.049304157 0.1819204 -0.049203314 -0.077521734 0.034297213 -0.0052101277 0.044461615 0.1783431
0.090782784 -0.037155434 0.059394475 -0.09554001 0.24639422 0.35218784 -0.24814582 0.03377778
0.16460112 0.18521184 -0.023604762 -0.05180249 -0.0002325107 -0.2861815 0.21949045 -0.21795054
-0.13377067 -0.3005994 -0.028003367 -0.11485469 0.42156157 0.30684164 -0.09824086 0.12265168
-0.07283695 -0.20330468 0.3988023 -0.19549307 0.08908784 -0.036244452 0.05572095 0.064818494
0.013019135 0.24656744 -0.033616062 -0.017634423 0.19055432 0.34620938 -0.05589299 0.1452471
0.13964532 0.1780549 -0.012203212 -0.13300154 0.008432931 -0.1016583 -0.10812317 0.2559844
0.05376091 0.016413573 0.2126974 -0.12453537 0.085059956 0.16115043 0.2500322 -0.00068817375
0.38191 -0.23163874 0.0068325903 -0.15500262 0.12328667 -0.04311848 -0.040822815 -0.08205827
0.3004879 -0.16130078 0.19399667 0.17754075 0.1476426 0.0928889 -0.23162079 0.02928862
-0.064635955 0.14929108 0.13344593 0.17216446 0.2865863 -0.009792932 0.0022440616 0.19850281
-0.18616802 0.3619085 -0.19735464 -0.19687049 -0.06560736 0.21518762 0.08073735 -0.17051364
-0.3299411 -0.036192305 0.05743498 -0.030097175 -0.15403755 0.0018798228 -0.17591354 0.06878764
-0.047733814 0.037706595 0.38033786 0.0735978 0.12084147 -0.3670362 -0.28207898 -0.2833144
0.37632275 0.04679086 -0.107668474 0.08747736 -0.080213584 -0.09732628 0.00500942 0.096287005
0.13214643 -0.35687906 0.2534273 0.091174945 0.04517577 -0.111725815 0.503195 0.09770584
0.093870774 0.054251555 0.02417275 0.022608604 -0.12299609 0.04779834 0.026279867 -0.10784305
-0.26740894 -0.0299388 0.06858749 -0.13250743 -0.028559472 -0.07845051 -0.10119063 -0.02892807
0.17726678 0.16707744 -0.010878044 0.10772755 0.0021506413 -0.17670634 -0.51636916 -0.08432041
0.09430112 0.06713942 0.13416618 -0.0748445 -0.061838396 0.26114818 0.016133578 0.09470595
-0.09504447 0.119913474 -0.083115794 0.035373613 -0.14728233 0.026257431 0.422008 0.096368484
-0.3186977 -0.086156346 -0.1869355 -0.024656886 -0.20553806 -0.5408076 0.30361804 0.09585948
-0.055530537 0.19219443 -0.002131075 -0.12748225 -0.13208829 -0.30760258 0.1341518 -0.009718991
0.09314113 -0.0036209035 0.14519468 0.08912421 -0.15394318 0.23976612 -0.23643775 0.012444542
0.17059559 -0.0075583123 -0.20812516 -0.09027677 0.09644141 -0.040173166 -0.050473962 -0.27563298
0.094812885 -0.16606994 0.1294929 0.03865615 -0.17709874 -0.20329486 -0.15623546 -0.018725855
00000000: 3e4a 183e b026 14bf 6e78 1cbd 42f1 ea3d
00000010: ebf3 2abd f39b dabd b980 533e e096 9dbe
00000020: edca 50bd 2d7c a33e 579f 04be f0a6 e3bd
00000030: d8b1 adbd ec81 e6bd 17ed 15be 26d0 e13d
00000040: 1905 6cbb 27de c9bd bb58 0f3d ddfc 963d
00000050: f330 d8bd 5646 b73c 35ad 1f3e e918 a13c
00000060: a0e9 2c3e ba49 a03d bf28 8e3e e61c 103e
00000070: ed82 cdbd e816 af3c a977 e13d 1a9e 563d
00000080: 01a9 35be f478 2d3e df3c 6f3e fe9d 59bd
00000090: cfef a7be fb1f 8dbe 0c69 b4bd ee3e eebe
000000a0: ded9 3c3e 428c 2fbe f2ea 293d f016 05be
000000b0: dbda 80be e916 d03c 1c77 e23c 7921 7b3e
000000c0: 28f3 49bd 5749 3a3e 6a89 49bd b7c3 9ebd
000000d0: 3c7b 0c3d b8b9 aabb 621d 363d 939f 363e
000000e0: 53ec b93d 4c30 18bd 9f47 733d 7baa c3bd
000000f0: c44e 7c3e f751 b43e f019 7ebe 925a 0a3d
00000100: 328d 283e 2ca8 3d3e c65e c1bc d92e 54bd
00000110: 1ece 73b9 6286 92be 1bc2 603e 6d2e 5fbe
00000120: 2efb 08be 2ae8 99be 5167 e5bc f038 ebbd
00000130: ebd6 d73e 591a 9d3e 8132 c9bd ce30 fb3d
00000140: 8a2b 95bd 1a2f 50be d12f cc3e 562f 48be
00000150: af73 b63d 1075 14bd a73b 643d 8fbf 843d
00000160: 364e 553c 2d7c 7c3e ffb0 09bd 1176 90bc
00000170: ac20 433e 5b42 b13e 0cf0 64bd a8bb 143e
00000180: 2fff 0e3e 0654 363e fbef 47bc 8e31 08be
00000190: 472a 0a3c 3a32 d0bd ae6f ddbd 6310 833e
000001a0: 6634 5c3d c275 863c 59cd 593e 660c ffbd
000001b0: ea33 ae3d 9e04 253e 3804 803e 8f66 34ba
000001c0: b589 c33e b532 6dbe ece3 df3b 02b9 1ebe
000001d0: b97d fc3d 019d 30bd d335 27bd 2b0e a8bd
000001e0: 8dd9 993e 082c 25be 10a7 463e 3ecd 353e
000001f0: 9f2f 173e 893c be3d 002e 6dbe b0ee ef3c
00000200: db5f 84bd c3df 183e 0da6 083e e14b 303e
00000210: 71bb 923e 8972 20bc 1b11 133b 5244 4b3e
00000220: d4a2 3ebe 124c b93e 5617 4abe 6b98 49be
00000230: 275d 86bd 255a 5c3e a059 a53d 219b 2ebe
00000240: 0aee a8be 623e 14bd f140 6b3d 5a8e f6bc
00000250: 05bc 1dbe 6364 f63a ae22 34be 89e0 8c3d
00000260: 8884 43bd 3b72 1a3d a5bb c23e 72ba 963d
00000270: bc7b f73d 2bec bbbe a86c 90be 960e 91be
00000280: 60ad c03e c6a7 3f3d 4a81 dcbd 5527 b33d
00000290: 0547 a4bd 0053 c7bd 1026 a43b 1f32 c53d
000002a0: 6551 073e dab8 b6be 39c1 813e eeb9 ba3d
000002b0: 3a0a 393d 81d0 e4bd 63d1 003f 001a c83d
000002c0: 523f c03d e136 5e3d ee05 c63c ae35 b93c
000002d0: 60e5 fbbd 31c8 433d e048 d73c d1dc dcbd
000002e0: d3e9 88be 3742 f5bc 9977 8c3d 07b0 07be
000002f0: 8ef5 e9bc a9aa a0bd 083d cfbd 8ffa ecbc
00000300: 6c85 353e 5916 2b3e d339 32bc 43a0 dc3d
00000310: c6f1 0c3b 82f2 34be c530 04bf 2eb0 acbd
00000320: f220 c13d 6480 893d dc62 093e 1348 99bd
00000330: 424a 7dbd 37b5 853e 912a 843c 31f5 c13d
00000340: ada6 c2bd 3295 f53d 9d38 aabd ece3 103d
00000350: 2ed1 16be d319 d73c 6f11 d83e d75c c53d
00000360: 582c a3be bd72 b0bd 056c 3fbe 3dfd c9bc
00000370: 9278 52be 5e72 0abf d373 9b3e fa51 c43d
00000380: fd73 63bd 9ece 443e 81a9 0bbb b58a 02be
00000390: 2742 07be 167e 9dbe 175f 093e 673c 1fbc
000003a0: c7c0 be3d ae4c 6dbb eaad 143e c186 b63d
000003b0: 48a3 1dbe 4085 753e bd1c 72be 31e4 4b3c
000003c0: 9cb0 2e3e b8ab f7bb c31e 55be 07e3 b8bd
000003d0: 1383 c53d 9e8c 24bd c9bd 4ebd c41f 8dbe
000003e0: 422d c23d 3d0e 2abe c999 043e e955 1e3d
000003f0: 5f59 35be 872c 50be 30fc 1fbe f766 99bc

base.mlp.fc_h.0.bias f4 [64]
0.0 0.0 0.0 0.0 0.0 0.0 0.0 0.0
0.0 0.0 0.0 0.0 0.0 0.0 0.0 0.0
0.0 0.0 0.0 0.0 0.0 0.0 0.0 0.0
0.0 0.0 0.0 0.0 0.0 0.0 0.0 0.0
0.0 0.0 0.0 0.0 0.0 0.0 0.0 0.0
0.0 0.0 0.0 0.0 0.0 0.0 0.0 0.0
0.0 0.0 0.0 0.0 0.0 0.0 0.0 0.0
0.0 0.0 0.0 0.0 0.0 0.0 0.0 0.0
00000000: 0000 0000 0000 0000 0000 0000 0000 0000
00000010: 0000 0000 0000 0000 0000 0000 0000 0000
00000020: 0000 0000 0000 0000 0000 0000 0000 0000
00000030: 0000 0000 0000 0000 0000 0000 0000 0000
00000040: 0000 0000 0000 0000 0000 0000 0000 0000
00000050: 0000 0000 0000 0000 0000 0000 0000 0000
00000060: 0000 0000 0000 0000 0000 0000 0000 0000
00000070: 0000 0000 0000 0000 0000 0000 0000 0000
00000080: 0000 0000 0000 0000 0000 0000 0000 0000
00000090: 0000 0000 0000 0000 0000 0000 0000 0000
000000a0: 0000 0000 0000 0000 0000 0000 0000 0000
000000b0: 0000 0000 0000 0000 0000 0000 0000 0000
000000c0: 0000 0000 0000 0000 0000 0000 0000 0000
000000d0: 0000 0000 0000 0000 0000 0000 0000 0000
000000e0: 0000 0000 0000 0000 0000 0000 0000 0000
000000f0: 0000 0000 0000 0000 0000 0000 0000 0000

base.mlp.fc_h.2.weight f4 [64]
1.0 1.0 1.0 1.0 1.0 1.0 1.0 1.0
1.0 1.0 1.0 1.0 1.0 1.0 1.0 1.0
1.0 1.0 1.0 1.0 1.0 1.0 1.0 1.0
1.0 1.0 1.0 1.0 1.0 1.0 1.0 1.0
1.0 1.0 1.0 1.0 1.0 1.0 1.0 1.0
1.0 1.0 1.0 1.0 1.0 1.0 1.0 1.0
1.0 1.0 1.0 1.0 1.0 1.0 1.0 1.0
1.0 1.0 1.0 1.0 1.0 1.0 1.0 1.0
00000000: 0000 803f 0000 803f 0000 803f 0000 803f
00000010: 0000 803f 0000 803f 0000 803f 0000 803f
00000020: 0000 803f 0000 803f 0000 803f 0000 803f
00000030: 0000 803f 0000 803f 0000 803f 0000 803f
00000040: 0000 803f 0000 803f 0000 803f 0000 803f
00000050: 0000 803f 0000 803f 0000 803f 0000 803f
00000060: 0000 803f 0000 803f 0000 803f 0000 803f
00000070: 0000 803f 0000 803f 0000 803f 0000 803f
00000080: 0000 803f 0000 803f 0000 803f 0000 803f
00000090: 0000 803f 0000 803f 0000 803f 0000 803f
000000a0: 0000 803f 0000 803f 0000 803f 0000 803f
000000b0: 0000 803f 0000 803f 0000 803f 0000 803f
000000c0: 0000 803f 0000 803f 0000 803f 0000 803f
000000d0: 0000 803f 0000 803f 0000 803f 0000 803f
000000e0: 0000 803f 0000 803f 0000 803f 0000 803f
000000f0: 0000 803f 0000 803f 0000 803f 0000 803f

base.mlp.fc_h.2.bias f4 [64]
0.0 0.0 0.0 0.0 0.0 0.0 0.0 0.0
0.0 0.0 0.0 0.0 0.0 0.0 0.0 0.0
0.0 0.0 0.0 0.0 0.0 0.0 0.0 0.0
0.0 0.0 0.0 0.0 0.0 0.0 0.0 0.0
0.0 0.0 0.0 0.0 0.0 0.0 0.0 0.0
0.0 0.0 0.0 0.0 0.0 0.0 0.0 0.0
0.0 0.0 0.0 0.0 0.0 0.0 0.0 0.0
0.0 0.0 0.0 0.0 0.0 0.0 0.0 0.0
00000000: 0000 0000 0000 0000 0000 0000 0000 0000
00000010: 0000 0000 0000 0000 0000 0000 0000 0000
00000020: 0000 0000 0000 0000 0000 0000 0000 0000
00000030: 0000 0000 0000 0000 0000 0000 0000 0000
00000040: 0000 0000 0000 0000 0000 0000 0000 0000
00000050: 0000 0000 0000 0000 0000 0000 0000 0000
00000060: 0000 0000 0000 0000 0000 0000 0000 0000
00000070: 0000 0000 0000 0000 0000 0000 0000 0000
00000080: 0000 0000 0000 0000 0000 0000 0000 0000
00000090: 0000 0000 0000 0000 0000 0000 0000 0000
000000a0: 0000 0000 0000 0000 0000 0000 0000 0000
000000b0: 0000 0000 0000 0000 0000 0000 0000 0000
000000c0: 0000 0000 0000 0000 0000 0000 0000 0000
000000d0: 0000 0000 0000 0000 0000 0000 0000 0000
000000e0: 0000 0000 0000 0000 0000 0000 0000 0000
000000f0: 0000 0000 0000 0000 0000 0000 0000 0000

base.mlp.fc2.0.0.weight f4 [64, 64]
0.14872071 -0.5787153 -0.03820079 0.114717975 -0.041736525 -0.10674276 0.20654573 -0.3077917
-0.050974775 0.31930676 -0.12951408 -0.11115825 -0.08481187 -0.112552494 -0.14641224 0.11026029
-0.003601378 -0.09856825 0.03499673 0.073724486 -0.10556211 0.022372406 0.15593417 0.019665198
0.16885996 0.07826562 0.27765462 0.14073524 -0.10034738 0.021373227 0.110091515 0.05239687
-0.17740251 0.16940671 0.23363064 -0.05312919 -0.32800147 -0.27563462 -0.088090986 -0.46532387
0.18442485 -0.17143348 0.041483827 -0.12997031 -0.25166973 0.02540155 0.027644686 0.24524488
-0.049304157 0.1819204 -0.049203314 -0.077521734 0.034297213 -0.0052101277 0.044461615 0.1783431
0.090782784 -0.037155434 0.059394475 -0.09554001 0.24639422 0.35218784 -0.24814582 0.03377778
0.16460112 0.18521184 -0.023604762 -0.05180249 -0.0002325107 -0.2861815 0.21949045 -0.21795054
-0.13377067 -0.3005994 -0.028003367 -0.11485469 0.42156157 0.30684164 -0.09824086 0.12265168
-0.07283695 -0.20330468 0.3988023 -0.19549307 0.08908784 -0.036244452 0.05572095 0.064818494
0.013019135 0.24656744 -0.033616062 -0.017634423 0.19055432 0.34620938 -0.05589299 0.1452471
0.13964532 0.1780549 -0.012203212 -0.13300154 0.008432931 -0.1016583 -0.10812317 0.2559844
0.05376091 0.016413573 0.2126974 -0.12453537 0.085059956 0.16115043 0.2500322 -0.00068817375
0.38191 -0.23163874 0.0068325903 -0.15500262 0.12328667 -0.04311848 -0.040822815 -0.08205827
0.3004879 -0.16130078 0.19399667 0.17754075 0.1476426 0.0928889 -0.23162079 0.02928862
-0.06980596 0.15428372 0.13040312 0.16999719 0.29158306 -0.01534493 0.0072561936 0.19376408
-0.18117258 0.366512 -0.2028247 -0.20231874 -0.06096375 0.2197043 0.085753165 -0.17583945
-0.32494697 -0.031173857 0.05303052 -0.035521075 -0.1490444 -0.0035577863 -0.17092006 0.07378972
-0.042732727 0.0427146 0.38533267 0.06808512 0.12584424 -0.36203936 -0.2770808 -0.28720585
0.38132942 0.051778972 -0.102672964 0.09261144 -0.07521456 -0.092318416 0.010017368 0.10129995
0.13629101 -0.35186982 0.24798916 0.08586615 0.039711937 -0.10671556 0.49896002 0.10270118
0.09887715 0.048893664 0.018874107 0.017342636 -0.1179846 0.05281346 0.031286128 -0.10283104
-0.26239002 -0.025088564 0.073581934 -0.12749802 -0.023550792 -0.07344127 -0.09619533 -0.023929475
0.17102559 0.17345956 -0.014715935 0.10329113 0.008513312 -0.18356875 -0.50997883 -0.09069683
0.10069098 0.073333204 0.12736337 -0.081927285 -0.055872586 0.26718366 0.022500902 0.088050716
-0.0887263 0.12628037 -0.09004812 0.028847344 -0.14090765 0.01966589 0.42835283 0.10275465
-0.31232363 -0.079773374 -0.18057542 -0.031540345 -0.19917342 -0.5344603 0.30999947 0.08972104
-0.049133327 0.19854023 0.004213702 -0.1214493 -0.12566943 -0.3012483 0.1405022 -0.0033354142
0.09801511 0.0027344187 0.1385261 0.08247507 -0.16070434 0.24613018 -0.24350086 0.018819883
0.17698638 -0.01410521 -0.21464218 -0.0970397 0.10272964 -0.03383593 -0.04404111 -0.26930457
0.1011199 -0.1596255 0.13588178 0.04497547 -0.17071338 -0.19694744 -0.14989012 -0.01235151
00000000: 3e4a 183e b026 14bf 6e78 1cbd 42f1 ea3d
00000010: ebf3 2abd f39b dabd b980 533e e096 9dbe
00000020: edca 50bd 2d7c a33e 579f 04be f0a6 e3bd
00000030: d8b1 adbd ec81 e6bd 17ed 15be 26d0 e13d
00000040: 1905 6cbb 27de c9bd bb58 0f3d ddfc 963d
00000050: f330 d8bd 5646 b73c 35ad 1f3e e918 a13c
00000060: a0e9 2c3e ba49 a03d bf28 8e3e e61c 103e
00000070: ed82 cdbd e816 af3c a977 e13d 1a9e 563d
00000080: 01a9 35be f478 2d3e df3c 6f3e fe9d 59bd
00000090: cfef a7be fb1f 8dbe 0c69 b4bd ee3e eebe
000000a0: ded9 3c3e 428c 2fbe f2ea 293d f016 05be
000000b0: dbda 80be e916 d03c 1c77 e23c 7921 7b3e
000000c0: 28f3 49bd 5749 3a3e 6a89 49bd b7c3 9ebd
000000d0: 3c7b 0c3d b8b9 aabb 621d 363d 939f 363e
000000e0: 53ec b93d 4c30 18bd 9f47 733d 7baa c3bd
000000f0: c44e 7c3e f751 b43e f019 7ebe 925a 0a3d
00000100: 328d 283e 2ca8 3d3e c65e c1bc d92e 54bd
00000110: 1ece 73b9 6286 92be 1bc2 603e 6d2e 5fbe
00000120: 2efb 08be 2ae8 99be 5167 e5bc f038 ebbd
00000130: ebd6 d73e 591a 9d3e 8132 c9bd ce30 fb3d
00000140: 8a2b 95bd 1a2f 50be d12f cc3e 562f 48be
00000150: af73 b63d 1075 14bd a73b 643d 8fbf 843d
00000160: 364e 553c 2d7c 7c3e ffb0 09bd 1176 90bc
00000170: ac20 433e 5b42 b13e 0cf0 64bd a8bb 143e
00000180: 2fff 0e3e 0654 363e fbef 47bc 8e31 08be
00000190: 472a 0a3c 3a32 d0bd ae6f ddbd 6310 833e
000001a0: 6634 5c3d c275 863c 59cd 593e 660c ffbd
000001b0: ea33 ae3d 9e04 253e 3804 803e 8f66 34ba
000001c0: b589 c33e b532 6dbe ece3 df3b 02b9 1ebe
000001d0: b97d fc3d 019d 30bd d335 27bd 2b0e a8bd
000001e0: 8dd9 993e 082c 25be 10a7 463e 3ecd 353e
000001f0: 9f2f 173e 893c be3d 002e 6dbe b0ee ef3c
00000200: 6df6 8ebd 8dfc 1d3e 6588 053e be13 2e3e
00000210: 604a 953e 4d69 7bbc 5dc5 ed3b 176a 463e
00000220: 4e85 39be 76a7 bb3e 47b1 4fbe a52c 4fbe
00000230: 20b5 79bd 2afa 603e 5b9f af3d 420f 34be
00000240: 735f a6be 5160 ffbc 8836 593d 8c7e 11bd
00000250: 189f 18be c029 69bb ab05 2fbe 111f 973d
00000260: 8308 2fbd 81f5 2e3d 534a c53e 3670 8b3d
00000270: 50dd 003e 395d b9be 89dd 8dbe a50c 93be
00000280: 9c3d c33e 3016 543d 3446 d2bd 11ab bd3d
00000290: 170a 9abd 7011 bdbd e31f 243c 5976 cf3d
000002a0: df8f 0b3e 4828 b4be dff0 7d3e 98da af3d
000002b0: fca8 223d b08d dabd b077 ff3e ff54 d23d
000002c0: 1a80 ca3d b944 483d df9d 9a3c 2512 8e3c
000002d0: e9a1 f1bd ed52 583d e225 003d 1599 d2bd
000002e0: fc57 86be 8886 cdbc 20b2 963d d78e 02be
000002f0: 97ed c0bc 6068 96bd 0f02 c5bd bf07 c4bc
00000300: 5521 2f3e 629f 313e 1b1b 71bc 4d8a d33d
00000310: 6b7b 0b3c 72f9 3bbe f98d 02bf 42bf b9bd
00000320: 1337 ce3d b82f 963d 8b6b 023e 7ec9 a7bd
00000330: a7da 64bd 4ccc 883e d053 b83c ef53 b43d
00000340: 22b6 b5bd a44f 013e 266b b8bd 4451 ec3c
00000350: 184a 10be 5c1a a13c 1051 db3e 0871 d23d
00000360: e2e8 9fbe 3960 a3bd c3e8 38be 7330 01bd
00000370: 1ef4 4bbe 64d2 08bf 40b8 9e3e aabf b73d
00000380: 0740 49bd 214e 4b3e 1813 8a3b 69ba f8bd
00000390: 7daf 00be 383d 9abe cfdf 0f3e f796 5abb
000003a0: 25bc c83d ef33 333b c9d9 0d3e b1e8 a83d
000003b0: ae8f 24be 8d09 7c3e 4a58 79be 282c 9a3c
000003c0: eb3b 353e 8a19 67bc 29cb 5bbe c0bc c6bd
000003d0: eb63 d23d 8b97 0abd 7364 34bd 4ae2 89be
000003e0: f317 cf3d de74 23be 9824 0b3e 3338 383d
000003f0: 7dcf 2ebe 97ac 49be cc7c 19be fd5d 4abc

base.mlp.fc2.0.0.bias f4 [64]
0.0 0.0 -0.0052415114 -0.0065806224 0.015590829 -0.0035098363 0.005703618 -0.004257147
-0.0076359515 0.0 0.0006433459 -0.011502823 0.0058317916 0.0 0.0024521463 -0.009836434
0.0 0.0 0.0037830684 -0.009609491 -0.007024466 0.005300038 0.0 0.0
0.0 0.0 0.0 0.0 0.0 -0.00879943 0.0 0.0
0.0 0.0073794355 -0.008002875 0.018591851 0.0 0.0 -0.0035453453 -0.0051283925
-0.0026105756 0.004578458 0.0053792885 0.00012038418 0.0012092928 -0.006006776 -0.0022296938 0.0
0.0 0.0 0.0 -0.0043582176 0.0 0.0 0.0 -0.00016714705
-0.011454367 -0.0032099641 0.005141756 -0.0038185874 0.0 0.0 0.00014949008 0.0
00000000: 0000 0000 0000 0000 fcc0 abbb 43a2 d7bb
00000010: ad70 7f3c 4805 66bb 6ae5 ba3b 8a7f 8bbb
00000020: 0137 fabb 0000 0000 36a6 283a 5676 3cbc
00000030: 9d18 bf3b 0000 0000 30b4 203b ff28 21bc
00000040: 0000 0000 0000 0000 5bed 773b 2071 1dbc
00000050: 7e2d e6bb f1ab ad3b 0000 0000 0000 0000
00000060: 0000 0000 0000 0000 0000 0000 0000 0000
00000070: 0000 0000 7c2b 10bc 0000 0000 0000 0000
00000080: 0000 0000 31cf f13b 7e1e 03bc f04d 983c
00000090: 0000 0000 0000 0000 0659 68bb 130c a8bb
000000a0: 3116 2bbb e406 963b be44 b03b c476 fc38
000000b0: 2281 9e3a 7dd4 c4bb 0e20 12bb 0000 0000
000000c0: 0000 0000 0000 0000 0000 0000 61cf 8ebb
000000d0: 0000 0000 0000 0000 0000 0000 3244 2fb9
000000e0: 19ab 3bbc 435e 52bb 2d7c a83b 4441 7abb
000000f0: 0000 0000 0000 0000 70c0 1c39 0000 0000

base.mlp.fc2.0.2.weight f4 [64]
0.9956051 0.9930395 0.9923373 0.9899659 0.99275744 0.9904198 0.9986022 0.99794024
0.99275345 0.9958897 0.99192554 0.99549484 0.9918055 0.9936973 0.9914336 0.98531336
0.9963952 0.9948139 0.992905 0.9885999 0.9922785 0.9935671 0.99460626 0.99445313
0.99635327 0.9931149 0.9982474 0.99280566 0.9962494 0.9977967 0.9921688 0.99275243
0.9962737 0.99737453 0.99385536 0.99773115 0.9964814 0.9914311 0.99629873 0.99257964
0.99170524 0.9912492 0.9971976 0.99670804 0.99099034 0.9897416 0.99533385 0.9952052
0.98920274 0.9943869 0.9988991 0.994523 0.9977139 0.9966597 0.9969218 0.99364465
0.99197495 0.9903944 0.9953 0.99735594 0.99726087 0.98845166 0.9919795 0.9957638
00000000: fadf 7e3f d637 7e3f d109 7e3f 686e 7d3f
00000010: 5a25 7e3f 278c 7d3f 65a4 7f3f 0379 7f3f
00000020: 1725 7e3f a1f2 7e3f d5ee 7d3f c0d8 7e3f
00000030: f7e6 7d3f f262 7e3f 98ce 7d3f 7f3d 7c3f
00000040: c113 7f3f 20ac 7e3f 062f 7e3f e214 7d3f
00000050: f705 7e3f 6a5a 7e3f 849e 7e3f 7b94 7e3f
00000060: 0211 7f3f c73c 7e3f 248d 7f3f 8328 7e3f
00000070: 330a 7f3f 9b6f 7f3f c6fe 7d3f 0625 7e3f
00000080: cb0b 7f3f f053 7f3f 4e6d 7e3f 4f6b 7f3f
00000090: 6819 7f3f 6ece 7d3f 6f0d 7f3f b319 7e3f
000000a0: 65e0 7d3f 82c2 7d3f 5848 7f3f 4228 7f3f
000000b0: 8bb1 7d3f b55f 7d3f 33ce 7e3f c5c5 7e3f
000000c0: 643c 7d3f 2490 7e3f dab7 7f3f 0f99 7e3f
000000d0: 2e6a 7f3f 1725 7f3f 4436 7f3f 7f5f 7e3f
000000e0: 12f2 7d3f 7d8a 7d3f fbcb 7e3f b852 7f3f
000000f0: 7d4c 7f3f 2b0b 7d3f 5ef2 7d3f 60ea 7e3f

base.mlp.fc2.0.2.bias f4 [64]
0.00392965 0.006728839 0.006778811 0.0065527153 -0.006132848 -0.008760507 -0.0028967233 0.0014966904
0.002832262 0.0038476377 -0.0046914425 -0.005801418 0.007016 0.0063993246 0.005644143 0.008722514
0.0032688298 0.0050568455 0.002009505 -0.012716346 -0.009723062 -0.006185662 0.005158533 0.0054487474
0.0030188998 0.006953397 0.0012471264 0.006926441 0.0033302377 -0.010823471 0.007953331 0.0070735468
0.0034111983 -0.0040354696 -0.010468072 0.010065248 0.0031360395 0.008454018 0.0031353151 -0.007953146
0.0036435116 0.0065780613 -0.0038013246 -0.004952019 -0.0068373526 -0.0092915315 -0.004483008 0.004514708
0.01100092 0.005042904 0.00054413726 -0.006445932 0.0017143909 0.0030239946 0.0025870032 -0.0041773203
0.0050437837 0.006929092 -0.0028836036 0.0022564272 0.0023483133 0.011998009 -0.00578291 0.0040333173
00000000: 4bc4 803b 987d dc3b ca20 de3b 29b8 d63b
00000010: 0ff6 c8bb 3b88 0fbc f4d6 3dbb 992c c43a
00000020: 799d 393b a628 7c3b acba 99bb d219 bebb
00000030: 79e6 e53b 6db1 d13b 81f2 b83b e0e8 0e3c
00000040: dd39 563b e5b3 a53b e6b1 033b 3958 50bc
00000050: 7a4d 1fbc 18b1 cabb e908 a93b 688b b23b
00000060: bcd8 453b 52d9 e33b 9e76 a33a 33f7 e23b
00000070: 1e40 5a3b ed54 31bc b04e 023c 36c9 e73b
00000080: 698e 5f3b f93b 84bb 4782 2bbc b6e8 243c
00000090: 0386 4d3b b982 0a3c dc79 4d3b e94d 02bc
000000a0: fbc7 6e3b c78c d73b a51f 79bb 8c44 a2bb
000000b0: df0b e0bb 823b 18bc 32e6 92bb 1ef0 933b
000000c0: 343d 343c f23e a53b 6fa4 0e3a 6638 d3bb
000000d0: 6ab5 e03a 362e 463b b68a 293b e7e1 88bb
000000e0: 5346 a53b 700d e33b d7fa 3cbb 91e0 133b
000000f0: 29e6 193b 4c93 443c 917e bdbb eb29 843b

act.action_out.linear.weight f4 [6, 64]
-0.0064244214 -0.0057617337 -0.0059313425 -0.007193005 0.009443337 0.004150636 0.007401371 -0.0061151767
-0.008677424 -0.0061247745 0.0060758456 0.0021381713 0.0028824145 -0.0055196043 -0.000636141 -0.0061457283
-0.0054904395 -0.0029375257 0.01373589 -0.0036317832 -0.0032253508 0.007763981 -0.004609497 -0.0043649864
-0.0070745847 -0.0043890337 -0.0074817985 -0.0060393563 -0.005593594 -0.010673574 -0.0039287666 -0.0053467904
-0.005768374 0.010133586 -0.005522063 0.0070434683 -0.005758246 -0.0055630235 -0.0054776734 -0.004193592
-0.0123962825 -0.001488321 0.0068405243 0.007103779 0.003044393 -0.002205205 -0.0021996507 -0.006251184
-0.005074433 -0.007075729 -0.0071089915 -0.005883042 -0.0074287937 -0.007918816 -0.006573994 0.0029494404
-0.00565691 -0.0017799183 0.0055347052 -0.007869578 -0.0056549218 -0.0012880355 0.0034014666 -0.0057713343
0.0077735046 0.008065081 0.008129816 0.0050269146 -0.009038891 -0.0074362536 -0.009991557 0.009766686
0.0044883974 0.0092403125 0.010219455 -0.0066603753 -0.003420758 0.007740389 -0.0007371828 0.005649534
0.007700446 0.008648495 0.004797614 0.0048858314 0.00092389446 -0.009311918 0.0076989844 0.00838781
0.0074606603 0.008353521 0.010287975 0.008074359 0.008492895 0.007662725 0.008932747 0.008162543
0.0068374416 -0.012904245 0.0017165677 2.0382096e-05 0.01034657 0.0055130064 0.010059099 0.0014803482
0.0032779789 0.001040693 -0.009047454 -0.009319814 -0.0054065785 -0.001607403 -0.0031450682 0.0067479466
0.004614701 0.008299216 0.00863963 -0.00017579945 0.007648866 0.006995418 0.008575965 -0.0034866703
0.003878135 0.006570996 -0.0068979147 0.008130922 0.00947484 0.00578567 -0.006684818 0.009078482
0.006181217 0.0045779296 0.005300766 0.002832471 -0.0038336476 -0.0051214723 -0.007797163 0.008107724
-0.00095185183 0.0063266396 0.010458156 -0.007133538 0.0006289865 0.0068873055 0.0034775003 0.0027853937
0.0070927334 0.0068861996 0.010710505 -0.0006432137 -0.0028627673 -0.00792972 0.006924266 0.0074906615
0.005349839 0.006097259 0.006176333 0.0052130516 0.005689511 -0.004471996 0.006923173 0.004881425
0.008737868 -0.003705345 -0.005277695 0.008814369 0.006051323 0.0047594826 0.0050457553 -0.004078525
-0.004018181 0.0039849323 -0.0070598596 -0.006973886 -0.006429846 -0.0023244454 -0.006231266 0.0052447594
0.006356039 0.0042606182 0.008559774 -0.0052541937 0.006862791 0.008621717 0.0062403306 -0.005549164
0.0030292228 0.0018726806 -0.00560801 0.007013093 0.0077606533 0.006166673 -0.0041275774 0.006632172
-0.0049139373 -0.0062607485 -0.004788634 -0.0028583412 0.0064032357 0.0076064654 0.007999464 -0.0038628415
-0.0029969735 -0.0043732827 -0.0004546097 0.004947678 -0.0030803077 -0.0064128153 -0.0016296993 -0.0041756798
-0.0062356577 -0.005895411 2.6576017e-05 0.0020584455 0.004858617 0.004562661 -0.0071368744 -0.005134743
-0.0046549626 -0.005196615 -0.006932157 -0.004388617 -0.006120258 0.0010756758 -0.004866784 -0.0058744145
-0.0051603564 0.007446998 0.0033113703 -0.0018957208 -0.0055344077 -0.0056669177 -0.004615934 0.0017109239
-0.005253626 -0.002249947 0.00790236 0.006000056 0.006036593 0.0036616866 0.0029134315 -0.007256601
-0.004477335 -0.005197042 -0.00622481 0.003815009 -0.005633876 -0.0078193415 -0.005866709 0.0053206105
-0.004765708 -0.0031163932 0.006301629 -0.007422929 -0.00512127 -0.00529856 0.004103953 -0.008310851
00000000: f483 d2bb edcc bcbb b55b c2bb 4db3 ebbb
00000010: 3ab8 1a3c 0f02 883b 3387 f23b d261 c8bb
00000020: c12b 0ebc 55b2 c8bb e317 c73b 9020 0c3b
00000030: e4e6 3c3b ccdd b4bb b3c2 26ba 1b62 c9bb
00000040: 25e9 b3bb 8183 40bb 800c 613c 3603 6ebb
00000050: 6860 53bb fe68 fe3b 430b 97bb 2908 8fbb
00000060: ebd1 e7bb e2d1 8fbb e029 f5bb cbe5 c5bb
00000070: 784a b7bb 37e0 2ebc e2bc 80bb 2134 afbb
00000080: a104 bdbb 5707 263c 6cf2 b4bb e5cc e63b
00000090: abaf bcbb 064a b6bb 0e7e b3bb 666a 89bb
000000a0: c719 4bbc c413 c3ba 7a26 e03b d1c6 e83b
000000b0: 7084 473b 3385 10bb 0428 10bb bbd6 ccbb
000000c0: 6e47 a6bb 84db e7bb 8bf2 e8bb 88c6 c0bb
000000d0: 3d6d f3bb ecbd 01bc a96a d7bb 664b 413b
000000e0: 9a5d b9bb 264c e9ba 795c b53b 67ef 00bc
000000f0: ec4c b9bb 4dd3 a8ba 24eb 5e3b 761d bdbb
00000100: e2b8 fe3b 6723 043c eb32 053c d1b8 a43b
00000110: db17 14bc d1ab f3bb a1b3 23bc 7304 203c
00000120: 6813 933b ae64 173c 806f 273c 473f dabb
00000130: cc2e 60bb 17a3 fd3b 803f 41ba ba1f b93b
00000140: 0654 fc3b 6bb2 0d3c 4e35 9d3b 5319 a03b
00000150: 8231 723a 0491 18bc c347 fc3b 066d 093c
00000160: 8e78 f43b 35dd 083c e58e 283c 514a 043c
00000170: c925 0b3c 9917 fb3b a85a 123c 30bc 053c
00000180: 9e0c e03b 546c 53bc 74fe e03a 38fa aa37
00000190: a984 293c 73a6 b43b ebce 243c 3e08 c23a
000001a0: 5cd3 563b dd67 883a c63b 14bc 22b2 18bc
000001b0: ab29 b1bb 7faf d2ba 7d1d 4ebb e11d dd3b
000001c0: eb36 973b 6ff9 073c 3c8d 0d3c ce56 38b9
000001d0: 57a3 fa3b d239 e53b 3482 0c3c 9f80 64bb
000001e0: 4f28 7e3b 8251 d73b e707 e2bb 8f37 053c
000001f0: 5c3c 1b3c b895 bd3b 510c dbbb eabd 143c
00000200: ce8b ca3b 7502 963b 0cb2 ad3b faa0 393b
00000210: ef3d 7bbb 06d2 a7bb 587f ffbb 42d6 043c
00000220: b285 79ba b34f cf3b af58 2b3c 74c0 e9bb
00000230: 92e2 243a e8ae e13b c6e6 633b 278b 363b
00000240: 296a e83b a1a5 e13b 1d7b 2f3c 579d 28ba
00000250: 449d 3bbb a8eb 01bc f4e4 e23b 3974 f53b
00000260: b44d af3b 84cb c73b d662 ca3b 3fd2 aa3b
00000270: 146f ba3b d289 92bb c9db e23b 5cf4 9f3b
00000280: 4629 0f3c 60d5 72bb 84f0 acbb 256a 103c
00000290: 2d4a c63b 6ff5 9b3b dd56 a53b 26a5 85bb
000002a0: f2aa 83bb 0994 823b 6556 e7bb 3285 e4bb
000002b0: 75b1 d2bb b955 18bb a62f ccbb 3bdc ab3b
000002c0: 5246 d03b a89c 8b3b 4b3e 0c3c 5f2b acbb
000002d0: 43e1 e03b 1a42 0d3c b07b cc3b c3d5 b5bb
000002e0: ed85 463b bc74 f53a 66c3 b7bb 17ce e53b
000002f0: 144d fe3b cd11 ca3b a140 87bb b152 d93b
00000300: 1805 a1bb f726 cdbb f9e9 9cbb 0253 3bbb
00000310: 3cd2 d13b a83f f93b 2f10 033c ba27 7dbb
00000320: df68 44bb c14d 8fbb ae58 eeb9 2220 a23b
00000330: fdde 49bb 9822 d2bb a29b d5ba 24d4 88bb
00000340: 7d54 ccbb 4b2e c1bb 90ef de37 fce6 063b
00000350: 0935 9f3b 6082 953b 71dc e9bb 5941 a8bb
00000360: a888 98bb 5e48 aabb 2627 e3bb 63ce 8fbb
00000370: 728c c8bb b1fd 8c3a 8b79 9fbb 297e c0bb
00000380: 3518 a9bb f205 f43b 9303 593b d679 f8ba
00000390: fa59 b5bb 8db1 b9bb 4341 97bb 1441 e03a
000003a0: 9c26 acbb d973 13bb e678 013c 1e9c c43b
000003b0: 9dce c53b e8f8 6f3b 45ef 3e3b c8c8 edbb
000003c0: 9cb6 92bb f34b aabb 7ef9 cbbb 3b05 7a3b
000003d0: 619c b8bb b21c 00bc 863d c0bb 8458 ae3b
000003e0: a829 9cbb 673c 4cbb e57d ce3b 0b3c f3bb
000003f0: 54d0 a7bb 8b9f adbb 747a 863b 3c2a 08bc

act.action_out.linear.bias f4 [6]
0.0071990886 -0.009378571 -0.0063380473 0.0065221866 -0.0052578608 0.014410666
00000000: 55e6 eb3b 94a8 19bc 65af cfbb 11b8 d53b
00000010: 224a acbb b71a 6c3c
