mappo_ros/onpolicy/scripts/results/drone/test_drones/mappo/check/wandb/offline-run-20230123_224847-f3y5rdb9/files/critic.pt (torch_old, 42232 bytes, 15 tensors)

base.feature_norm.weight f4 [16]
000000 9d 0c 80 3f d2 1b 80 3f 98 af 7f 3f 62 9a 80 3f
       1.0003849 1.000849 0.9987731 1.0047114
000010 03 a4 7f 3f a2 d8 7f 3f 6b 1a 80 3f ae ab 7f 3f
       0.9985964 0.9993993 1.0008062 0.9987134
000020 85 89 7f 3f 2c 96 7f 3f 05 04 80 3f ca d8 7f 3f
       0.99819213 0.9983852 1.0001227 0.9994017
000030 24 e2 7f 3f 79 16 80 3f 20 28 80 3f f0 3a 80 3f
       0.9995444 1.0006858 1.0012245 1.0017986

base.feature_norm.bias f4 [16]
000000 91 db c9 b9 6d 86 5e ba ed d1 a0 3a ac 6a 9a bb
       -0.00038501297 -0.0008488659 0.0012269594 -0.0047124233
000010 2b fe b7 3a aa 6a 1d ba df 5d 53 ba 12 a4 a8 3a
       0.001403754 -0.0006004969 -0.0008062999 0.001286628
000020 be 13 ed 3a ab ab d3 3a 35 3f 01 b9 0c eb 1c 3a
       0.0018087549 0.0016149184 -0.00012325945 0.00059859524
000030 da fe ee 39 d8 bd 33 3a 75 8e a0 ba 85 d2 eb ba
       0.00045584777 0.0006856597 -0.0012249487 -0.0017991817

base.mlp.fc1.0.weight f4 [64, 16]
000000 be 6b 9c 3e 73 11 d7 3d 11 05 70 3e 5e 04 dd 3b
       0.3055095 0.10501375 0.23439433 0.0067449054
000010 8a dd b9 3e e1 ad 14 bc 6d 9b 19 3e 83 f7 e2 3c
       0.36301833 -0.009074659 0.15000696 0.027705913
000020 41 c2 75 be 73 a2 a0 bc 23 a0 0f 3d b0 6d a7 bc
       -0.23999883 -0.019608712 0.035064828 -0.020438045
000030 45 74 6f 3e d6 91 1b 3e df 60 13 3e c6 92 8d 3c
       0.23384197 0.15192351 0.14392422 0.017281901
000040 90 dc 30 3e 03 91 58 3e fb e5 b7 3d a8 c1 42 3e
       0.17271638 0.21149068 0.08979412 0.19019186
000050 2c f5 ac be e2 d2 5f bd 5e 85 8a be f6 80 8d 3e
       -0.337808 -0.054644473 -0.27054876 0.27637452
000060 de e0 3a be ed fd 40 bc 70 91 a0 3e 95 0d 49 3e
       -0.18249843 -0.011779291 0.3136096 0.19634087
000070 5a ec 1f be 4a 7d 56 bd 65 9b d3 bd 5f 46 ae 3d
       -0.15617505 -0.05236558 -0.103323735 0.08509516
000080 67 df ba bd ab c6 46 bc 24 25 51 3d ae a5 ad 3e
       -0.09124642 -0.012132327 0.05106081 0.33915466
000090 87 bc 49 3e 89 8b 21 3e 17 de d7 bc 60 f7 2b 3e
       0.19700824 0.15775885 -0.026351018 0.16793585
0000a0 42 e8 02 3d 13 4a 37 3e 83 72 d9 bd 3f ca 4f be
       0.03195978 0.17899351 -0.106175445 -0.20291995
0000b0 a6 13 ee 3c ef d3 46 3d e9 36 72 be 9a fa a3 3d
       0.029062103 0.04854196 -0.23653759 0.08006783
0000c0 01 49 86 be 7b 7b 6e be 50 38 93 3d 00 4a a0 be
       -0.26227573 -0.23289292 0.07188475 -0.31306458
0000d0 c2 e0 5b 3e 4f f1 6b 3d 4e fd cd 3d 74 d8 5a bd
       0.21472457 0.057603177 0.1005808 -0.053429082
0000e0 42 0a c5 be ef 8b b0 bd 1a 4a 54 bc 93 ff 00 be
       -0.3848439 -0.0862044 -0.01295712 -0.12597494
0000f0 0f 1f dd 3d 6e 5d 04 bd c7 6c 89 be 68 b2 5f be
       0.107969396 -0.032315664 -0.26840803 -0.218454
000100 c4 54 09 3a ad e3 12 3d 21 34 07 3e 30 8f ca 3d
       0.00052387663 0.03586166 0.1320348 0.09890592
000110 a3 04 d0 3d d7 7c 02 bd ea 4b a7 39 9d 57 6b 3e
       0.101571344 -0.031857338 0.00031909283 0.2298264
000120 fa 76 a6 3d 88 a8 3c 3e 0b b7 eb bb 97 11 aa 3e
       0.08128162 0.18423665 -0.0071934513 0.33216545
000130 df dc af bb 2b 29 b9 3e 68 08 2f 3c c8 6f a4 3e
       -0.005366906 0.3616422 0.010683157 0.32116532
000140 51 1d 25 bd 65 4a ab 3e eb 12 4a 3d 75 1c 9e bc
       -0.04031116 0.33455196 0.049334448 -0.019300679
000150 a0 f5 7b be b0 b1 5b bd ea 00 80 be f8 9e 91 3d
       -0.24605417 -0.053636253 -0.25000697 0.07110399
000160 3f 99 19 3c 8e 05 8a be 52 aa 82 bd 80 9e 5f be
       0.009374916 -0.26957363 -0.06380142 -0.21837807
000170 6f 23 07 3d d8 70 c2 3d 2b 59 65 be e5 f0 31 bd
       0.032992776 0.094941795 -0.22397296 -0.043442626
000180 b4 d3 3b 3e df c2 71 3e 89 f9 8e 3e c0 35 66 bd
       0.18342477 0.23609494 0.27924755 -0.056203604
000190 a5 d8 bf bc a1 37 34 3d 05 06 09 be 71 a3 39 be
       -0.023418734 0.043998364 -0.13381203 -0.18128754
0001a0 5a 1f f3 be b1 91 00 3d 10 fe ff bc 6e c4 11 be
       -0.47484857 0.031388942 -0.031249076 -0.14235088
0001b0 d8 0c 9f 3e ec 54 18 3e 7d 90 d9 3d 59 cf db bd
       0.31064487 0.14876145 0.10623262 -0.10732908
0001c0 54 a2 79 3c 77 1f b3 bd 27 23 0c be 06 41 7f be
       0.015236456 -0.08746236 -0.13685285 -0.24927148
0001d0 3e 38 ae bd 5f 5f fd 3d c2 92 c1 3e 05 6a ea 3d
       -0.08506821 0.12371706 0.3780728 0.11446003
0001e0 87 fd 63 be 08 6c d2 3c 1a 2c 57 3d 12 ad 8a 3d
       -0.22264682 0.025686279 0.052532293 0.06771292
0001f0 f4 9e 8f be 94 46 c9 3b e7 ee aa bd cb da fa 3e
       -0.2805096 0.006142447 -0.08346348 0.4899505
000200 aa 42 0e bc 58 91 15 3e d9 9f 2e 3e 4f a0 5c bd
       -0.008682886 0.14606225 0.17053165 -0.05386382
000210 b1 f1 16 3e ca 5d 82 3e 33 be df bd f1 1b f4 bd
       0.14740635 0.2546218 -0.109249495 -0.11919392
000220 23 9d 74 3c cb 90 98 3c bb ee 42 bd b3 d8 c7 be
       0.014930042 0.01862373 -0.047590952 -0.39032516
000230 49 f8 90 be 3c 8e 92 3c 75 f8 19 be 9f 33 fe bd
       -0.28314427 0.017890088 -0.15036185 -0.1241219
000240 f5 8d f7 bc ec 28 34 3e ba f2 cc 3d 1f 7a bf be
       -0.030219058 0.17593735 0.10007234 -0.37397859
000250 7e f1 06 be 2e a1 e7 be cb 4b b7 bc 84 90 70 3d
       -0.1317806 -0.45240158 -0.022375008 0.05873157
000260 68 cd fe 3c 57 f5 aa 3c b3 b6 9d bd 06 81 fc 3d
       0.031103805 0.02086894 -0.07700863 0.12329297
000270 ac 9b 98 bd 1c cf f3 3c 0b c6 95 bd c6 e6 25 3e
       -0.07451567 0.029761843 -0.07313164 0.16201314
000280 d2 90 ce bd df 87 4e 3e af 64 22 be 71 b1 04 3d
       -0.10086216 0.20169018 -0.1585872 0.032395784
000290 7f f2 35 bd da 11 d8 3d 13 51 00 3e fe 32 76 3d
       -0.044420715 0.1055028 0.12530927 0.060107224
0002a0 37 fb 30 bd 74 5b a3 bd 5b 39 32 3e 3e da 90 3e
       -0.043208327 -0.07976428 0.17404692 0.28291506
0002b0 9d 62 d2 3d 60 67 1c bd 08 f8 81 3d 5f 3f 6c be
       0.10272715 -0.038184524 0.06346136 -0.23071049
0002c0 58 fa b5 3a b6 33 5f 3e bf 9e 8c 3d 21 ed 86 be
       0.0013883812 0.2179707 0.06866216 -0.2635279
0002d0 6e 95 8c 3d 21 2f 24 bd 77 33 e2 bd 96 32 d2 3d
       0.06864439 -0.040084008 -0.110449724 0.10263555
0002e0 91 8d 2d 3e 6f 6e af 3e 8c 24 ac 3e a1 f0 c2 bd
       0.16948535 0.34263942 0.33621633 -0.095185526
0002f0 a9 76 8a bd a3 04 02 bd 66 73 a4 3c a6 a4 a7 3e
       -0.06760914 -0.031742703 0.020074558 0.32742804
000300 67 73 07 be db 8a 24 3d f4 97 78 bd a2 04 43 3e
       -0.13227616 0.040171485 -0.06069179 0.19044736
000310 c0 1c a4 bd cf 07 7c 3d 06 a5 ef 3e cb d7 5e 3d
       -0.08013296 0.061530884 0.4680559 0.054405015
000320 41 91 d7 bb 7b bb 48 be 3d 58 8c 3e 05 37 87 be
       -0.006578595 -0.19602768 0.2741107 -0.26409164
000330 14 08 52 3e f5 f5 cf bd f6 75 f3 3d 03 af 0f be
       0.20510894 -0.101543345 0.11887734 -0.14031605
000340 34 b5 0d bd 98 9e eb 3e da e7 00 3d 53 4d 88 bd
       -0.034596637 0.46019435 0.03147111 -0.066553734
000350 62 fe 31 be 83 58 d3 bd c7 86 c0 3d 79 4b a0 be
       -0.17382196 -0.10319617 0.09400707 -0.3130758
000360 81 5b af 3d db 77 52 3e cd 57 9f bd 65 9a 95 be
       0.08562375 0.20553534 -0.077804185 -0.29219356
000370 0a 86 6c 3e 0f 26 8d be 5b 80 ef bd 3b 66 2b bd
       0.23098007 -0.275681 -0.11694404 -0.04184554
000380 c4 64 81 3e b6 0d 5f 3e 3f b9 15 3e ee b6 87 3d
       0.2527219 0.21782574 0.14621447 0.06626688
000390 80 fb 12 be d1 84 c4 bd 8b 0a 26 bd fc 43 1f 3d
       -0.14353752 -0.09595645 -0.0405374 0.038883194
0003a0 a5 73 76 3e 28 36 c4 bd c7 10 c7 bd fb a6 44 3e
       0.24067552 -0.09580642 -0.09719997 0.19204323
0003b0 cf fb 8b be 0f fa 41 bd a7 f6 c4 be 4b f8 ae be
       -0.27340552 -0.047357615 -0.3846943 -0.34173808
0003c0 b9 c2 0e 3e b9 09 d2 bd 97 70 89 3d bb 2e ca bd
       0.13941468 -0.10255761 0.06710928 -0.098721944
0003d0 81 65 66 be 25 b4 96 bd ea f5 49 bd 3c b1 06 3e
       -0.22499658 -0.073585786 -0.049306788 0.13153547
0003e0 16 ed 4d 3d 7f bf 3e 3d e1 08 98 be dc fa b0 bc
       0.05027493 0.046569344 -0.29694274 -0.021603994
0003f0 86 66 00 3d 3a 32 83 bd a2 64 9b bd b5 4b 86 3c
       0.031347774 -0.06406064 -0.075875536 0.016393522

base.mlp.fc1.0.bias f4 [64]
000000 00 00 00 00 00 00 00 00 88 04 a1 38 bc ee 8d 3a
       0.0 0.0 7.677922e-05 0.0010828595
000010 d2 fe 4c ba 05 c1 58 3a 32 26 25 bb 70 8c 5f 3b
       -0.00078199536 0.0008268508 -0.0025199768 0.0034110807
000020 75 22 0c ba 00 00 00 00 aa 89 89 bb 00 00 00 00
       -0.00053457107 0.0 -0.004197319 0.0
000030 00 00 00 00 00 00 00 00 00 00 00 00 00 00 00 00
       0.0 0.0 0.0 0.0
000040 00 00 00 00 f5 03 80 ba 00 00 00 00 00 00 00 00
       0.0 -0.0009766804 0.0 0.0
000050 e7 94 1e 3b b2 ec cc 3b cd 90 a5 ba 00 00 00 00
       0.002419764 0.006253802 -0.0012631655 0.0
000060 00 00 00 00 f8 d2 e2 bb 00 00 00 00 0d 26 92 b8
       0.0 -0.006922122 0.0 -6.96891e-05
000070 00 00 00 00 00 00 00 00 6c 61 03 38 53 64 96 3a
       0.0 0.0 3.1323565e-05 0.0011473991
000080 00 00 00 00 00 00 00 00 00 00 00 00 00 00 00 00
       0.0 0.0 0.0 0.0
000090 69 9d 57 3a 00 00 00 00 07 3f ff 3b 00 00 00 00
       0.0008225055 0.0 0.007789496 0.0
0000a0 92 7e 92 3a 63 3d 94 39 c2 fa 60 bb 00 00 00 00
       0.0011176637 0.00028274496 -0.003432915 0.0
0000b0 00 00 00 00 00 00 00 00 00 00 00 00 00 00 00 00
       0.0 0.0 0.0 0.0
0000c0 3e bb 37 ba 41 3c be ba 52 ff 91 3a 00 00 00 00
       -0.0007008797 -0.0014513807 0.0011138713 0.0
0000d0 dd bd a6 ba 00 00 00 00 b8 7b 28 3b b2 c5 20 bb
       -0.0012721379 0.0 0.0025708508 -0.0024531898
0000e0 6c 6b 1c bb 00 00 00 00 00 00 00 00 00 00 00 00
       -0.002386774 0.0 0.0 0.0
0000f0 00 00 00 00 a2 c5 a4 3a a8 67 b2 38 7d d2 cb b9
       0.0 0.0012571106 8.507009e-05 -0.00038876003

base.mlp.fc1.2.weight f4 [64]
000000 7b 0c 80 3f c2 1f 81 3f 34 a9 7f 3f 75 13 80 3f
       1.0003809 1.0087817 0.9986756 1.0005938
000010 36 d4 7e 3f 9a ed 7f 3f 7e 3f 7f 3f 42 2f 80 3f
       0.9954256 0.99971926 0.99706256 1.0014422
000020 1b ce 7f 3f 7c 82 7d 3f ac 74 80 3f ac 23 80 3f
       0.99923867 0.9902723 1.0035605 1.0010886
000030 26 13 80 3f 81 35 7e 3f 16 d9 7f 3f 30 21 80 3f
       1.0005844 0.9930039 0.9994062 1.0010128
000040 4a ed 7f 3f b0 ae 7f 3f d8 49 7f 3f 97 09 80 3f
       0.9997145 0.99875927 0.9972205 1.0002927
000050 61 39 80 3f 27 b3 80 3f c0 72 7f 3f e4 01 80 3f
       1.0017511 1.0054673 0.9978447 1.0000577
000060 9a ae 7f 3f a5 3c 7e 3f f9 a6 7f 3f 69 b1 7f 3f
       0.99875796 0.99311286 0.99864155 0.9988008
000070 0f c3 7f 3f 7d 28 80 3f 49 c8 7f 3f ad 47 7f 3f
       0.9990701 1.0012356 0.99914986 0.99718744
000080 6f 27 80 3f 20 0f 80 3f d9 0f 80 3f f5 f1 7f 3f
       1.0012034 1.0004616 1.0004836 0.9997857
000090 09 02 80 3f 3b a7 7d 3f 40 cf 80 3f 09 07 80 3f
       1.0000621 0.990833 1.0063248 1.0002147
0000a0 62 08 80 3f b7 80 7f 3f c1 1b 80 3f 74 03 80 3f
       1.0002558 0.9980578 1.000847 1.0001054
0000b0 eb 32 80 3f db 19 80 3f 3d f7 7f 3f ed d1 7f 3f
       1.0015539 1.000789 0.9998663 0.99929696
0000c0 c7 bd 7f 3f e5 27 7f 3f 23 13 80 3f 4a ac 7f 3f
       0.9989895 0.9967025 1.000584 0.9987227
0000d0 27 a8 7f 3f 05 4f 80 3f a8 49 80 3f ad 2b 7f 3f
       0.99865955 1.0024115 1.0022478 0.9967602
0000e0 79 2f 80 3f c0 5d 80 3f ed 8b 7f 3f 7b e9 7f 3f
       1.0014488 1.002861 0.99822885 0.9996564
0000f0 b9 1d 80 3f 62 20 80 3f 2f f9 7f 3f 66 59 7f 3f
       1.0009071 1.0009882 0.999896 0.99745786

base.mlp.fc1.2.bias f4 [64]
000000 40 a8 c9 b9 fa 65 10 bc ca d4 f5 38 80 94 9c 3a
       -0.00038463064 -0.008813376 0.000117221454 0.0011946112
000010 cb 90 4a ba 91 2d 6c 3a 15 9b 20 bb 17 92 6d 3b
       -0.00077272643 0.00090094755 -0.0024506499 0.0036250406
000020 31 9f 08 ba 0b 4f 1f 3c 9e a8 86 bb c7 6f 8e ba
       -0.00052117096 0.009723435 -0.004109456 -0.0010867052
000030 ab 6d 18 ba a1 f5 e5 3b ac 56 1b 3a 68 89 84 ba
       -0.00058146816 0.0070178066 0.0005925696 -0.0010111751
000040 82 52 94 39 ea 13 7d ba 69 b6 35 3b 4b 66 98 b9
       0.00028290233 -0.00096541515 0.0027727133 -0.00029067913
000050 71 f8 25 3b 89 8f b4 3b 86 62 a6 ba 78 a2 80 b8
       0.0025325085 0.005510275 -0.0012694157 -6.133778e-05
000060 ed dc a2 3a 91 58 d3 bb dd c0 b1 3a 8b 84 65 b9
       0.001242546 -0.006449767 0.0013561506 -0.00021888518
000070 c5 66 73 3a 97 af a1 ba 70 81 6a b7 50 49 88 3a
       0.0009285028 -0.0012335655 -1.3977624e-05 0.0010397825
000080 c1 64 9e ba d2 89 f0 b9 e1 5d 02 ba 79 ac 64 39
       -0.001208447 -0.0004587905 -0.00049730955 0.00021808025
000090 06 ac 68 3a f7 0a 16 3c 3d 27 d8 3b 96 ec 63 b9
       0.0008875731 0.009157888 0.0065964744 -0.00021736542
0000a0 35 24 9c 3a 82 60 ad 39 10 40 87 ba 3b e6 d2 b8
       0.0011912646 0.00033069035 -0.0010318775 -0.00010056464
0000b0 75 b5 cb ba 55 3d 4e ba 76 16 0d 39 7a 74 37 3a
       -0.0015541749 -0.00078674156 0.00013455175 0.00069982524
0000c0 be aa 39 ba 7a f0 bf ba 1e 71 9c 3a 87 2a a7 3a
       -0.00070826325 -0.0014643811 0.0011935567 0.0012753763
0000d0 ef bc 96 ba 49 38 1e bb dd 6b 2f 3b 7f 8a 1c bb
       -0.0011500398 -0.0024142435 0.0026767172 -0.002388626
0000e0 20 1d 1d bb 3f d8 3b bb 81 1d e8 3a 93 e3 b2 39
       -0.0023973659 -0.0028662828 0.0017708988 0.00034120362
0000f0 ca 4a 6d ba b4 64 9e 3a fe 00 3b 39 e1 cd bd b9
       -0.0009051977 0.0012084455 0.0001783408 -0.0003620228

base.mlp.fc_h.0.weight f4 [64, 64]
000000 75 39 8e bd d4 ee bd bd 0d 82 d7 bd 20 87 d6 b8
       -0.06944553 -0.092740685 -0.10522852 -0.00010229484
000010 ac db 1b 3e a9 f0 d1 3d 67 91 02 3e e3 c7 7b be
       0.15220517 0.102509804 0.12750779 -0.2458797
000020 24 4f 85 3e 6e 3d 19 be 4e ee d6 3d 83 d4 47 3e
       0.26036942 -0.1496484 0.10494672 0.1951466
000030 76 23 0d be 14 4d 40 be 96 46 61 be 03 16 89 3d
       -0.13783059 -0.18779403 -0.21999583 0.066936515
000040 81 52 e9 3d dd 9f 39 3b c1 6d ec bc cd a0 09 be
       0.113926895 0.0028324046 -0.028860928 -0.13440247
000050 3d c8 91 be 01 73 f8 3c 51 86 62 be b2 07 c7 3e
       -0.28473082 0.030328276 -0.2212155 0.3887306
000060 96 f3 95 bd 38 b6 8e 3e 5a ee 02 3f 0b 42 fb bd
       -0.07321851 0.27873397 0.51144946 -0.12268456
000070 e3 a8 c4 3d a0 c3 ee be fd 9f 6d 3e e9 ff 43 3e
       0.09602525 -0.46633625 0.23205562 0.1914059
000080 3a 29 71 3e a0 95 08 be 18 c5 22 be f6 4b 11 3e
       0.23550883 -0.13338327 -0.15895498 0.14189133
000090 82 43 65 3e 1b 28 39 be a4 9b a7 3c 05 24 8c 3d
       0.22389033 -0.18081705 0.020459957 0.06842808
0000a0 a1 77 8c bd 08 14 c6 3e 6e 12 73 3d 24 94 f6 3d
       -0.06858755 0.38687158 0.059343748 0.12039974
0000b0 2b a9 85 3c eb ed 90 3e 3d 68 82 bd a5 d0 02 3e
       0.016316017 0.28306517 -0.06367538 0.12774904
0000c0 93 d7 00 bc 65 49 6a be fc b9 06 3d ae b7 17 3e
       -0.007863897 -0.2287956 0.032892212 0.14816162
0000d0 69 3b a8 bc fb 68 32 bd d8 8c 3e bc e1 63 9d bd
       -0.020536141 -0.04355715 -0.011630259 -0.07685066
0000e0 4b 37 b7 bc d0 b8 15 be bb 1c 8f bd 18 20 1e bd
       -0.022365233 -0.14621282 -0.06987902 -0.038604826
0000f0 08 ee 19 be 10 29 34 3d ba 6d c8 3d 8e 4b 37 bd
       -0.15032208 0.043984473 0.09786554 -0.04474979
000100 d6 49 8b 3e 8e 90 b8 bd 54 b1 eb bc 47 23 2f 3e
       0.2720477 -0.090119466 -0.02877108 0.17103301
000110 41 96 19 be d3 4e 16 be 49 3a 4a 3e bf fb 60 be
       -0.14998724 -0.14678507 0.19748797 -0.21971034
000120 1d 1e c6 3e dc 51 a6 bc f4 94 8c bd 92 3d 7e bd
       0.3869485 -0.020302705 -0.06864348 -0.062070437
000130 db fe 2e 3d f3 8c 8a be 5b 1f c3 3c e3 67 4f 3e
       0.042723518 -0.2706066 0.023818662 0.20254473
000140 98 a1 45 3e 01 ec 86 bc 33 33 ee 3d c7 5f bc bd
       0.19299924 -0.016469957 0.11630859 -0.091979556
000150 de 36 37 be a1 16 9c 3e 64 5a 97 3d 21 99 6c bd
       -0.17892024 0.30486014 0.073902875 -0.057763223
000160 ad 28 3c 3e f8 7e 9f be 8a cc a7 bd 65 a9 9b be
       0.18374892 -0.31151557 -0.081933096 -0.30402675
000170 72 e4 88 bd 37 a2 e5 bd 52 42 84 be 74 85 85 bd
       -0.066841975 -0.11212581 -0.25831848 -0.06519595
000180 fe db 0d be 5a 07 8e 3e 6f b3 b1 bd ad 2b 8d 3d
       -0.13853452 0.27739984 -0.08676802 0.06893096
000190 ee b8 b5 bd 21 a7 84 bc d1 dd 78 bd 82 6f cb bc
       -0.08873163 -0.016192975 -0.060758416 -0.024833445
0001a0 f7 01 a8 3d 88 d6 ec bd b4 f9 1a be f0 2e 03 3e
       0.082035 -0.11564356 -0.15134317 0.12810874
0001b0 6d 3a fa be 95 ca 0e 3e 7c ac ed bc b7 1e 5e bd
       -0.488727 0.13944466 -0.029012911 -0.05422851
0001c0 4f ce 37 be 92 9c 35 3d 5c 2b ae be cd f5 2b 3e
       -0.17949794 0.04433877 -0.34017456 0.16792984
0001d0 eb 46 da bd 24 f3 90 be d3 95 51 bc 0c cc b1 3b
       -0.10658058 -0.28310502 -0.0127920685 0.0054259356
0001e0 47 49 eb bd 9a 63 73 3e c1 13 61 be 89 32 1f 3d
       -0.11488586 0.23768464 -0.21980192 0.038866553
0001f0 c6 5b fd bd 81 dc e9 3d b2 0b 71 be f9 f0 6e 3e
       -0.1237102 0.11419011 -0.23539618 0.23334111
000200 be 4c cd bc c7 0e c8 3e aa 90 9d bb 86 11 3a be
       -0.025061008 0.39073774 -0.004808505 -0.18170747
000210 05 a5 36 be d4 42 7e bd ac 4f b8 bd a2 49 95 be
       -0.17836387 -0.06207545 -0.08999571 -0.2915774
000220 d4 0c 39 be 8b da 1a be 1e 12 6c bd 3c 25 4b 3e
       -0.180713 -0.1512243 -0.057634465 0.19838423
000230 5c 7f bc be 9e 08 ae 3d 52 17 90 3d dc 39 b7 3c
       -0.36815917 0.08497737 0.07035698 0.022366457
000240 57 af 6d 3d 6b 49 21 3d d9 b2 64 bd 68 b3 8a bd
       0.058028545 0.039376657 -0.055834625 -0.067725
000250 e9 1c e2 bd 64 97 96 3e db 8f 0a bd 39 82 5a be
       -0.110406704 0.29412377 -0.033828598 -0.21338739
000260 b1 f4 63 bc 79 a2 87 3d 3d ac 7f be 2e 7e 27 3e
       -0.013913319 0.06622786 -0.24968047 0.16356727
000270 6f 08 af bd 84 23 1f be 0a 49 51 be 36 89 23 3e
       -0.085465305 -0.15540892 -0.20438018 0.1597031
000280 5c 24 9a 3d 21 af 1a 3d 38 24 67 3e 3e b9 be 3e
       0.07526466 0.037764672 0.2257241 0.37250704
000290 a9 b9 78 bd 07 35 10 3d 61 e3 c4 3e 9c fb a2 bd
       -0.060723934 0.03520682 0.38454726 -0.07958147
0002a0 ae 7a 07 3e a9 7c ca 3d d7 5e 85 be 31 9f 74 be
       0.13230392 0.09887058 -0.2604892 -0.23888852
0002b0 aa 90 44 be a2 3e 08 3e 58 72 fc bc 27 87 d1 3e
       -0.1919581 0.13305143 -0.030816242 0.40923426
0002c0 ca 64 c5 bd 97 72 a9 3b d0 34 8e be d3 27 44 be
       -0.096383646 0.005171131 -0.27774668 -0.19155817
0002d0 ba be ba bd 15 1b 62 3e 1e 74 d0 3d 10 a4 7c be
       -0.091184095 0.22080643 0.101783976 -0.2467196
0002e0 81 a0 06 3e df 4a 12 be 6b 88 e5 3d af 72 4f bd
       0.13147165 -0.14286374 0.1120766 -0.05064648
0002f0 c4 0d c3 3d 9d d8 bf bc f4 02 33 3e a9 c3 e4 bd
       0.0952411 -0.023418719 0.17481595 -0.11170132
000300 6c 85 d9 be bb 0b 3f 3e 11 92 f4 3d 9e 43 1f 3e
       -0.42484605 0.18656819 0.119419225 0.15553138
000310 a9 dc 60 be fb a0 e6 3d a4 69 4b 3d 98 78 07 be
       -0.21959175 0.11261173 0.049661294 -0.13229597
000320 c4 d1 e9 3b 7f 1c 45 3e 09 5c b7 3e 9c f3 95 bd
       0.0071356017 0.19249152 0.35812405 -0.073218554
000330 c7 b4 72 be 45 8c 77 3d f0 a2 20 3d f8 e6 82 3d
       -0.23701774 0.060436506 0.03921789 0.0639171
000340 a4 97 8d be c7 93 a7 bd 1b c2 56 3e 4e c8 ca 3d
       -0.27654755 -0.08182483 0.20972483 0.09901486
000350 8b 00 ff 3d 32 02 28 bd bf 08 38 3e 15 4c a7 bd
       0.124512754 -0.04101772 0.17972086 -0.08168808
000360 06 e1 40 be 70 91 86 be 85 9d e5 bc 84 58 75 3e
       -0.1883584 -0.26282835 -0.028029213 0.23959547
000370 8c d4 50 3e 9e 99 be bd b3 cd 09 3e 54 1a a4 3e
       0.2039358 -0.09306644 0.13457374 0.32051337
000380 27 e0 0c 3e 93 d5 a7 bb b8 70 36 3d 73 78 f0 ba
       0.13757382 -0.0051218956 0.04454109 -0.0018346444
000390 b5 a6 c9 bd 42 61 1f 3e fb a3 21 be 78 df 2e be
       -0.0984625 0.15564445 -0.1578521 -0.17077434
0003a0 81 b4 8a 3d 58 6b 23 3e d2 81 23 3d fb 9f 0c 3e
       0.0677271 0.15958917 0.03991873 0.13732903
0003b0 e9 14 64 be 5f 37 77 be 69 be e4 bd a3 36 bf bd
       -0.22273602 -0.24142216 -0.1116913 -0.09336593
0003c0 2f 02 7d 3e bd 70 96 bd 65 3a 69 3c d2 bf b7 3e
       0.24707864 -0.07345722 0.014235114 0.35888535
0003d0 b1 44 7f be 54 2b 67 3e 9e f4 07 be 2b 31 58 be
       -0.24928547 0.22575122 -0.13276908 -0.21112506
0003e0 03 cc b7 bc b4 07 1d 3c 2f 49 be be de c9 3b 3e
       -0.022436148 0.009584356 -0.3716521 0.18338725
0003f0 30 83 5a be 1e 19 c6 3c 37 c8 d8 bd 6a ff eb 3d
       -0.21339107 0.024181899 -0.10585063 0.11523326

base.mlp.fc_h.0.bias f4 [64]
000000 00 00 00 00 00 00 00 00 00 00 00 00 00 00 00 00
       0.0 0.0 0.0 0.0
000010 00 00 00 00 00 00 00 00 00 00 00 00 00 00 00 00
       0.0 0.0 0.0 0.0
000020 00 00 00 00 00 00 00 00 00 00 00 00 00 00 00 00
       0.0 0.0 0.0 0.0
000030 00 00 00 00 00 00 00 00 00 00 00 00 00 00 00 00
       0.0 0.0 0.0 0.0
000040 00 00 00 00 00 00 00 00 00 00 00 00 00 00 00 00
       0.0 0.0 0.0 0.0
000050 00 00 00 00 00 00 00 00 00 00 00 00 00 00 00 00
       0.0 0.0 0.0 0.0
000060 00 00 00 00 00 00 00 00 00 00 00 00 00 00 00 00
       0.0 0.0 0.0 0.0
000070 00 00 00 00 00 00 00 00 00 00 00 00 00 00 00 00
       0.0 0.0 0.0 0.0
000080 00 00 00 00 00 00 00 00 00 00 00 00 00 00 00 00
       0.0 0.0 0.0 0.0
000090 00 00 00 00 00 00 00 00 00 00 00 00 00 00 00 00
       0.0 0.0 0.0 0.0
0000a0 00 00 00 00 00 00 00 00 00 00 00 00 00 00 00 00
       0.0 0.0 0.0 0.0
0000b0 00 00 00 00 00 00 00 00 00 00 00 00 00 00 00 00
       0.0 0.0 0.0 0.0
0000c0 00 00 00 00 00 00 00 00 00 00 00 00 00 00 00 00
       0.0 0.0 0.0 0.0
0000d0 00 00 00 00 00 00 00 00 00 00 00 00 00 00 00 00
       0.0 0.0 0.0 0.0
0000e0 00 00 00 00 00 00 00 00 00 00 00 00 00 00 00 00
       0.0 0.0 0.0 0.0
0000f0 00 00 00 00 00 00 00 00 00 00 00 00 00 00 00 00
       0.0 0.0 0.0 0.0

base.mlp.fc_h.2.weight f4 [64]
000000 00 00 80 3f 00 00 80 3f 00 00 80 3f 00 00 80 3f
       1.0 1.0 1.0 1.0
000010 00 00 80 3f 00 00 80 3f 00 00 80 3f 00 00 80 3f
       1.0 1.0 1.0 1.0
000020 00 00 80 3f 00 00 80 3f 00 00 80 3f 00 00 80 3f
       1.0 1.0 1.0 1.0
000030 00 00 80 3f 00 00 80 3f 00 00 80 3f 00 00 80 3f
       1.0 1.0 1.0 1.0
000040 00 00 80 3f 00 00 80 3f 00 00 80 3f 00 00 80 3f
       1.0 1.0 1.0 1.0
000050 00 00 80 3f 00 00 80 3f 00 00 80 3f 00 00 80 3f
       1.0 1.0 1.0 1.0
000060 00 00 80 3f 00 00 80 3f 00 00 80 3f 00 00 80 3f
       1.0 1.0 1.0 1.0
000070 00 00 80 3f 00 00 80 3f 00 00 80 3f 00 00 80 3f
       1.0 1.0 1.0 1.0
000080 00 00 80 3f 00 00 80 3f 00 00 80 3f 00 00 80 3f
       1.0 1.0 1.0 1.0
000090 00 00 80 3f 00 00 80 3f 00 00 80 3f 00 00 80 3f
       1.0 1.0 1.0 1.0
0000a0 00 00 80 3f 00 00 80 3f 00 00 80 3f 00 00 80 3f
       1.0 1.0 1.0 1.0
0000b0 00 00 80 3f 00 00 80 3f 00 00 80 3f 00 00 80 3f
       1.0 1.0 1.0 1.0
0000c0 00 00 80 3f 00 00 80 3f 00 00 80 3f 00 00 80 3f
       1.0 1.0 1.0 1.0
0000d0 00 00 80 3f 00 00 80 3f 00 00 80 3f 00 00 80 3f
       1.0 1.0 1.0 1.0
0000e0 00 00 80 3f 00 00 80 3f 00 00 80 3f 00 00 80 3f
       1.0 1.0 1.0 1.0
0000f0 00 00 80 3f 00 00 80 3f 00 00 80 3f 00 00 80 3f
       1.0 1.0 1.0 1.0

base.mlp.fc_h.2.bias f4 [64]
000000 00 00 00 00 00 00 00 00 00 00 00 00 00 00 00 00
       0.0 0.0 0.0 0.0
000010 00 00 00 00 00 00 00 00 00 00 00 00 00 00 00 00
       0.0 0.0 0.0 0.0
000020 00 00 00 00 00 00 00 00 00 00 00 00 00 00 00 00
       0.0 0.0 0.0 0.0
000030 00 00 00 00 00 00 00 00 00 00 00 00 00 00 00 00
       0.0 0.0 0.0 0.0
000040 00 00 00 00 00 00 00 00 00 00 00 00 00 00 00 00
       0.0 0.0 0.0 0.0
000050 00 00 00 00 00 00 00 00 00 00 00 00 00 00 00 00
       0.0 0.0 0.0 0.0
000060 00 00 00 00 00 00 00 00 00 00 00 00 00 00 00 00
       0.0 0.0 0.0 0.0
000070 00 00 00 00 00 00 00 00 00 00 00 00 00 00 00 00
       0.0 0.0 0.0 0.0
000080 00 00 00 00 00 00 00 00 00 00 00 00 00 00 00 00
       0.0 0.0 0.0 0.0
000090 00 00 00 00 00 00 00 00 00 00 00 00 00 00 00 00
       0.0 0.0 0.0 0.0
0000a0 00 00 00 00 00 00 00 00 00 00 00 00 00 00 00 00
       0.0 0.0 0.0 0.0
0000b0 00 00 00 00 00 00 00 00 00 00 00 00 00 00 00 00
       0.0 0.0 0.0 0.0
0000c0 00 00 00 00 00 00 00 00 00 00 00 00 00 00 00 00
       0.0 0.0 0.0 0.0
0000d0 00 00 00 00 00 00 00 00 00 00 00 00 00 00 00 00
       0.0 0.0 0.0 0.0
0000e0 00 00 00 00 00 00 00 00 00 00 00 00 00 00 00 00
       0.0 0.0 0.0 0.0
0000f0 00 00 00 00 00 00 00 00 00 00 00 00 00 00 00 00
       0.0 0.0 0.0 0.0

base.mlp.fc2.0.0.weight f4 [64, 64]
000000 5a 90 8f bd 29 24 bf bd 6b 4e d9 bd df e5 f2 b8
       -0.07009955 -0.09333069 -0.1061066 -0.00011582276
000010 38 6f 18 3e e1 b9 d0 3d 56 d0 03 3e f8 69 7d be
       0.14886177 0.101917036 0.12872443 -0.24747455
000020 2b c1 85 3e ca e2 19 be f8 56 d7 3d 6e 3c 47 3e
       0.26123938 -0.1502792 0.10514635 0.19456646
000030 f7 ba 0d be bd f7 40 be 3c f2 61 be 66 e6 87 3d
       -0.13840853 -0.18844505 -0.22065061 0.06635742
000040 81 fb e7 3d 26 08 76 3b e4 94 f1 bc 8e 38 0a be
       0.113272674 0.0037541478 -0.029489942 -0.13498136
000050 8b ef 91 be 29 28 fe 3c c1 e7 60 be ed b1 c6 3e
       -0.2850307 0.03102501 -0.21963407 0.38807622
000060 c5 22 97 bd 65 18 91 3e 8d c3 02 3f 7a 41 f9 bd
       -0.07379679 0.28338924 0.51079637 -0.12170692
000070 07 52 c3 3d a3 0f ef be d7 1f 6f 3e 2d 30 45 3e
       0.0953713 -0.46691617 0.2335199 0.19256659
000080 4e 92 70 3e 73 2d 09 be a6 6f 23 be 10 b4 10 3e
       0.23493311 -0.13396244 -0.15960559 0.14131188
000090 7b 01 65 3e 63 ca 39 be ab a1 ae 3c c3 cc 8a 3d
       0.22363846 -0.1814361 0.021317324 0.067773364
0000a0 2d 3a 8d bd 39 35 c5 3e 71 71 71 3d 3c 64 f5 3d
       -0.06895862 0.38517168 0.058946077 0.11982009
0000b0 78 eb 80 3c e1 a1 90 3e 8a bf 83 bd 32 25 02 3e
       0.01573728 0.28248504 -0.064330176 0.12709501
0000c0 a7 9d e2 bb 84 87 67 be 20 8c 06 3d 31 0c 17 3e
       -0.0069157663 -0.22610289 0.032848477 0.14750744
0000d0 14 a9 a1 bc f3 16 35 bd 81 e1 3c bc 1a e3 99 bd
       -0.019733943 -0.04421134 -0.011528374 -0.07514019
0000e0 13 5b b3 bc 54 64 16 be 22 73 90 bd 6e ce 20 bd
       -0.021894014 -0.1468671 -0.0705321 -0.039259367
0000f0 ea 85 1a be fd a4 37 3d e5 14 c9 3d 3b ae 3d bd
       -0.15090147 0.04483508 0.098184384 -0.046308737
000100 90 7a 8b 3e 8c ef b7 bd d8 25 e2 bc cd 71 2f 3e
       0.27241945 -0.08981237 -0.027605936 0.17133255
000110 ff e0 15 be 07 68 15 be d7 43 49 3e 7d 0a 5f be
       -0.1463661 -0.14590465 0.19654785 -0.21781345
000120 ec d0 c5 3e 96 75 a3 bc 01 96 8d bd 82 05 7d bd
       0.38635957 -0.01995353 -0.069133766 -0.06177283
000130 95 34 30 3d 8c 5c 8a be 0d 2d c6 3c 9f b5 4f 3e
       0.043018896 -0.27023733 0.024191404 0.20284127
000140 25 03 46 3e 29 2d 8c bc 26 e9 ee 3d 68 c4 bb bd
       0.19337137 -0.017111378 0.11665563 -0.09168321
000150 7f 9c 36 be 63 e0 9b 3e 54 ad 94 3d b6 12 6b bd
       -0.17833136 0.3044463 0.07259622 -0.05739089
000160 3a 76 3c 3e fa d1 a1 be dc 09 a7 bd 92 4f 9c be
       0.18404475 -0.31605512 -0.081561774 -0.30529457
000170 81 21 88 bd 45 06 e5 bd e0 dd 84 be 08 7b 88 bd
       -0.06647015 -0.111828364 -0.25950527 -0.06664091
000180 25 8f 0d be 39 2e 8e 3e 40 f2 b0 bd 65 c7 8d 3d
       -0.13824137 0.2776964 -0.086399555 0.06922797
000190 8f 9e b4 bd a5 e3 81 bc 4b 37 7b bd 45 62 c8 bc
       -0.08819305 -0.01585562 -0.06133203 -0.024460921
0001a0 43 5b a9 3d 6c c4 e8 bd bf dc 1a be d4 7c 03 3e
       0.0826936 -0.113655895 -0.1512327 0.12840587
0001b0 96 13 fa be 9c 18 0f 3e ff 9e ea bc af 98 5c bd
       -0.48843068 0.13974231 -0.028640268 -0.053856548
0001c0 66 7d 38 be 7f a7 2b 3d 20 00 ae be 5c 57 2c 3e
       -0.18016586 0.041907784 -0.3398447 0.168302
0001d0 66 58 db bd 63 c2 90 be 29 90 4e bc 12 9b 82 3b
       -0.1071022 -0.28273305 -0.012607613 0.003985771
0001e0 e5 d7 ec bd 22 c5 73 3e 82 b2 60 be 04 b9 20 3d
       -0.11564616 0.23805669 -0.21943095 0.039238945
0001f0 1e c0 fc bd 33 b2 e8 3d d3 14 71 be c0 d4 70 3e
       -0.12341331 0.11362114 -0.235431 0.23518658
000200 6b 01 c9 bc 26 4b c8 3e 2c 25 7b bb b9 ef 39 be
       -0.024536809 0.39119834 -0.0038321717 -0.18157853
000210 b7 2f 33 be 7c 6a 7b bd 01 82 ba bd e4 61 94 be
       -0.1749867 -0.06138085 -0.091068275 -0.28980935
000220 fe cc 39 be 79 56 1a be b0 6a 6d bd bf 9b 4b 3e
       -0.18144605 -0.15072049 -0.057963073 0.19883631
000230 62 44 bc be 39 1a af 3d 96 2a 91 3d f4 eb ba 3c
       -0.36770922 0.085499234 0.07088201 0.02281759
000240 40 d5 6f 3d c6 12 1e 3d b3 a4 62 bd f8 c6 89 bd
       0.05855298 0.038592122 -0.05533285 -0.067274034
000250 87 42 e1 bd 15 4d 96 3e d7 68 10 bd ad f8 59 be
       -0.10999017 0.29355684 -0.035256233 -0.21286269
000260 13 93 5c bc fe 08 7d 3d f2 22 7f be 31 5f 26 3e
       -0.0134628 0.061776154 -0.24915674 0.1624725
000270 94 f5 ad bd 14 ad 1e be bb a0 52 be ed 44 22 3e
       -0.08494106 -0.15495712 -0.20569126 0.15846606
000280 54 0f 9b 3d 38 88 1c 3d db ac 67 3e 6d f4 be 3e
       0.07571283 0.038215846 0.22624533 0.37295857
000290 f3 3c 77 bd 34 39 12 3d 53 85 c4 3e 7b e8 a1 bd
       -0.06036086 0.035699084 0.38382968 -0.0790567
0002a0 98 f8 07 3e 62 20 ce 3d 55 3c 85 be cc 28 74 be
       0.13278425 0.1006477 -0.26022592 -0.23843688
0002b0 7d 1a 44 be 31 b5 08 3e a0 25 f8 bc e0 cb d1 3e
       -0.1915073 0.13350369 -0.030291378 0.40975857
0002c0 be 0d c7 bd 66 81 2e 3b d1 1f 8e be 5c 9e 43 be
       -0.09719418 0.002662742 -0.2775865 -0.19103378
0002d0 b9 1f bc bd 84 a4 62 3e 1d 7e d0 3d a3 3c 7e be
       -0.09185738 0.2213307 0.10180304 -0.24827819
0002e0 88 07 06 3e 6a c1 11 be da 9a e6 3d 75 4c 4d bd
       0.1308881 -0.14233938 0.11260004 -0.050121743
0002f0 78 fa c3 3d c1 b2 c5 bc 78 cf 32 3e 81 6c e1 bd
       0.095692575 -0.024133088 0.17461956 -0.110070236
000300 6c 85 d9 be bb 0b 3f 3e 11 92 f4 3d 9e 43 1f 3e
       -0.42484605 0.18656819 0.119419225 0.15553138
000310 a9 dc 60 be fb a0 e6 3d a4 69 4b 3d 98 78 07 be
       -0.21959175 0.11261173 0.049661294 -0.13229597
000320 c4 d1 e9 3b 7f 1c 45 3e 09 5c b7 3e 9c f3 95 bd
       0.0071356017 0.19249152 0.35812405 -0.073218554
000330 c7 b4 72 be 45 8c 77 3d f0 a2 20 3d f8 e6 82 3d
       -0.23701774 0.060436506 0.03921789 0.0639171
000340 a4 97 8d be c7 93 a7 bd 1b c2 56 3e 4e c8 ca 3d
       -0.27654755 -0.08182483 0.20972483 0.09901486
000350 8b 00 ff 3d 32 02 28 bd bf 08 38 3e 15 4c a7 bd
       0.124512754 -0.04101772 0.17972086 -0.08168808
000360 06 e1 40 be 70 91 86 be 85 9d e5 bc 84 58 75 3e
       -0.1883584 -0.26282835 -0.028029213 0.23959547
000370 8c d4 50 3e 9e 99 be bd b3 cd 09 3e 54 1a a4 3e
       0.2039358 -0.09306644 0.13457374 0.32051337
000380 27 e0 0c 3e 93 d5 a7 bb b8 70 36 3d 73 78 f0 ba
       0.13757382 -0.0051218956 0.04454109 -0.0018346444
000390 b5 a6 c9 bd 42 61 1f 3e fb a3 21 be 78 df 2e be
       -0.0984625 0.15564445 -0.1578521 -0.17077434
0003a0 81 b4 8a 3d 58 6b 23 3e d2 81 23 3d fb 9f 0c 3e
       0.0677271 0.15958917 0.03991873 0.13732903
0003b0 e9 14 64 be 5f 37 77 be 69 be e4 bd a3 36 bf bd
       -0.22273602 -0.24142216 -0.1116913 -0.09336593
0003c0 2f 02 7d 3e bd 70 96 bd 65 3a 69 3c d2 bf b7 3e
       0.24707864 -0.07345722 0.014235114 0.35888535
0003d0 b1 44 7f be 54 2b 67 3e 9e f4 07 be 2b 31 58 be
       -0.24928547 0.22575122 -0.13276908 -0.21112506
0003e0 03 cc b7 bc b4 07 1d 3c 2f 49 be be de c9 3b 3e
       -0.022436148 0.009584356 -0.3716521 0.18338725
0003f0 30 83 5a be 1e 19 c6 3c 37 c8 d8 bd 6a ff eb 3d
       -0.21339107 0.024181899 -0.10585063 0.11523326

base.mlp.fc2.0.0.bias f4 [64]
000000 ff 11 21 3a 8e de ad b9 86 30 fe b9 00 00 00 00
       0.0006144344 -0.00033162948 -0.00048482808 0.0
000010 59 b7 15 ba 36 1a 0e 3a f2 98 83 39 00 00 00 00
       -0.000571122 0.0005420776 0.0002510022 0.0
000020 00 00 00 00 00 00 00 00 46 fd ef 3b 00 00 00 00
       0.0 0.0 0.0073238937 0.0
000030 53 61 39 3a 20 b5 14 ba 00 00 00 00 00 00 00 00
       0.00070716924 -0.00056727417 0.0 0.0
000040 00 00 00 00 21 d0 12 ba 00 00 00 00 00 00 00 00
       0.0 -0.00056004716 0.0 0.0
000050 c2 cf d4 bb c3 97 c4 3a 00 00 00 00 00 00 00 00
       -0.006494493 0.0014998842 0.0 0.0
000060 00 00 00 00 a5 b3 3e 3c 00 00 00 00 00 00 00 00
       0.0 0.01163951 0.0 0.0
000070 28 5a 35 b7 00 00 00 00 04 7c 9f 3a 38 df 4a 39
       -1.0809432e-05 0.0 0.0012167697 0.00019347377
000080 5c 4c 11 3a 00 00 00 00 00 00 00 00 00 00 00 00
       0.00055426895 0.0 0.0 0.0
000090 78 2b dc b9 c1 25 99 38 00 00 00 00 5f 42 06 ba
       -0.00041994057 7.302641e-05 0.0 -0.00051215844
0000a0 00 00 00 00 ec 33 89 3a 00 00 00 00 69 6d f9 3a
       0.0 0.0010467744 0.0 0.0019029799
0000b0 00 00 00 00 20 30 ad bb 00 00 00 00 b1 80 1f ba
       0.0 -0.005285278 0.0 -0.0006084545
0000c0 00 00 00 00 00 00 00 00 55 9d 30 3b 00 00 00 00
       0.0 0.0 0.0026949246 0.0
0000d0 63 57 e5 39 00 00 00 00 00 00 00 00 b2 6d 22 ba
       0.00043743392 0.0 0.0 -0.00061961554
0000e0 00 00 00 00 10 45 b9 39 00 00 00 00 00 00 00 00
       0.0 0.00035337405 0.0 0.0
0000f0 7d 90 7a bb cc 98 29 ba 00 00 00 00 00 00 00 00
       -0.0038233094 -0.0006469607 0.0 0.0

base.mlp.fc2.0.2.weight f4 [64]
000000 6e 94 7f 3f 56 d4 7e 3f 4a fa 7b 3f 59 c6 7f 3f
       0.9983586 0.9954275 0.98428786 0.9991203
000010 57 03 7e 3f c2 39 7f 3f d6 86 7f 3f 6c ae 7f 3f
       0.99223846 0.99697506 0.9981512 0.9987552
000020 2b 17 80 3f 57 0b 80 3f 0a ca 7f 3f 63 16 80 3f
       1.000707 1.0003461 0.9991766 1.0006832
000030 be 89 7f 3f 26 30 7f 3f 68 17 80 3f 59 8c 7f 3f
       0.9981955 0.99682844 1.0007143 0.9982353
000040 b4 b5 7f 3f 35 43 7b 3f 89 b5 7f 3f 03 9c 7f 3f
       0.9988663 0.98149425 0.99886376 0.9984743
000050 a4 f0 7e 3f fc ab 7f 3f b6 15 80 3f 66 a8 7f 3f
       0.9958594 0.998718 1.0006626 0.9986633
000060 43 c0 7f 3f 78 df 7f 3f 36 b6 7f 3f fe c3 7f 3f
       0.99902743 0.9995036 0.99887407 0.99908435
000070 3d 55 7f 3f 3d bf 7f 3f 24 f0 7f 3f a7 5f 7f 3f
       0.9973944 0.9990118 0.999758 0.9975533
000080 24 68 7f 3f 10 0d 80 3f 44 a4 7f 3f c6 17 80 3f
       0.9976828 1.0003986 0.99860024 1.0007255
000090 50 65 7c 3f 78 84 7e 3f 69 11 80 3f 4a cc 7d 3f
       0.9859209 0.9942088 1.0005313 0.99139845
0000a0 19 c2 7f 3f c5 5f 7f 3f b0 e4 7e 3f cc a8 7f 3f
       0.99905545 0.9975551 0.995677 0.9986694
0000b0 07 13 80 3f 5c 7d 7f 3f 69 c4 7f 3f ff 3c 7f 3f
       1.0005807 0.9980066 0.99909073 0.9970245
0000c0 dc c4 7f 3f 31 e1 7f 3f 67 a5 7f 3f 09 0f 7b 3f
       0.9990976 0.9995299 0.9986176 0.98069817
0000d0 ec 81 7d 3f be ba 7f 3f a2 c1 7f 3f 1f a0 7f 3f
       0.9902637 0.9989432 0.99904835 0.998537
0000e0 aa c5 7f 3f fe 82 7f 3f 99 14 80 3f a7 03 80 3f
       0.99910986 0.99809253 1.0006286 1.0001115
0000f0 58 c1 7f 3f ad 48 7f 3f 37 18 80 3f 33 be 7f 3f
       0.99904394 0.9972027 1.000739 0.99899596

base.mlp.fc2.0.2.bias f4 [64]
000000 bb 72 a8 39 82 cc 27 ba a4 b6 f9 b9 f7 74 04 3a
       0.00032128938 -0.00064010185 -0.0004762906 0.00050528295
000010 cc eb 02 ba 44 1e ac 39 55 4e 10 ba e3 6c 65 3a
       -0.0004994243 0.00032828946 -0.00055048364 0.0008751882
000020 1c 56 ad b9 b4 d0 0d 38 27 86 a2 ba 2c a3 a0 b9
       -0.00033061288 3.381139e-05 -0.00123996 -0.0003063915
000030 62 3a b0 39 fe da 7b b9 9a ab b1 b9 53 fb b7 3a
       0.00033612835 -0.00024018806 -0.00033887924 0.0014036692
000040 bf da 47 3a 6b 76 05 ba 91 9c 48 3a d5 27 98 3a
       0.0007623843 -0.0005091193 0.0007652725 0.001160855
000050 e8 f9 6d b9 3a e3 a0 b8 61 ea 95 b9 7e e2 7d 3a
       -0.00022695179 -7.671719e-05 -0.0002859412 0.0009684934
000060 18 03 1d 3a 89 66 30 ba 34 d8 45 3a 09 06 0e 3a
       0.0005989536 -0.0006729146 0.00075471704 0.00054177694
000070 3b 70 4a 3a 30 3a 21 3a e8 fb a7 39 ab 22 31 ba
       0.0007722412 0.0006150333 0.00032040407 -0.000675718
000080 11 a1 a9 39 70 b0 a3 b7 30 5a 87 3a e6 e4 b6 b9
       0.00032354196 -1.9513274e-05 0.0010326561 -0.00034884288
000090 ef ff fb b9 09 30 d7 38 68 6c 20 b9 6e ae d1 b9
       -0.00048065136 0.00010260946 -0.00015299174 -0.00039993547
0000a0 61 be 15 3a ee 08 41 ba c9 18 84 3b 05 6b 15 ba
       0.00057122676 -0.00073636963 0.004031275 -0.0005699846
0000b0 3f a2 54 b9 49 ca b1 b9 06 46 0c 3a 86 89 c0 b9
       -0.00020278337 -0.00033910785 0.00053510105 -0.00036723557
0000c0 e4 66 0a 3a 5a ca 60 3a 69 9c 6a ba 04 4d a3 3c
       0.0005279614 0.00085750746 -0.00089496985 0.019934185
0000d0 68 be 0b 3a d5 7f 33 3a a7 97 17 3a 50 d6 e5 36
       0.0005330802 0.00068473566 0.0005782791 6.849681e-06
0000e0 a8 57 07 3a 92 8e 0c ba 03 ba 83 b9 88 9f 8d 39
       0.0005162903 -0.0005361821 -0.00025124857 0.00027012476
0000f0 c6 a3 94 3a f6 bf 28 ba 6f 59 be b9 91 81 25 3a
       0.0011340312 -0.0006437296 -0.00036306257 0.00063135574

v_out.weight f4 [1, 64]
000000 ca 39 ed bd 19 a3 b6 3d 19 ff 6a 3d 15 3a 94 be
       -0.11583288 0.08917827 0.057372186 -0.28950563
000010 9c ba aa 3e e4 a3 f8 bd f9 42 27 3e 17 d8 1f bd
       0.33345497 -0.12140635 0.16334142 -0.03902444
000020 95 bd 0e 3e 35 af 09 3d d1 48 b4 3c 41 8c ec 3d
       0.13939507 0.033614356 0.022007378 0.11550189
000030 5e e5 12 be 05 9f 8d 3d 38 91 19 3e 11 a4 90 bc
       -0.14345309 0.06915096 0.14996803 -0.017656358
000040 f0 a7 58 bd 48 b2 8f 3d d5 b2 56 bd 56 d5 c0 bc
       -0.052894533 0.07016426 -0.05241664 -0.023539227
000050 f4 d6 8e 3d 56 92 ee bc 27 9b ce 3d 26 78 03 bd
       0.06974593 -0.029122513 0.10088187 -0.032097004
000060 ee e8 e0 bd 15 f1 98 3d ed 08 5e bd 76 f2 34 be
       -0.10981928 0.07467858 -0.05420773 -0.17670617
000070 f7 e5 56 bd 29 4f cb bd 94 f4 ff bd 18 27 93 3d
       -0.052465405 -0.09927208 -0.124978215 0.07185191
000080 5f 75 00 be 71 14 1b 3d c7 6c ea bc 41 04 29 3e
       -0.12544774 0.03786129 -0.028616322 0.16505529
000090 b1 bc 98 3c cc ef 0b bd b3 2b 62 3d 54 c5 83 3e
       0.018644663 -0.034164235 0.055217456 0.25736487
0000a0 66 b8 09 be 40 80 6e 3d 2b fc a2 bb 61 4e 0c 3e
       -0.13449249 0.058227777 -0.0049739084 0.13701774
0000b0 88 3e 88 3d bd 0c 1b 3e 90 d3 42 be c4 79 3e 3e
       0.06652552 0.15141578 -0.19026017 0.18601137
0000c0 19 3c 54 be e1 ca 45 3c 62 02 33 bc c2 9c 3c ba
       -0.2072605 0.012072296 -0.010925861 -0.00071949896
0000d0 56 95 46 be 75 a0 8f bd 84 45 02 be 0b 75 0b 3d
       -0.19392905 -0.070130266 -0.1272183 0.034047168
0000e0 21 92 78 be 42 c2 3f 3e 00 08 aa 3d 03 59 b7 3c
       -0.24274494 0.18726447 0.08302307 0.022381311
0000f0 44 4d 22 3c d2 57 a7 3d 6c 52 45 3e 99 41 b9 bd
       0.009906117 0.08171047 0.19269723 -0.09045715
