mappo_ros/onpolicy/scripts/results/drone/test_drones/mappo/check/wandb/offline-run-20230123_231441-isz4hlp6/files/actor.pt (torch_old, 41516 bytes, 16 tensors)

base.feature_norm.weight f4 [8]
00000000: 5eb1 7f3f ddf4 7e3f 8fb4 7f3f 30ac 803f
00000010: fd00 7f3f a36d 803f 181f 7f3f 55b8 803f
0.99880016 0.9959238 0.99884886 1.0052547 0.99610883 1.0033458 0.9965682 1.0056254

base.feature_norm.bias f4 [8]
00000000: e0e3 ab3a 9738 923b 18a2 7a3a 0b23 b1bb
00000010: 0be2 803b 0571 543b ced7 623b 4ffb bdbb
0.0013114177 0.0044623124 0.0009560897 -0.005405789 0.0039331964 0.0032415998 0.0034613493 -0.0057977806

base.mlp.fc1.0.weight f4 [64, 8]
00000000: 8c45 16be bbca ae3d 0bfb 423d 8e42 903d
00000010: ab9a 1fbd adf8 073e 92be 0fbe c8ac 923e
00000020: 4e64 21be c32c 033e 8556 913e b21f a9bd
00000030: 1d53 82be cdef 99be 18fe 873c 0458 5abe
00000040: e0d3 133e 60b6 63be 4eff 663e fea9 0bbd
00000050: 0264 be3d b4dd 363e 0e0e 943d eb97 d73e
00000060: 1b57 80be dcdc 283d d9b8 e1bc a21b c6be
00000070: d7f8 853e a953 83bc 9b7b 49be fde1 bdbd
00000080: 29ac 44bd f341 13bd d7bc 6d3e 1c0f 1abd
00000090: 92b9 98bd 0a1b 29be dcf9 2e3e 4755 8bbe
000000a0: 1d82 d4bd 5f62 79be 01c5 69bd 72a7 8bbd
000000b0: 25b5 33bd 2612 863e 6b93 38be 9403 4cbe
000000c0: b97c a2be bdad c6bd 20dc 57bd 0398 32be
000000d0: c521 09be 3840 6dbe e0e9 c63e b022 f93d
000000e0: e27d 2abd 377a de3e 8ed3 063e d309 e63d
000000f0: 074e d1bc 5582 803e 51b0 e33d 2b3f 553e
00000100: dc21 353e a3d0 8dbd 1cf5 823e f688 ebbd
00000110: fc53 ab3e 27fd 81bc 3d0e 7d3d d267 8d3d
00000120: 1810 973d b2fe 043e 160b a33e ea32 8bbe
00000130: 677e 7f3e a1ce 1b3e b5c6 fe3d 665e ce3e
00000140: 1be4 903d 9d57 a6be 5be9 7f3e d3c2 3d3e
00000150: 339e 933d 1abe b43e a09a 513b e479 45be
00000160: 0546 e6bd 1cbd b93e e16d e1bd dc0d f33d
00000170: a7ab 8bbd dc1a 673e 6ef1 23be 54a8 c93d
00000180: d2e7 fe3c 5c43 373e 73b6 eb3d 598d 2fbd
00000190: 123c c6bd 5248 1c3c ecc6 5dbe b749 bb3c
000001a0: 2315 0cbd 3c70 edbd 9f14 4e3e 4f31 8c3e
000001b0: ff1b 87bc f36a dc3c 52d0 8dbe cb63 e73d
000001c0: 3086 2abd 8d77 f1bc 1537 493e 4390 bc3d
000001d0: 21cf 8f3d bb96 863c 5170 06bd 2343 15bc
000001e0: c311 08be 24bc 8b3d 8d9d 8dbe e057 d4bd
000001f0: bfd9 6c3c cd8f 353e 6797 093e df69 85bc
00000200: 22fd 343e 7831 453c b4a6 ae3d f3a8 d1be
00000210: a999 3abe efd9 ddbd cf99 7dbe 9e77 b83d
00000220: bc96 b3bd 65ce 0b3e 1940 ae3e c5d3 773c
00000230: 942b 933e 927d 33be 57b4 d9bc 321c 3a3e
00000240: 262d b0be 1e6d f5bd 961a 8b3e 60b7 0f3e
00000250: 4c91 3fbe 0797 c93d 562c de3d b907 0b3d
00000260: f6b7 85bd 6939 8c3e 25b5 9fbd c371 37bd
00000270: 3514 863d bba4 5a3e 0b68 6dbe 1688 d4bd
00000280: ddcd 8a3e b0e5 c33c d820 663e 51ce 973d
00000290: b2d3 2d3d a83e c6bd 9030 133e dbb0 2d3e
000002a0: 0209 e93d 4f5c 94bd dec8 3ebe 8b33 d9bd
000002b0: 6278 a3bd 772b c33d a4a0 94be 8093 3bbe
000002c0: 940f 4f3e 1155 c53c 563d 093e 61f8 7c3e
000002d0: 8fbd 7fbe 0478 7bbe 1773 683b a85e bebd
000002e0: 4da8 553e 1575 b83d 7c14 02be 4042 d43d
000002f0: 684b 353e babb 03be 378a 133e c9d8 1abe
00000300: 2d16 24be f7dc f83b ff2e 203d f69c fa3c
00000310: b810 e33b 4b40 90be 3f6f 09bf 67db a7bd
00000320: c474 a4bd c962 783e eb75 763d e65a 2b3e
00000330: 2047 b33c 777b 6abe a9d7 553e 47f2 303d
00000340: aadd a9bd 7d29 0f3c c046 913d 118f 1dbd
00000350: d775 783e ed49 01be 09b3 84bc 1c44 3e3d
00000360: 4e44 b2bc 1d27 d0bd dcb9 b6bb 29f0 13bd
00000370: 8b17 8fbe 299c 663e 4fea 28bc cab0 343e
00000380: 7460 6b3e daba afbb 4510 a8be d31a 413d
00000390: 4592 10be 44f8 9abd 28b5 76be ed6d 413d
000003a0: d621 743d baf8 ce3e 1c37 58be 621f c53e
000003b0: 3e83 84be a6bd 0a3d c004 393e ad7b 8abe
000003c0: b4fa a1be cce7 d8bd 1254 6cbe be61 bbbd
000003d0: 83bb 413e 60b8 27be 68a5 5ebd 5b9b 523e
000003e0: 7708 03be c0d5 e23e 8bc1 223e 9b5a 913d
000003f0: 9627 8c3e f8d6 363e 5a1d 64bd 4816 2fbe
-0.14674968 0.085347615 0.047602694 0.07043944 -0.038965862 0.13278456 -0.1403754 0.28647447
-0.1576092 0.12810044 0.28386322 -0.082579985 -0.25454035 -0.30065766 0.016600654 -0.21322638
0.14436293 -0.2223754 0.22558329 -0.034097664 0.09296419 0.1785801 0.07229243 0.42108092
-0.25066456 0.041226253 -0.027553963 -0.38692957 0.26166412 -0.016031103 -0.19676058 -0.092716195
-0.048015747 -0.035951566 0.23216568 -0.037612066 -0.0745727 -0.16514221 0.17087501 -0.272135
-0.1037638 -0.24353932 -0.057072643 -0.06819047 -0.043873925 0.2618572 -0.18024985 -0.1992324
-0.3173578 -0.09701107 -0.052700162 -0.174408 -0.13391788 -0.23169029 0.38850307 0.12164819
-0.041623957 0.43452618 0.13166639 0.112323426 -0.025549902 0.25099435 0.11117614 0.20824878
0.17688698 -0.0692456 0.2557763 -0.115007326 0.33462512 -0.015867783 0.061781157 0.06904568
0.073761165 0.12987784 0.31844395 -0.27187282 0.24950562 0.15215541 0.12440244 0.40306395
0.07074758 -0.3248872 0.24991362 0.18531351 0.072079085 0.35301286 0.0031983033 -0.19284779
-0.11243824 0.36277092 -0.11007286 0.11867878 -0.068198495 0.2256884 -0.16010067 0.09846559
0.0311164 0.1789679 0.11509409 -0.04285941 -0.09679426 0.009538727 -0.21657914 0.022862298
-0.034199845 -0.11593673 0.20125054 0.2738137 -0.016492842 0.026906466 -0.27697998 0.11298331
-0.041631877 -0.029475952 0.19649918 0.09207203 0.070219286 0.016429296 -0.032821957 -0.009110245
-0.13288026 0.06822994 -0.27659264 -0.10368323 0.014456212 0.17730637 0.13436662 -0.016285835
0.17674688 0.01203572 0.0852789 -0.4094921 -0.18222679 -0.10832583 -0.24765705 0.0900719
-0.08768985 0.13652952 0.34033278 0.015126173 0.28744185 -0.1752837 -0.02657525 0.18174818
-0.34409446 -0.11983703 0.2716872 0.14034796 -0.1870777 0.09843259 0.108483 0.03394291
-0.065292284 0.2738755 -0.077982225 -0.044786226 0.06546823 0.21351902 -0.2318422 -0.10377519
0.27110186 0.023913234 0.22473466 0.074123986 0.042438217 -0.096799195 0.14373994 0.16961996
0.11378671 -0.07244169 -0.18631312 -0.10605534 -0.079819456 0.09529775 -0.2902881 -0.18317986
0.20220786 0.024088414 0.13402304 0.24704124 -0.24974655 -0.24557501 0.003546899 -0.09295398
0.20864983 0.090067066 -0.12703127 0.10364199 0.17704546 -0.12864581 0.14408194 -0.1512176
-0.16024084 0.0075947004 0.03910732 0.030592423 0.0069294833 -0.28174052 -0.53685373 -0.081961446
-0.08030084 0.24256434 0.06017105 0.16733894 0.021884501 -0.2289866 0.20883049 0.043199804
-0.08294232 0.008737919 0.070935726 -0.038466517 0.24263702 -0.12625857 -0.016198652 0.046451673
-0.021761086 -0.1016371 -0.0055763554 -0.036117706 -0.2794765 0.22520508 -0.01030977 0.17645565
0.22986013 -0.0053628506 -0.32824913 0.047144722 -0.14118297 -0.07566884 -0.24092543 0.047223974
0.05960258 0.40424138 -0.21114773 0.38500506 -0.2588138 0.03387227 0.18068218 -0.27047482
-0.31636584 -0.10591087 -0.23078945 -0.09149502 0.18919186 -0.16378927 -0.054356962 0.20567076
-0.12796198 0.44303703 0.15894143 0.0709736 0.27373952 0.17855442 -0.055692054 -0.17098343

base.mlp.fc1.0.bias f4 [64]
00000000: deae c0bb 0000 0000 2ccd 103b a7dd be3b
00000010: 0000 0000 cff0 65bb 0000 0000 5a9c be3b
00000020: 0000 0000 299d 9abb df80 a33b 1ad4 a839
00000030: 79c4 45bb e4ed 69bb 0000 0000 1c2c d939
00000040: 0000 0000 0000 0000 99ad 113c 921f e0bb
00000050: 0000 0000 b014 89bb 0000 0000 0000 0000
00000060: 0000 0000 0000 0000 0000 0000 6c1a f239
00000070: 0000 0000 0000 0000 0000 0000 2c9e c73b
00000080: 0000 0000 0000 0000 0000 0000 8efd 013b
00000090: 0000 0000 0000 0000 0000 0000 0000 0000
000000a0: 17b7 943b 0000 0000 1a93 cbbb 1c93 b43b
000000b0: a674 463b 0000 0000 2db2 cdba 0000 0000
000000c0: 0000 0000 b445 143b efc6 53bb cb53 04ba
000000d0: 0000 0000 0000 0000 0000 0000 8c48 3bbb
000000e0: 0000 0000 5493 fcbb 0000 0000 0000 0000
000000f0: 0000 0000 0000 0000 0000 0000 0000 0000
-0.005880221 0.0 0.0022094948 0.005824763 0.0 -0.003508616 0.0 0.0058169784
0.0 -0.004718442 0.004989728 0.00032201485 -0.0030176921 -0.0035694772 0.0 0.0004142233
0.0 0.0 0.008891487 -0.006839701 0.0 -0.0041833743 0.0 0.0
0.0 0.0 0.0 0.00046177523 0.0 0.0 0.0 0.0060918536
0.0 0.0 0.0 0.0019834968 0.0 0.0 0.0 0.0
0.0045384276 0.0 -0.006212604 0.005510701 0.003028193 0.0 -0.0015693359 0.0
0.0 0.0022624554 -0.0032314619 -0.00050478865 0.0 0.0 0.0 -0.0028577177
0.0 -0.0077079926 0.0 0.0 0.0 0.0 0.0 0.0

base.mlp.fc1.2.weight f4 [64]
00000000: 679b 7e3f 14cc 803f 0412 803f 033f 803f
00000010: 4c6b 803f 2f27 7f3f 1a77 7f3f 27aa 803f
00000020: 83de 803f 3f61 803f f4a9 803f 080b 803f
00000030: c64d 803f 7556 803f a3ed 7e3f ad0d 803f
00000040: a8c1 7f3f 00ec 7e3f 811b 813f 1d95 7e3f
00000050: ba85 803f 4902 7f3f 6e58 7f3f ef2c 803f
00000060: 324c 803f 5207 7f3f 043e 803f 120c 803f
00000070: a870 7f3f 0c6b 803f 6f8e 803f 1198 803f
00000080: 891f 803f 1a98 7f3f ac9c 7f3f 8460 7f3f
00000090: ea4a 803f 1a09 7f3f 263e 7e3f 5119 7f3f
000000a0: 05bd 7e3f 7dab 7e3f e868 7e3f 6bb5 803f
000000b0: 7769 803f 257c 7e3f a47a 7f3f c1a9 803f
000000c0: c224 803f 8a4b 803f 172d 7f3f 7ee1 7f3f
000000d0: 0eba 7d3f f94a 7f3f d4d3 803f 3edd 7e3f
000000e0: 5979 7d3f b394 803f 2abc 803f 6fe6 7d3f
000000f0: 84c9 7f3f 030c 7e3f 4318 803f 2e7f 803f
0.99455875 1.006228 1.0005498 1.001923 1.0032744 0.99669164 0.9979111 1.0051926
1.0067905 1.0029677 1.0051866 1.0003366 1.0023735 1.0026385 0.99581355 1.0004174
0.9990487 0.9957886 1.0086519 0.9944628 1.004081 0.9961286 0.9974431 1.0013713
1.0023253 0.99620545 1.0018926 1.0003684 0.99781275 1.0032668 1.0043467 1.0046407
1.0009624 0.99841464 0.9984844 0.99756646 1.0022862 0.9962326 0.9931358 0.99648005
0.9950717 0.9948042 0.99378824 1.0055364 1.0032185 0.9940818 0.9979651 1.0051805
1.0011218 1.0023053 0.99678177 0.9995345 0.9911202 0.99723774 1.0064645 0.9955634
0.99013287 1.0045379 1.0057423 0.9917974 0.99916863 0.9923708 1.0007404 1.0038812

base.mlp.fc1.2.bias f4 [64]
00000000: ed14 acbb 3e6f d0bb 33bb 173b 2c89 bd3b
00000010: 5bcc 62bb 5bb8 52bb 8291 093b 0ad0 c03b
00000020: b53e e2bb 5211 6fbb 693a aa3b 9829 043a
00000030: 0bb3 3fbb adf8 52bb aae7 8b3b b74b 1f3a
00000040: 5a06 773a f918 903b 6ab0 193c 34ed a9bb
00000050: fc6f 87bb a7a4 73bb b04a 343b 24f5 acba
00000060: 2a6b 31bb b943 7f3b d449 03bb 465d f039
00000070: b960 0b3b f121 65bb 9a7c 90bb d00d cb3b
00000080: 7001 91ba b368 023b 64bd de3a 8db4 0c3b
00000090: b6df 2fbb 9c09 913b 52de e83b 3854 693b
000000a0: 3452 913b bd34 b23b 5163 c3bb 77c2 b73b
000000b0: 9316 533b 59fd c73b bae8 9aba f3f9 acbb
000000c0: 583e a0ba 56e4 163b 5c3a 47bb c887 7fb9
000000d0: 964a 253c a655 443b 3d18 e8bb c002 963b
000000e0: 433e 2a3c 0aee a2bb a6ab c1bb d055 0a3c
000000f0: 55fb 5f3a bb52 013c 238e 3bba 8023 82bb
-0.005251518 -0.0063609174 0.002315235 0.0057841744 -0.0034606669 -0.0032153341 0.002099127 0.005884175
-0.006904448 -0.003647883 0.0051949513 0.00050415983 -0.0029251005 -0.003219168 0.00426956 0.0006076651
0.00094232487 0.004397508 0.009380439 -0.0051857475 -0.0041332226 -0.0037176998 0.0027510338 -0.0013195616
-0.0027071931 0.0038950278 -0.0020033019 0.0004584586 0.0021267368 -0.0034962858 -0.004409385 0.006196715
-0.001106305 0.0019898831 0.0016993699 0.0021469921 -0.0026836223 0.0044261944 0.007106581 0.0035603177
0.004434848 0.005438416 -0.005962767 0.005607899 0.00322095 0.0061031994 -0.0011818625 -0.0052788197
-0.0012225611 0.0023024282 -0.0030399775 -0.00024369278 0.010088583 0.0029958277 -0.0070829676 0.0045779645
0.010390821 -0.004972224 -0.0059103547 0.008443311 0.00085442263 0.00789326 -0.0007154664 -0.003971517

base.mlp.fc_h.0.weight f4 [64, 64]
00000000: 3e4a 183e b026 14bf 6e78 1cbd 42f1 ea3d
00000010: ebf3 2abd f39b dabd b980 533e e096 9dbe
00000020: edca 50bd 2d7c a33e 579f 04be f0a6 e3bd
00000030: d8b1 adbd ec81 e6bd 17ed 15be 26d0 e13d
00000040: 1905 6cbb 27de c9bd bb58 0f3d ddfc 963d
00000050: f330 d8bd 5646 b73c 35ad 1f3e e918 a13c
00000060: a0e9 2c3e ba49 a03d bf28 8e3e e61c 103e
00000070: ed82 cdbd e816 af3c a977 e13d 1a9e 563d
00000080: 01a9 35be f478 2d3e df3c 6f3e fe9d 59bd
00000090: cfef a7be fb1f 8dbe 0c69 b4bd ee3e eebe
000000a0: ded9 3c3e 428c 2fbe f2ea 293d f016 05be
000000b0: dbda 80be e916 d03c 1c77 e23c 7921 7b3e
000000c0: 28f3 49bd 5749 3a3e 6a89 49bd b7c3 9ebd
000000d0: 3c7b 0c3d b8b9 aabb 621d 363d 939f 363e
000000e0: 53ec b93d 4c30 18bd 9f47 733d 7baa c3bd
000000f0: c44e 7c3e f751 b43e f019 7ebe 925a 0a3d
00000100: 328d 283e 2ca8 3d3e c65e c1bc d92e 54bd
00000110: 1ece 73b9 6286 92be 1bc2 603e 6d2e 5fbe
00000120: 2efb 08be 2ae8 99be 5167 e5bc f038 ebbd
00000130: ebd6 d73e 591a 9d3e 8132 c9bd ce30 fb3d
00000140: 8a2b 95bd 1a2f 50be d12f cc3e 562f 48be
00000150: af73 b63d 1075 14bd a73b 643d 8fbf 843d
00000160: 364e 553c 2d7c 7c3e ffb0 09bd 1176 90bc
00000170: ac20 433e 5b42 b13e 0cf0 64bd a8bb 143e
00000180: 2fff 0e3e 0654 363e fbef 47bc 8e31 08be
00000190: 472a 0a3c 3a32 d0bd ae6f ddbd 6310 833e
000001a0: 6634 5c3d c275 863c 59cd 593e 660c ffbd
000001b0: ea33 ae3d 9e04 253e 3804 803e 8f66 34ba
000001c0: b589 c33e b532 6dbe ece3 df3b 02b9 1ebe
000001d0: b97d fc3d 019d 30bd d335 27bd 2b0e a8bd
000001e0: 8dd9 993e 082c 25be 10a7 463e 3ecd 353e
000001f0: 9f2f 173e 893c be3d 002e 6dbe b0ee ef3c
00000200: db5f 84bd c3df 183e 0da6 083e e14b 303e
00000210: 71bb 923e 8972 20bc 1b11 133b 5244 4b3e
00000220: d4a2 3ebe 124c b93e 5617 4abe 6b98 49be
00000230: 275d 86bd 255a 5c3e a059 a53d 219b 2ebe
00000240: 0aee a8be 623e 14bd f140 6b3d 5a8e f6bc
00000250: 05bc 1dbe 6364 f63a ae22 34be 89e0 8c3d
00000260: 8884 43bd 3b72 1a3d a5bb c23e 72ba 963d
00000270: bc7b f73d 2bec bbbe a86c 90be 960e 91be
00000280: 60ad c03e c6a7 3f3d 4a81 dcbd 5527 b33d
00000290: 0547 a4bd 0053 c7bd 1026 a43b 1f32 c53d
000002a0: 6551 073e dab8 b6be 39c1 813e eeb9 ba3d
000002b0: 3a0a 393d 81d0 e4bd 63d1 003f 001a c83d
000002c0: 523f c03d e136 5e3d ee05 c63c ae35 b93c
000002d0: 60e5 fbbd 31c8 433d e048 d73c d1dc dcbd
000002e0: d3e9 88be 3742 f5bc 9977 8c3d 07b0 07be
000002f0: 8ef5 e9bc a9aa a0bd 083d cfbd 8ffa ecbc
00000300: 6c85 353e 5916 2b3e d339 32bc 43a0 dc3d
00000310: c6f1 0c3b 82f2 34be c530 04bf 2eb0 acbd
00000320: f220 c13d 6480 893d dc62 093e 1348 99bd
00000330: 424a 7dbd 37b5 853e 912a 843c 31f5 c13d
00000340: ada6 c2bd 3295 f53d 9d38 aabd ece3 103d
00000350: 2ed1 16be d319 d73c 6f11 d83e d75c c53d
00000360: 582c a3be bd72 b0bd 056c 3fbe 3dfd c9bc
00000370: 9278 52be 5e72 0abf d373 9b3e fa51 c43d
00000380: fd73 63bd 9ece 443e 81a9 0bbb b58a 02be
00000390: 2742 07be 167e 9dbe 175f 093e 673c 1fbc
000003a0: c7c0 be3d ae4c 6dbb eaad 143e c186 b63d
000003b0: 48a3 1dbe 4085 753e bd1c 72be 31e4 4b3c
000003c0: 9cb0 2e3e b8ab f7bb c31e 55be 07e3 b8bd
000003d0: 1383 c53d 9e8c 24bd c9bd 4ebd c41f 8dbe
000003e0: 422d c23d 3d0e 2abe c999 043e e955 1e3d
000003f0: 5f59 35be 872c 50be 30fc 1fbe f766 99bc
0.14872071 -0.5787153 -0.03820079 0.114717975 -0.041736525 -0.10674276 0.20654573 -0.3077917
-0.050974775 0.31930676 -0.12951408 -0.11115825 -0.08481187 -0.112552494 -0.14641224 0.11026029
-0.003601378 -0.09856825 0.03499673 0.073724486 -0.10556211 0.022372406 0.15593417 0.019665198
0.16885996 0.07826562 0.27765462 0.14073524 -0.10034738 0.021373227 0.110091515 0.05239687
-0.17740251 0.16940671 0.23363064 -0.05312919 -0.32800147 -0.27563462 -0.088090986 -0.46532387
0.18442485 -0.17143348 0.041483827 -0.12997031 -0.25166973 0.02540155 0.027644686 0.24524488
-0.049304157 0.1819204 -0.049203314 -0.077521734 0.034297213 -0.0052101277 0.044461615 0.1783431
0.090782784 -0.037155434 0.059394475 -0.09554001 0.24639422 0.35218784 -0.24814582 0.03377778
0.16460112 0.18521184 -0.023604762 -0.05180249 -0.0002325107 -0.2861815 0.21949045 -0.21795054
-0.13377067 -0.3005994 -0.028003367 -0.11485469 0.42156157 0.30684164 -0.09824086 0.12265168
-0.07283695 -0.20330468 0.3988023 -0.19549307 0.08908784 -0.036244452 0.05572095 0.064818494
0.013019135 0.24656744 -0.033616062 -0.017634423 0.19055432 0.34620938 -0.05589299 0.1452471
0.13964532 0.1780549 -0.012203212 -0.13300154 0.008432931 -0.1016583 -0.10812317 0.2559844
0.05376091 0.016413573 0.2126974 -0.12453537 0.085059956 0.16115043 0.2500322 -0.00068817375
0.38191 -0.23163874 0.0068325903 -0.15500262 0.12328667 -0.04311848 -0.040822815 -0.08205827
0.3004879 -0.16130078 0.19399667 0.17754075 0.1476426 0.0928889 -0.23162079 0.02928862
-0.064635955 0.14929108 0.13344593 0.17216446 0.2865863 -0.009792932 0.0022440616 0.19850281
-0.18616802 0.3619085 -0.19735464 -0.19687049 -0.06560736 0.21518762 0.08073735 -0.17051364
-0.3299411 -0.036192305 0.05743498 -0.030097175 -0.15403755 0.0018798228 -0.17591354 0.06878764
-0.047733814 0.037706595 0.38033786 0.0735978 0.12084147 -0.3670362 -0.28207898 -0.2833144
0.37632275 0.04679086 -0.107668474 0.08747736 -0.080213584 -0.09732628 0.00500942 0.096287005
0.13214643 -0.35687906 0.2534273 0.091174945 0.04517577 -0.111725815 0.503195 0.09770584
0.093870774 0.054251555 0.02417275 0.022608604 -0.12299609 0.04779834 0.026279867 -0.10784305
-0.26740894 -0.0299388 0.06858749 -0.13250743 -0.028559472 -0.07845051 -0.10119063 -0.02892807
0.17726678 0.16707744 -0.010878044 0.10772755 0.0021506413 -0.17670634 -0.51636916 -0.08432041
0.09430112 0.06713942 0.13416618 -0.0748445 -0.061838396 0.26114818 0.016133578 0.09470595
-0.09504447 0.119913474 -0.083115794 0.035373613 -0.14728233 0.026257431 0.422008 0.096368484
-0.3186977 -0.086156346 -0.1869355 -0.024656886 -0.20553806 -0.5408076 0.30361804 0.09585948
-0.055530537 0.19219443 -0.002131075 -0.12748225 -0.13208829 -0.30760258 0.1341518 -0.009718991
0.09314113 -0.0036209035 0.14519468 0.08912421 -0.15394318 0.23976612 -0.23643775 0.012444542
0.17059559 -0.0075583123 -0.20812516 -0.09027677 0.09644141 -0.040173166 -0.050473962 -0.27563298
0.094812885 -0.16606994 0.1294929 0.03865615 -0.17709874 -0.20329486 -0.15623546 -0.018725855

base.mlp.fc_h.0.bias f4 [64]
00000000: 0000 0000 0000 0000 0000 0000 0000 0000
00000010: 0000 0000 0000 0000 0000 0000 0000 0000
00000020: 0000 0000 0000 0000 0000 0000 0000 0000
00000030: 0000 0000 0000 0000 0000 0000 0000 0000
00000040: 0000 0000 0000 0000 0000 0000 0000 0000
00000050: 0000 0000 0000 0000 0000 0000 0000 0000
00000060: 0000 0000 0000 0000 0000 0000 0000 0000
00000070: 0000 0000 0000 0000 0000 0000 0000 0000
00000080: 0000 0000 0000 0000 0000 0000 0000 0000
00000090: 0000 0000 0000 0000 0000 0000 0000 0000
000000a0: 0000 0000 0000 0000 0000 0000 0000 0000
000000b0: 0000 0000 0000 0000 0000 0000 0000 0000
000000c0: 0000 0000 0000 0000 0000 0000 0000 0000
000000d0: 0000 0000 0000 0000 0000 0000 0000 0000
000000e0: 0000 0000 0000 0000 0000 0000 0000 0000
000000f0: 0000 0000 0000 0000 0000 0000 0000 0000
0.0 0.0 0.0 0.0 0.0 0.0 0.0 0.0
0.0 0.0 0.0 0.0 0.0 0.0 0.0 0.0
0.0 0.0 0.0 0.0 0.0 0.0 0.0 0.0
0.0 0.0 0.0 0.0 0.0 0.0 0.0 0.0
0.0 0.0 0.0 0.0 0.0 0.0 0.0 0.0
0.0 0.0 0.0 0.0 0.0 0.0 0.0 0.0
0.0 0.0 0.0 0.0 0.0 0.0 0.0 0.0
0.0 0.0 0.0 0.0 0.0 0.0 0.0 0.0

base.mlp.fc_h.2.weight f4 [64]
00000000: 0000 803f 0000 803f 0000 803f 0000 803f
00000010: 0000 803f 0000 803f 0000 803f 0000 803f
00000020: 0000 803f 0000 803f 0000 803f 0000 803f
00000030: 0000 803f 0000 803f 0000 803f 0000 803f
00000040: 0000 803f 0000 803f 0000 803f 0000 803f
00000050: 0000 803f 0000 803f 0000 803f 0000 803f
00000060: 0000 803f 0000 803f 0000 803f 0000 803f
00000070: 0000 803f 0000 803f 0000 803f 0000 803f
00000080: 0000 803f 0000 803f 0000 803f 0000 803f
00000090: 0000 803f 0000 803f 0000 803f 0000 803f
000000a0: 0000 803f 0000 803f 0000 803f 0000 803f
000000b0: 0000 803f 0000 803f 0000 803f 0000 803f
000000c0: 0000 803f 0000 803f 0000 803f 0000 803f
000000d0: 0000 803f 0000 803f 0000 803f 0000 803f
000000e0: 0000 803f 0000 803f 0000 803f 0000 803f
000000f0: 0000 803f 0000 803f 0000 803f 0000 803f
1.0 1.0 1.0 1.0 1.0 1.0 1.0 1.0
1.0 1.0 1.0 1.0 1.0 1.0 1.0 1.0
1.0 1.0 1.0 1.0 1.0 1.0 1.0 1.0
1.0 1.0 1.0 1.0 1.0 1.0 1.0 1.0
1.0 1.0 1.0 1.0 1.0 1.0 1.0 1.0
1.0 1.0 1.0 1.0 1.0 1.0 1.0 1.0
1.0 1.0 1.0 1.0 1.0 1.0 1.0 1.0
1.0 1.0 1.0 1.0 1.0 1.0 1.0 1.0

base.mlp.fc_h.2.bias f4 [64]
00000000: 0000 0000 0000 0000 0000 0000 0000 0000
00000010: 0000 0000 0000 0000 0000 0000 0000 0000
00000020: 0000 0000 0000 0000 0000 0000 0000 0000
00000030: 0000 0000 0000 0000 0000 0000 0000 0000
00000040: 0000 0000 0000 0000 0000 0000 0000 0000
00000050: 0000 0000 0000 0000 0000 0000 0000 0000
00000060: 0000 0000 0000 0000 0000 0000 0000 0000
00000070: 0000 0000 0000 0000 0000 0000 0000 0000
00000080: 0000 0000 0000 0000 0000 0000 0000 0000
00000090: 0000 0000 0000 0000 0000 0000 0000 0000
000000a0: 0000 0000 0000 0000 0000 0000 0000 0000
000000b0: 0000 0000 0000 0000 0000 0000 0000 0000
000000c0: 0000 0000 0000 0000 0000 0000 0000 0000
000000d0: 0000 0000 0000 0000 0000 0000 0000 0000
000000e0: 0000 0000 0000 0000 0000 0000 0000 0000
000000f0: 0000 0000 0000 0000 0000 0000 0000 0000
0.0 0.0 0.0 0.0 0.0 0.0 0.0 0.0
0.0 0.0 0.0 0.0 0.0 0.0 0.0 0.0
0.0 0.0 0.0 0.0 0.0 0.0 0.0 0.0
0.0 0.0 0.0 0.0 0.0 0.0 0.0 0.0
0.0 0.0 0.0 0.0 0.0 0.0 0.0 0.0
0.0 0.0 0.0 0.0 0.0 0.0 0.0 0.0
0.0 0.0 0.0 0.0 0.0 0.0 0.0 0.0
0.0 0.0 0.0 0.0 0.0 0.0 0.0 0.0

base.mlp.fc2.0.0.weight f4 [64, 64]
00000000: 3e4a 183e b026 14bf 6e78 1cbd 42f1 ea3d
00000010: ebf3 2abd f39b dabd b980 533e e096 9dbe
00000020: edca 50bd 2d7c a33e 579f 04be f0a6 e3bd
00000030: d8b1 adbd ec81 e6bd 17ed 15be 26d0 e13d
00000040: 1905 6cbb 27de c9bd bb58 0f3d ddfc 963d
00000050: f330 d8bd 5646 b73c 35ad 1f3e e918 a13c
00000060: a0e9 2c3e ba49 a03d bf28 8e3e e61c 103e
00000070: ed82 cdbd e816 af3c a977 e13d 1a9e 563d
00000080: 01a9 35be f478 2d3e df3c 6f3e fe9d 59bd
00000090: cfef a7be fb1f 8dbe 0c69 b4bd ee3e eebe
000000a0: ded9 3c3e 428c 2fbe f2ea 293d f016 05be
000000b0: dbda 80be e916 d03c 1c77 e23c 7921 7b3e
000000c0: 28f3 49bd 5749 3a3e 6a89 49bd b7c3 9ebd
000000d0: 3c7b 0c3d b8b9 aabb 621d 363d 939f 363e
000000e0: 53ec b93d 4c30 18bd 9f47 733d 7baa c3bd
000000f0: c44e 7c3e f751 b43e f019 7ebe 925a 0a3d
00000100: 328d 283e 2ca8 3d3e c65e c1bc d92e 54bd
00000110: 1ece 73b9 6286 92be 1bc2 603e 6d2e 5fbe
00000120: 2efb 08be 2ae8 99be 5167 e5bc f038 ebbd
00000130: ebd6 d73e 591a 9d3e 8132 c9bd ce30 fb3d
00000140: 8a2b 95bd 1a2f 50be d12f cc3e 562f 48be
00000150: af73 b63d 1075 14bd a73b 643d 8fbf 843d
00000160: 364e 553c 2d7c 7c3e ffb0 09bd 1176 90bc
00000170: ac20 433e 5b42 b13e 0cf0 64bd a8bb 143e
00000180: 2fff 0e3e 0654 363e fbef 47bc 8e31 08be
00000190: 472a 0a3c 3a32 d0bd ae6f ddbd 6310 833e
000001a0: 6634 5c3d c275 863c 59cd 593e 660c ffbd
000001b0: ea33 ae3d 9e04 253e 3804 803e 8f66 34ba
000001c0: b589 c33e b532 6dbe ece3 df3b 02b9 1ebe
000001d0: b97d fc3d 019d 30bd d335 27bd 2b0e a8bd
000001e0: 8dd9 993e 082c 25be 10a7 463e 3ecd 353e
000001f0: 9f2f 173e 893c be3d 002e 6dbe b0ee ef3c
00000200: 2227 8fbd 970d 1e3e 70bd 053e 4e3d 2e3e
00000210: 4552 953e d44d 7dbc 2bfe ef3b 9d7a 463e
00000220: cb74 39be 72b5 bb3e fdc3 4fbe 914a 4fbe
00000230: b3e4 79bd a519 613e 35c0 af3d 422a 34be
00000240: f856 a6be 45e5 febc 93d2 583d 4df7 11bd
00000250: e48d 18be 4203 6fbb 6af3 2ebe 8142 973d
00000260: abc8 2ebd 8640 2f3d cf52 c53e ad4d 8b3d
00000270: 49ef 003e 5a55 b9be 88d5 8dbe 5e07 93be
00000280: 8046 c33e e469 543d 9722 d2bd f84d bd3d
00000290: 1fe2 99bd deee bcbd b945 253c 9a99 cf3d
000002a0: d7c3 0b3e 611f b4be 5cd4 7d3e febf af3d
000002b0: ad5f 223d b769 dabd 6748 ff3e 9d75 d23d
000002c0: 62a1 ca3d 5729 483d f1dc 993c f4ee 8c3c
000002d0: 0786 f1bd 538c 583d 9b66 003d da7c d2bd
000002e0: 0051 86be a9ef ccbc 6fd3 963d d37d 02be
000002f0: 8e61 c0bc 9e44 96bd 9ae1 c4bd 558a c3bc
00000300: cd80 323e 52e0 2d3e 95d2 40bc e7c4 d93d
00000310: d38e 9f3b 15eb 37be 2e7c 03bf e007 b2bd
00000320: dab7 c63d a49f 8e3d 5587 063e 00a4 9fbd
00000330: b44e 74bd f1dc 863e 96aa 9a3c 6f7e bc3d
00000340: 3724 bdbd f233 fb3d 7928 b0bd ca7d 053d
00000350: 4509 14be a4a8 bf3c 2674 d93e a8ef ca3d
00000360: 0fc7 a1be 01d4 aabd 81a4 3cbe 2e94 e2bc
00000370: 1ba8 4fbe b3c0 09bf e3d8 9c3e 477d bf3d
00000380: 0327 58bd cb93 473e 3e07 143a 1df1 febd
00000390: a272 04be 0a18 9cbe 802b 0c3e f644 e4bb
000003a0: beca c43d 3ae6 67ba b1ab 113e 3aea b03d
000003b0: d774 20be bc53 783e c4db 75be 3785 783c
000003c0: 2d85 313e a0a2 27bc 2723 58be c172 bebd
000003d0: 2d07 cb3d 8868 19bd 1e63 43bd cab9 8bbe
000003e0: 61bb c73d f031 27be 3564 073e 8c7a 293d
000003f0: 4d88 32be 5260 4dbe dd37 1dbe 8a13 83bc
0.14872071 -0.5787153 -0.03820079 0.114717975 -0.041736525 -0.10674276 0.20654573 -0.3077917
-0.050974775 0.31930676 -0.12951408 -0.11115825 -0.08481187 -0.112552494 -0.14641224 0.11026029
-0.003601378 -0.09856825 0.03499673 0.073724486 -0.10556211 0.022372406 0.15593417 0.019665198
0.16885996 0.07826562 0.27765462 0.14073524 -0.10034738 0.021373227 0.110091515 0.05239687
-0.17740251 0.16940671 0.23363064 -0.05312919 -0.32800147 -0.27563462 -0.088090986 -0.46532387
0.18442485 -0.17143348 0.041483827 -0.12997031 -0.25166973 0.02540155 0.027644686 0.24524488
-0.049304157 0.1819204 -0.049203314 -0.077521734 0.034297213 -0.0052101277 0.044461615 0.1783431
0.090782784 -0.037155434 0.059394475 -0.09554001 0.24639422 0.35218784 -0.24814582 0.03377778
0.16460112 0.18521184 -0.023604762 -0.05180249 -0.0002325107 -0.2861815 0.21949045 -0.21795054
-0.13377067 -0.3005994 -0.028003367 -0.11485469 0.42156157 0.30684164 -0.09824086 0.12265168
-0.07283695 -0.20330468 0.3988023 -0.19549307 0.08908784 -0.036244452 0.05572095 0.064818494
0.013019135 0.24656744 -0.033616062 -0.017634423 0.19055432 0.34620938 -0.05589299 0.1452471
0.13964532 0.1780549 -0.012203212 -0.13300154 0.008432931 -0.1016583 -0.10812317 0.2559844
0.05376091 0.016413573 0.2126974 -0.12453537 0.085059956 0.16115043 0.2500322 -0.00068817375
0.38191 -0.23163874 0.0068325903 -0.15500262 0.12328667 -0.04311848 -0.040822815 -0.08205827
0.3004879 -0.16130078 0.19399667 0.17754075 0.1476426 0.0928889 -0.23162079 0.02928862
-0.06989886 0.15434872 0.13060546 0.17015573 0.2916433 -0.01546045 0.0073240004 0.19382711
-0.18110959 0.3666187 -0.20289607 -0.20243289 -0.06100912 0.21982439 0.085815825 -0.17594245
-0.32488227 -0.031115184 0.052935194 -0.035636235 -0.14897877 -0.0036470448 -0.17085043 0.073857315
-0.04267184 0.042786144 0.3853974 0.06801925 0.1259128 -0.3619793 -0.27701974 -0.28716558
0.38139725 0.051858798 -0.10260504 0.09243387 -0.07513832 -0.09225248 0.010087424 0.10136719
0.13648926 -0.3518019 0.2478804 0.085815415 0.039642025 -0.10664695 0.49859926 0.10276339
0.098940626 0.04886755 0.01878211 0.017203785 -0.11793142 0.0528682 0.031347852 -0.1027772
-0.26233673 -0.025016623 0.073645465 -0.1274331 -0.023484018 -0.073373064 -0.096133426 -0.023869673
0.17431946 0.16980103 -0.011768957 0.10633259 0.004869321 -0.1796077 -0.5136136 -0.08692908
0.09703036 0.06964043 0.13137563 -0.077949524 -0.05964537 0.2634044 0.01888017 0.09203803
-0.09235423 0.12265767 -0.086014695 0.032590665 -0.14456661 0.023395844 0.42471427 0.09908992
-0.31597182 -0.08341218 -0.18422128 -0.027658548 -0.20278971 -0.5380966 0.3063422 0.09350067
-0.05277158 0.19489972 0.0005646831 -0.124483325 -0.12934354 -0.3048709 0.13688469 -0.0069662286
0.096089825 -0.0008846257 0.14225651 0.08638425 -0.15669571 0.24250692 -0.24009615 0.01516848
0.17335959 -0.010231644 -0.2110716 -0.09299231 0.09913478 -0.037453204 -0.047701947 -0.27290183
0.097525366 -0.16327643 0.1322182 0.041376635 -0.17434807 -0.20056275 -0.15353341 -0.016000528

base.mlp.fc2.0.0.bias f4 [64]
00000000: 0000 0000 0000 0000 2646 aebb c4c3 36bb
00000010: 5cf7 023b 935b aaba c8c4 9c39 34f2 22bb
00000020: 9d03 eaba 0000 0000 3a0c b33b f9ca baba
00000030: c020 03bb 0000 0000 5134 21bb 185f 05bc
00000040: 0000 0000 0000 0000 22d2 193b da67 303a
00000050: 0ae6 9a3b 30d8 98bb 0000 0000 0000 0000
00000060: 0000 0000 0000 0000 0000 0000 0000 0000
00000070: 0000 0000 6684 ad3b 0000 0000 0000 0000
00000080: 0000 0000 0930 a6bb 9f55 a93b 0749 90b9
00000090: 0000 0000 0000 0000 5652 aaba a191 593b
000000a0: be36 83bb c4a6 533b ff61 8d3b a672 18ba
000000b0: 2e08 043c d08a 3d3b f19c df3b 0000 0000
000000c0: 0000 0000 0000 0000 0000 0000 f6de c93b
000000d0: 0000 0000 0000 0000 0000 0000 4fdc cf3b
000000e0: cdae 03bc ddd7 bebb ceb3 033c d5c8 77bb
000000f0: 0000 0000 0000 0000 6181 af3b 0000 0000
0.0 0.0 -0.005318421 -0.0027887681 0.0019983863 -0.0012997262 0.00029901252 -0.0024863603
-0.001785386 0.0 0.005464104 -0.0014251164 -0.0020008534 0.0 -0.0024597833 -0.008140348
0.0 0.0 0.0023471196 0.0006729342 0.00472713 -0.0046644434 0.0 0.0
0.0 0.0 0.0 0.0 0.0 0.005295324 0.0 0.0
0.0 -0.005071644 0.0051676775 -0.0002752023 0.0 0.0 -0.0012994509 0.0033198374
-0.0040043285 0.0032295445 0.0043146606 -0.0005815424 0.008058591 0.002892185 0.006824129 0.0
0.0 0.0 0.0 0.006160612 0.0 0.0 0.0 0.0063434015
-0.008037281 -0.0058240728 0.008038474 -0.0037808914 0.0 0.0 0.0053559993 0.0

base.mlp.fc2.0.2.weight f4 [64]
00000000: 1081 803f 9959 803f 1267 803f fa4e 803f
00000010: 8f4b 803f bb1d 803f 9ccb 803f 7aa7 803f
00000020: a623 803f 9ba7 803f be99 7f3f 3e71 803f
00000030: 6130 803f a893 803f 3808 803f 038b 803f
00000040: b8ae 803f bb69 803f 910b 7f3f 1f40 7f3f
00000050: 4348 803f d072 803f 1a83 803f 9186 803f
00000060: 5175 803f 2165 803f 8ac2 803f 0658 803f
00000070: 129a 803f 262a 803f f861 803f 5253 803f
00000080: 27a2 803f a86a 803f 4c5a 803f 2f56 803f
00000090: cbae 803f c91c 803f 5e8b 803f e812 803f
000000a0: 6249 803f 8ffa 7f3f 29e0 803f 909a 803f
000000b0: 7ab2 803f 1105 803f 9f90 803f e686 803f
000000c0: 0e04 803f e655 803f ebc0 803f c67e 803f
000000d0: 54a0 803f 4ca8 803f a8a2 803f 8d94 803f
000000e0: b47a 803f d176 803f 59c0 803f 8ebd 803f
000000f0: a3b8 803f c8e8 7f3f bd5f 803f 3cbc 803f
1.0039387 1.0027343 1.0031455 1.0024102 1.0023059 1.0009073 1.0062137 1.005111
1.0010879 1.0051149 0.99843967 1.0034559 1.0014764 1.0045061 1.0002508 1.0042423
1.005332 1.0032266 0.99627024 0.99707216 1.0022053 1.0035038 1.0040009 1.0041066
1.0035802 1.0030862 1.0059369 1.0026863 1.0047019 1.0012863 1.0029898 1.0025427
1.0049485 1.0032549 1.0027556 1.0026301 1.0053343 1.0008785 1.0042531 1.000577
1.0022395 0.999917 1.0068408 1.0047169 1.0054467 1.0001546 1.0044135 1.0041168
1.0001237 1.0026214 1.0058874 1.0038688 1.0048928 1.005136 1.0049639 1.0045334
1.0037446 1.003626 1.00587 1.0057847 1.0056347 0.9996457 1.0029217 1.0057445

base.mlp.fc2.0.2.bias f4 [64]
00000000: f165 89bb bc4e 3fbb fca2 87bb 50ad 75bb
00000010: e967 273b 8d1f 983a 52f6 b73b 1898 afbb
00000020: 31b0 55bb e18f b1bb 251d f73a a995 5e3b
00000030: 9462 53bb ddf6 9abb b595 52bb f5af dfbb
00000040: d074 b9bb 23e3 5bbb 0c3e a5b8 0bd1 1dba
00000050: 00c9 5b3b db15 573b d40a 8abb 3f6f 8dbb
00000060: 80b2 79bb ff21 54bb 8a9f cabb b9ba 41bb
00000070: 1e34 a3bb bffb 993b 7eb7 4ebb f1e1 31bb
00000080: 4122 abbb e4af 433b 05e7 833b 5d0d 39bb
00000090: ee3d b8bb c5c0 81ba 3de8 94bb 8548 023b
000000a0: d7aa 93bb 2e79 d6ba 3a9f c83b 1361 923b
000000b0: 3bc6 c13b 89f1 e13a 0d1b c13b 40d9 8dbb
000000c0: 3d5d 6bb9 e6c7 39bb fab8 c8bb 76fc b63b
000000d0: 990b a8bb 38fa afbb 5d2d abbb e90a b43b
000000e0: ae2e bcbb ee4f 9fbb 1119 cd3b 0021 c7bb
000000f0: baa5 c1bb 1bbe 9739 29b7 753b fa6a c6bb
-0.0041930606 -0.0029191216 -0.0041393023 -0.0037487336 0.0025544113 0.0011606083 0.0056140805 -0.005358707
-0.003260624 -0.005418763 0.001885329 0.0033963716 -0.0032254802 -0.0047291354 -0.003213269 -0.0068263956
-0.005659677 -0.0033552132 -7.87937e-05 -0.00060202245 0.0033536553 0.0032819423 -0.0042127166 -0.00431624
-0.003810078 -0.0032368896 -0.0061835693 -0.0029560758 -0.004980578 0.0046992 -0.0031542475 -0.0027142728
-0.0052225892 0.0029859478 0.0040253424 -0.0028236725 -0.005622617 -0.0009899369 -0.0045442865 0.001987965
-0.0045064497 -0.0016363019 0.006122497 0.0044671386 0.0059135235 0.0017238121 0.0058931173 -0.0043288767
-0.0002244608 -0.0028347909 -0.0061255665 0.005584295 -0.0051283357 -0.0053704046 -0.0052239136 0.0054944647
-0.0057428693 -0.0048618233 0.0062590917 -0.006076932 -0.0059096487 0.00028942604 0.0037493205 -0.006055233

act.action_out.linear.weight f4 [6, 64]
00000000: ec1f 37bb 1bf1 0cbb 5a76 03bb 5ee5 7b3a
00000010: 3a9a 353a 6f62 f839 424e 163b b67b 20bb
00000020: 2940 85b9 afda 22bb 9053 b7bb 94f6 133b
00000030: c045 88b9 af1c f8ba 007a 053a 2869 6b3b
00000040: ec5b f1ba 58cf 3e3a a6c5 13bb 8c6c 6d39
00000050: 753b af3a dfe4 383a 3c21 80ba 5acc 3eba
00000060: b826 61bb 97ad 44ba 7a94 7abb c3c6 1fbb
00000070: c40a ffba 24fa 27ba b33c a2b9 282d e3ba
00000080: 6f5b 0bbb 5287 193b 1557 a539 80bc 21b8
00000090: 94b8 0abb aab6 ffba fe6b f0ba 9907 d3b9
000000a0: f243 f13a 3512 f4ba b18d 353b 5c83 7f3b
000000b0: 809e 51b8 f9be 61ba a46b d439 1c23 2bbb
000000c0: a186 c2ba e133 63bb 347f 61bb 6451 62ba
000000d0: 685b 77bb bd33 8cbb 16f0 3fbb e272 c539
000000e0: b50a b539 5b93 da3a 6c40 0e3a 7c91 89bb
000000f0: 2f4c 03bb 30ea 183b 0a09 28ba d40f 0cbb
00000100: 4e20 0d3c 3838 123c bab1 143c e8ca 0f3c
00000110: 3404 13bc 193c 07bc 2666 11bc b3ac 2d3c
00000120: 67c7 163c dc74 253c 2e77 b03a 3ace 0ebc
00000130: e617 fb3b 0130 0d3c af7b b33b 115d 203c
00000140: ef38 0c3c 27fa 1b3c 6294 5b3a 60cc 9fbb
00000150: 82e6 01bc 1499 09bc fa3e 0c3c 3fa0 173c
00000160: 98cf 073c 1642 173c 3571 363c 0541 123c
00000170: c427 193c 73f0 a4bb 93c5 203c 04e0 133c
00000180: 30bf fb3b 5bd5 36bc e165 ffbb 87ac 073c
00000190: 2e90 373c 1db7 d03b 5cb9 323c 0013 debb
000001a0: 8261 1e3c affd d03b 6888 14bc 3bad 12bc
000001b0: 427d 14bc 0eec 0ebc b9b1 20bc 4439 f93b
000001c0: 0876 b33b 839d 153c f142 1b3c 55d6 15bc
000001d0: 21f9 0a3c 266c 003c 1358 1a3c 178b edbb
000001e0: ff32 d73b 3a6f 2a3c 0b60 13bc 973f 133c
000001f0: 0d2d 293c f8f3 da3b 8cb6 24bc 48f7 223c
00000200: db3c 183c 33f3 fb3b 6ed1 0c3c 9f23 1c3c
00000210: 7d7c 08bc 41a7 07bc 5112 2dbc 79fc 373c
00000220: 418a b83b a6df 1a3c c514 a63a 9310 12bc
00000230: 0a66 e33b 7c29 243c c8d8 f23b 84e9 283c
00000240: 9f79 273c 6b45 243c 0138 7c3b 396c a9bb
00000250: deb6 c6bb 10f0 3bbc 0c99 243c ecfe 2d3c
00000260: 568d 0a3c 7946 173c 7a66 183c 4649 083c
00000270: 8d67 103c b132 08bc c3b2 243c 4f00 033c
00000280: 8d4e 423c a12d e4bb 0ddc 0ebc 6fb0 303c
00000290: 4252 163c 94f3 003c b7bc 053c a6f8 e7bb
000002a0: 3750 b73b 66f2 ef3b e391 24bc 0be4 19bc
000002b0: fd58 38bc e231 d3bb a295 19bc c21a 093c
000002c0: 7c16 1b3c ea05 f13b 4375 3f3c 5c10 12bc
000002d0: 0885 233c 8f5f 403c 6956 193c 227e 23bc
000002e0: e030 083c 656c 053c cf76 23bc a947 263c
000002f0: 875e 323c d06c 183c 39d8 0cbc d1e8 1f3c
00000300: 475c 0dbc 0b9c 23bc f8ef 0bbc e8b3 02bc
00000310: a3bb 253c 702a 4a3c b284 3b3c 4896 f7bb
00000320: e269 08bc 6c93 04bc 912e 523b 1182 0d3c
00000330: 1041 1abc bf46 26bc ade8 ddbb 2dcd 17bc
00000340: 1b3f 23bc 38cc 1dbc c9b8 c3ba 3f92 e23b
00000350: bae3 383c 42e9 f33b 0922 32bc 753e 11bc
00000360: 49fa 08bc 3648 12bc 618d 2ebc d2c6 04bc
00000370: 7d49 21bc 83a1 013c 7feb 0cbc aa4a 1dbc
00000380: 5288 11bc 36a9 223c 393e 1e3c 9545 25bc
00000390: 65ae 17bc 04cf 19bc 0a80 08bc 8899 f53b
000003a0: 728e 20bc b7de abbb 3a19 423c 60c6 163c
000003b0: 110d 383c ab79 103c 5f72 f93b 87f6 33bc
000003c0: 2056 06bc 19eb 11bc 64ec 22bc 0dcc 2c3c
000003d0: ea23 19bc 1632 3dbc 670c 1dbc 8139 283c
000003e0: 1b0f 1dbc afbf 10bc 51f2 313c 44a8 36bc
000003f0: aee4 10bc 3e31 14bc da4a 103c cf6f 45bc
-0.002794261 -0.0021506015 -0.0020059557 0.00096090685 0.00069275836 0.00047375585 0.002293483 -0.00244878
-0.0002541554 -0.0024849584 -0.005594678 0.0022577392 -0.0002599191 -0.0018929447 0.0005091727 0.0035920832
-0.0018414236 0.00072788214 -0.0022548228 0.00022642518 0.001336916 0.00070531474 -0.000977553 -0.00072783756
-0.0034355354 -0.00075026735 -0.0038235472 -0.0024379946 -0.0019458164 -0.00064078183 -0.00030944272 -0.0017332183
-0.0021264215 0.0023426604 0.00031536134 -3.8560946e-05 -0.0021167146 -0.0019509394 -0.0018342731 -0.00040250717
0.001840709 -0.0018621149 0.0027702863 0.0038988208 -4.9977098e-05 -0.0008611526 0.0004051599 -0.0026113456
-0.0014841148 -0.0034668373 -0.0034408094 -0.0008633344 -0.0037743691 -0.0042786286 -0.002928739 0.00037660362
0.00034530988 0.0016675995 0.000542647 -0.0041982513 -0.0020034423 0.0023332946 -0.00064100383 -0.002137174
0.008613659 0.008924536 0.009075576 0.008776404 -0.00897317 -0.0082540745 -0.008874452 0.010600257
0.009202815 0.010098662 0.0013463253 -0.00871616 0.007662761 0.008617402 0.0054773907 0.009787814
0.008558496 0.00952009 0.0008376298 -0.0048766583 -0.0079284925 -0.008398313 0.008559937 0.009254514
0.00828924 0.009232065 0.011135389 0.008926635 0.00934786 -0.0050335466 0.00981273 0.009025577
0.0076827034 -0.011159266 -0.0077941273 0.00828088 0.011203809 0.006369485 0.010908451 -0.0067771673
0.009666802 0.0063778977 -0.009065725 -0.008952434 -0.009063067 -0.008723272 -0.009807997 0.0076057035
0.005476717 0.009131792 0.009476409 -0.009145339 0.0084822485 0.007838285 0.009420413 -0.007249247
0.0065673585 0.010402495 -0.008995066 0.008987329 0.010325682 0.0066819154 -0.010053288 0.009946652
0.009291853 0.0076889037 0.008594854 0.009529977 -0.008330462 -0.0082796225 -0.010563449 0.011229628
0.0056317155 0.009452736 0.0012670985 -0.008915084 0.0069396542 0.010019656 0.0074110962 0.010309581
0.010221868 0.010026316 0.003848553 -0.005170372 -0.00606428 -0.01147081 0.010046255 0.01061986
0.008456549 0.009233111 0.009301776 0.008318251 0.008813751 -0.008312867 0.010052386 0.007995679
0.011859548 -0.006963447 -0.008719456 0.010784253 0.009174885 0.007870574 0.008162669 -0.0070792018
0.005594279 0.0073225973 -0.010044548 -0.009392749 -0.011251685 -0.0064451555 -0.009374054 0.008368196
0.00946581 0.0073554413 0.011685672 -0.008915033 0.009980448 0.011741533 0.009358981 -0.009978803
0.008312434 0.008143519 -0.009977057 0.010148921 0.010886795 0.009303287 -0.008596473 0.009760098
-0.008627958 -0.009985934 -0.0085411 -0.007977463 0.010115537 0.012339219 0.011445211 -0.0075557567
-0.008326026 -0.008091789 0.0032071213 0.008636967 -0.009414926 -0.010148703 -0.006772122 -0.009265226
-0.009963776 -0.009631209 -0.001493239 0.0069144065 0.011284763 0.007443578 -0.010872372 -0.008864989
-0.008360454 -0.008928349 -0.010653825 -0.008104043 -0.009844181 0.007912043 -0.0086010685 -0.009600321
-0.008882599 0.009928038 0.00965839 -0.01008739 -0.0092578875 -0.009387735 -0.008331308 0.007495109
-0.009799587 -0.0052450555 0.011846835 0.00920257 0.011233584 0.00881807 0.007612511 -0.01098407
-0.008199245 -0.008906149 -0.009944055 0.010546696 -0.0093469415 -0.011547586 -0.0095854765 0.010267616
-0.009586121 -0.008834763 0.010860995 -0.011148516 -0.008843584 -0.009044943 0.0088069085 -0.012050583

act.action_out.linear.bias f4 [6]
00000000: 061e f33a f594 17bc 8f0f 1ebc 7208 223c
00000010: 4880 753b b15d e83b
0.0018548376 -0.009251823 -0.009647264 0.009889709 0.0037460495 0.007091247
