mappo_ros/onpolicy/scripts/results/drone/test_drones/mappo/check/wandb/offline-run-20230123_231441-isz4hlp6/files/critic.pt (torch_old, 42232 bytes, 15 tensors)

base.feature_norm.weight f4 [16]
00000000: 9630 803f bc37 803f 8e75 7f3f c157 803f
00000010: 8ee4 7f3f e699 7f3f 3a3b 803f 5e7d 7f3f
00000020: b2d4 7f3f 6652 7f3f 5223 803f 129e 7f3f
00000030: 69ab 7f3f d835 803f 5241 803f 1c4f 803f
1.0014827 1.0017009 0.9978875 1.002678 0.9995812 0.99844205 1.0018075 0.9980067
0.9993392 0.99735105 1.0010779 0.9985057 0.99870926 1.0016432 1.0019934 1.0024142

base.feature_norm.bias f4 [16]
00000000: 6b5f c2ba d8ed deba c074 0a3b a88c 2fbb
00000010: 657d db39 e031 ccba 2bf4 ecba daa1 023b
00000020: ca49 2d3a 83a2 2d3b d646 8dba e8df c33a
00000030: e535 a93a 6a5e d73a 9eaa 02bb f13f 1ebb
-0.0014829462 -0.0017008139 0.0021126717 -0.0026786719 0.0004186436 -0.0015578829 -0.0018078139 0.0019932897
0.00066104217 0.002649457 -0.0010778557 0.0014944049 0.0012909739 0.0016431336 -0.0019938122 -0.0024146999

base.mlp.fc1.0.weight f4 [64, 16]
00000000: be6b 9c3e 7311 d73d 1105 703e 5e04 dd3b
00000010: 8add b93e e1ad 14bc 6d9b 193e 83f7 e23c
00000020: 41c2 75be 73a2 a0bc 23a0 0f3d b06d a7bc
00000030: 4574 6f3e d691 1b3e df60 133e c692 8d3c
00000040: 90dc 303e 0391 583e fbe5 b73d a8c1 423e
00000050: 2cf5 acbe e2d2 5fbd 5e85 8abe f680 8d3e
00000060: dee0 3abe edfd 40bc 7091 a03e 950d 493e
00000070: 5aec 1fbe 4a7d 56bd 659b d3bd 5f46 ae3d
00000080: 457f bdbd 77cc 5bbc 2d0a 4c3d e401 ad3e
00000090: ec6c 483e 65d5 223e d65e e2bc 5ab0 2a3e
000000a0: a057 fb3c fb02 363e 5a13 dcbd 8610 51be
000000b0: 39dd e33c ca09 4c3d 1387 73be 4258 a13d
000000c0: 0997 86be cf17 6fbe 8b12 923d 3d93 a0be
000000d0: 9543 5b3e 8848 6e3d 0bc5 cc3d 0525 5dbd
000000e0: 4a58 c5be 3eb2 b1bd 4313 5ebc ac91 01be
000000f0: abfa db3d 84f7 01bd b5ba 89be 814f 60be
00000100: e7e4 77ba 09dd 0c3d cfbb 053e c89c c73d
00000110: b202 cd3d dc1e f9bc 86df 96ba 0adf 693e
00000120: 1576 a33d db2f 3b3e f9f6 0dbc ab55 a93e
00000130: 04e7 debb 94e8 b93e 4ff1 163c 89ae a33e
00000140: 1da5 28bd 43d9 aa3e 73b1 463d 40df a4bc
00000150: 35d8 7cbe b943 58bd f071 80be a4ed 8f3d
00000160: 3c7f 0b3c e271 8abe 376f 84bd 2376 60be
00000170: acc3 033d 6d2f c43d fe3a 66be 1d7d 35bd
00000180: 671f 3c3e d50e 723e 1f1b 8f3e 0f2a 65bd
00000190: 6e76 bdbc 0220 333d 43ba 08be 0160 39be
000001a0: 97f9 f2be 8c9f 013d cc9c fdbc ea81 11be
000001b0: 3a2e 9f3e a30b 183e aa27 da3d 1a36 dbbd
000001c0: e02d 7c3c 94ce b2bd 31fb 0bbe e119 7fbe
000001d0: f3e3 adbd 410f fd3d 10a7 c13e 3fba ea3d
000001e0: 7dd4 63be 9ba7 d33c 5cce 573d 62fc 8a3d
000001f0: 528b 8fbe dd3a c43b a99e aabd 14ef fa3e
00000200: 8eec febb 5d7e 163e cc82 2f3e a115 59bd
00000210: 71df 173e bfea 813e 8be4 ddbd 6b55 f2bd
00000220: 76b3 813c 6faa 9f3c ad39 3fbd 9b67 c7be
00000230: 1d87 90be 463e 8b3c ea0b 19be ea57 fcbd
00000240: f58d f7bc ec28 343e baf2 cc3d 1f7a bfbe
00000250: 7ef1 06be 2ea1 e7be cb4b b7bc 8490 703d
00000260: 68cd fe3c 57f5 aa3c b3b6 9dbd 0681 fc3d
00000270: ac9b 98bd 1ccf f33c 0bc6 95bd c6e6 253e
00000280: 20c3 cebd ff6e 4e3e f181 22be 293d 043d
00000290: 405a 36bd 7e49 d83d 0138 003e 91be 753d
000002a0: 9461 31bd 4a95 a3bd 7c20 323e 8bcb 903e
000002b0: e928 d23d 6efe 1bbd 58c6 813d 0e58 6cbe
000002c0: 58fa b53a b633 5f3e bf9e 8c3d 21ed 86be
000002d0: 6e95 8c3d 212f 24bd 7733 e2bd 9632 d23d
000002e0: 918d 2d3e 6f6e af3e 8c24 ac3e a1f0 c2bd
000002f0: a976 8abd a304 02bd 6673 a43c a6a4 a73e
00000300: 6773 07be db8a 243d f497 78bd a204 433e
00000310: c01c a4bd cf07 7c3d 06a5 ef3e cbd7 5e3d
00000320: 4191 d7bb 7bbb 48be 3d58 8c3e 0537 87be
00000330: 1408 523e f5f5 cfbd f675 f33d 03af 0fbe
00000340: 34b5 0dbd 989e eb3e dae7 003d 534d 88bd
00000350: 62fe 31be 8358 d3bd c786 c03d 794b a0be
00000360: 815b af3d db77 523e cd57 9fbd 659a 95be
00000370: 0a86 6c3e 0f26 8dbe 5b80 efbd 3b66 2bbd
00000380: c464 813e b60d 5f3e 3fb9 153e eeb6 873d
00000390: 80fb 12be d184 c4bd 8b0a 26bd fc43 1f3d
000003a0: a573 763e 2836 c4bd c710 c7bd fba6 443e
000003b0: cffb 8bbe 0ffa 41bd a7f6 c4be 4bf8 aebe
000003c0: b9c2 0e3e b909 d2bd 9770 893d bb2e cabd
000003d0: 8165 66be 25b4 96bd eaf5 49bd 3cb1 063e
000003e0: 16ed 4d3d 7fbf 3e3d e108 98be dcfa b0bc
000003f0: 8666 003d 3a32 83bd a264 9bbd b54b 863c
0.3055095 0.10501375 0.23439433 0.0067449054 0.36301833 -0.009074659 0.15000696 0.027705913
-0.23999883 -0.019608712 0.035064828 -0.020438045 0.23384197 0.15192351 0.14392422 0.017281901
0.17271638 0.21149068 0.08979412 0.19019186 -0.337808 -0.054644473 -0.27054876 0.27637452
-0.18249843 -0.011779291 0.3136096 0.19634087 -0.15617505 -0.05236558 -0.103323735 0.08509516
-0.0925279 -0.013415447 0.049814392 0.33790505 0.195728 0.15901716 -0.027633112 0.16668835
0.030681431 0.17774574 -0.107458785 -0.2041646 0.027815448 0.049814023 -0.23781995 0.07878162
-0.26287106 -0.23348926 0.07132443 -0.31362334 0.21412499 0.05817464 0.099985205 -0.053990383
-0.38543922 -0.08676575 -0.013554397 -0.12653226 0.107411705 -0.03173019 -0.2690026 -0.21905328
-0.00094564114 0.034390483 0.13059925 0.097467005 0.1001028 -0.030410223 -0.0011510707 0.22838989
0.07981507 0.18279974 -0.00866484 0.33073172 -0.0068024416 0.36310256 0.009212806 0.31969097
-0.04117309 0.33368883 0.048509073 -0.020125985 -0.24691851 -0.05279896 -0.25086927 0.07027748
0.008514222 -0.2704001 -0.06466525 -0.21920066 0.03216903 0.09579358 -0.22483441 -0.04430877
0.18371354 0.2363847 0.2795038 -0.055948313 -0.02312776 0.043731697 -0.13352303 -0.18103029
-0.47456047 0.031646296 -0.030958556 -0.14209715 0.31089956 0.14848189 0.106520966 -0.107036784
0.015391797 -0.08730808 -0.1367004 -0.24912216 -0.084907435 0.12356425 0.3782277 0.11461305
-0.22249027 0.025836756 0.052687034 0.067864195 -0.2803598 0.0059884624 -0.08331043 0.49010527
-0.0077796644 0.14696641 0.17139739 -0.052999143 0.1483133 0.2537441 -0.10834607 -0.118326984
0.015832644 0.019490449 -0.046685863 -0.38946232 -0.28228083 0.016997468 -0.14945951 -0.12321456
-0.030219058 0.17593735 0.10007234 -0.37397859 -0.1317806 -0.45240158 -0.022375008 0.05873157
0.031103805 0.02086894 -0.07700863 0.12329297 -0.07451567 0.029761843 -0.07313164 0.16201314
-0.10095811 0.20159529 -0.15869881 0.03228489 -0.044519663 0.105608925 0.12521364 0.05999619
-0.04330595 -0.07987459 0.17395204 0.2828029 0.10261709 -0.03808444 0.06336659 -0.23080465
0.0013883812 0.2179707 0.06866216 -0.2635279 0.06864439 -0.040084008 -0.110449724 0.10263555
0.16948535 0.34263942 0.33621633 -0.095185526 -0.06760914 -0.031742703 0.020074558 0.32742804
-0.13227616 0.040171485 -0.06069179 0.19044736 -0.08013296 0.061530884 0.4680559 0.054405015
-0.006578595 -0.19602768 0.2741107 -0.26409164 0.20510894 -0.101543345 0.11887734 -0.14031605
-0.034596637 0.46019435 0.03147111 -0.066553734 -0.17382196 -0.10319617 0.09400707 -0.3130758
0.08562375 0.20553534 -0.077804185 -0.29219356 0.23098007 -0.275681 -0.11694404 -0.04184554
0.2527219 0.21782574 0.14621447 0.06626688 -0.14353752 -0.09595645 -0.0405374 0.038883194
0.24067552 -0.09580642 -0.09719997 0.19204323 -0.27340552 -0.047357615 -0.3846943 -0.34173808
0.13941468 -0.10255761 0.06710928 -0.098721944 -0.22499658 -0.073585786 -0.049306788 0.13153547
0.05027493 0.046569344 -0.29694274 -0.021603994 0.031347774 -0.06406064 -0.075875536 0.016393522

base.mlp.fc1.0.bias f4 [64]
00000000: 0000 0000 0000 0000 8ce2 af3a 1dbe d93a
00000010: a314 303a 510f db3a 6c0b 37bb b17f 553b
00000020: d813 baba 0000 0000 a128 86bb 0000 0000
00000030: 0000 0000 0000 0000 0000 0000 0000 0000
00000040: 0000 0000 cc78 f1ba 0000 0000 0000 0000
00000050: 0139 2f3b d40c 6b3b fdb5 01bb 0000 0000
00000060: 0000 0000 abdd babb 0000 0000 00a9 73ba
00000070: 0000 0000 0000 0000 6c98 8dba 43ec 93b9
00000080: 0000 0000 0000 0000 0000 0000 0000 0000
00000090: 596a e43a 0000 0000 24ce b43b 0000 0000
000000a0: 8e10 f23a 1c46 a53a b9b0 5ebb 0000 0000
000000b0: 0000 0000 0000 0000 0000 0000 0000 0000
000000c0: 0e01 c7ba 8b33 06bb be4a fb3a 0000 0000
000000d0: c417 1ebb 0000 0000 cca3 3d3b bfed 34bb
000000e0: 7689 3bbb 0000 0000 0000 0000 0000 0000
000000f0: 0000 0000 f567 92b9 8617 953a 0b2b 193a
0.0 0.0 0.0013418957 0.0016612444 0.00067169423 0.0016712939 -0.0027930392 0.003257733
-0.0014196588 0.0 -0.004094199 0.0 0.0 0.0 0.0 0.0
0.0 -0.0018422841 0.0 0.0 0.0026736858 0.00358658 -0.0019792311 0.0
0.0 -0.0057026944 0.0 -0.00092948973 0.0 0.0 -0.0010802872 -0.00028214054
0.0 0.0 0.0 0.0 0.0017426714 0.0 0.005517738 0.0
0.0018468068 0.0012609395 -0.0033979847 0.0 0.0 0.0 0.0 0.0
-0.001518281 -0.00204775 0.0019172055 0.0 -0.0024123052 0.0 0.0028936742 -0.0027607528
-0.0028615869 0.0 0.0 0.0 0.0 -0.00027924744 0.0011374808 0.0005842901

base.mlp.fc1.2.weight f4 [64]
00000000: e8c1 7f3f 48c9 803f 130c 803f 5b2b 803f
00000010: ab78 7f3f e71e 803f 8637 7f3f bd34 803f
00000020: a299 7f3f 061d 7e3f e176 803f 4a3e 803f
00000030: 1338 803f 8a9c 7e3f 049d 7f3f 053f 803f
00000040: bfa5 7f3f 367c 7f3f 003b 7f3f 022e 803f
00000050: 9f47 803f 925e 803f c757 7f3f d6b2 7f3f
00000060: 2e06 803f 0170 7e3f 3576 7f3f 3af5 7f3f
00000070: c48c 7f3f 2142 803f 8493 7f3f d5ca 7f3f
00000080: 8349 803f d031 803f abbf 7f3f a122 803f
00000090: 3628 803f a422 7e3f 5189 803f 85b5 7f3f
000000a0: 2e29 803f 55ef 7f3f 8b36 803f 5f2a 803f
000000b0: 4a48 803f 6436 803f 83b9 7f3f 348b 7f3f
000000c0: 858e 7f3f dc27 7f3f db32 803f d772 7f3f
000000d0: 075f 7f3f 4a12 803f 8957 803f 7e26 7f3f
000000e0: 4349 803f a61b 803f 8f67 7f3f cfa0 7f3f
000000f0: c53b 803f 93e1 7f3f 0f21 803f f5c5 7f3f
0.9990525 1.0061426 1.0003685 1.0013231 0.997935 1.0009431 0.996941 1.0016094
0.998438 0.99263036 1.0036279 1.0019009 1.0017112 0.9945761 0.9984896 1.0019232
0.99862283 0.99798906 0.996994 1.001404 1.0021857 1.002886 0.9974331 0.99882257
1.0001886 0.99389654 0.99789745 0.9998356 0.99824166 1.0020181 0.99834466 0.9991887
1.0022434 1.0015202 0.9990184 1.0010568 1.0012271 0.9927161 1.0041906 0.9988635
1.0012567 0.99974567 1.0016645 1.0012931 1.0022061 1.0016599 0.99892443 0.9982178
0.9982684 0.99670196 1.001552 0.99784607 0.99754375 1.0005581 1.0026714 0.9966811
1.0022358 1.0008438 0.9976739 0.9985475 1.001824 0.99953574 1.0010089 0.99911433

base.mlp.fc1.2.bias f4 [64]
00000000: f4cd 773a 5db5 c9bb 6ba7 b43a da08 e23a
00000010: 97ee 333a a4a6 e13a 50b3 34bb ad40 5e3b
00000020: 60f9 b9ba a67f f13b 0f8d 84bb 9a07 f9ba
00000030: 2b02 e0ba 9600 b23b abd8 c53a 09ef fbba
00000040: 9b50 b43a 195d f1ba 6630 453b 72d6 b7ba
00000050: fa37 343b 20f8 413b 7784 02bb 590a 9a3a
00000060: 6a45 44b9 b971 b1bb 55be 093b e493 8dba
00000070: f05f e63a b938 04bb 570b 93ba b14a c0b9
00000080: 430f 13bb 1e15 c7ba 4f68 803a 393d 8aba
00000090: faea ea3a b495 ee3b a5c3 8e3b 4eaf 943a
000000a0: b0fe f83a 02ed a93a d6b4 f1ba b336 a9ba
000000b0: f596 10bb 0667 d9ba f7d9 8c3a 7e7f e93a
000000c0: 9de5 c8ba 0061 07bb 707c 013b b015 0d3b
000000d0: 5bd1 18bb 1bd0 12ba 0188 423b 11ff 32bb
000000e0: 0045 3cbb 00f0 5dba 4a74 183b 8327 be3a
000000f0: d8f1 eeba e2c3 a8b9 868d 9d3a 2061 1c3a
0.00094529917 -0.0061556534 0.0013782805 0.001724507 0.0006863861 0.00172158 -0.00275727 0.0033913061
-0.00141887 0.007369953 -0.004045136 -0.0018999458 -0.001709049 0.0054321988 0.0015094479 -0.0019221018
0.0013756932 -0.0018414586 0.0030088662 -0.0014025702 0.0027499185 0.0029597357 -0.001991538 0.0011752351
-0.00018717875 -0.005415168 0.0021017988 -0.0010801521 0.0017576199 -0.002017541 -0.001121859 -0.00036676743
-0.0022439517 -0.0015188789 0.0009796711 -0.001054681 0.0017922812 0.0072810296 0.0043568187 0.0011343749
0.0018996801 0.0012964311 -0.0018440734 -0.0012909978 -0.0022062634 -0.001658649 0.0010746111 0.0017814485
-0.0015327219 -0.0020657182 0.0019758008 0.002152782 -0.0023318145 -0.0005600468 0.0029683115 -0.0027312676
-0.002872765 -0.0008466244 0.0023262673 0.0014507625 -0.0018230034 -0.000321894 0.0012020327 0.00059654005

base.mlp.fc_h.0.weight f4 [64, 64]
00000000: 7539 8ebd d4ee bdbd 0d82 d7bd 2087 d6b8
00000010: acdb 1b3e a9f0 d13d 6791 023e e3c7 7bbe
00000020: 244f 853e 6e3d 19be 4eee d63d 83d4 473e
00000030: 7623 0dbe 144d 40be 9646 61be 0316 893d
00000040: 8152 e93d dd9f 393b c16d ecbc cda0 09be
00000050: 3dc8 91be 0173 f83c 5186 62be b207 c73e
00000060: 96f3 95bd 38b6 8e3e 5aee 023f 0b42 fbbd
00000070: e3a8 c43d a0c3 eebe fd9f 6d3e e9ff 433e
00000080: 3a29 713e a095 08be 18c5 22be f64b 113e
00000090: 8243 653e 1b28 39be a49b a73c 0524 8c3d
000000a0: a177 8cbd 0814 c63e 6e12 733d 2494 f63d
000000b0: 2ba9 853c ebed 903e 3d68 82bd a5d0 023e
000000c0: 93d7 00bc 6549 6abe fcb9 063d aeb7 173e
000000d0: 693b a8bc fb68 32bd d88c 3ebc e163 9dbd
000000e0: 4b37 b7bc d0b8 15be bb1c 8fbd 1820 1ebd
000000f0: 08ee 19be 1029 343d ba6d c83d 8e4b 37bd
00000100: d649 8b3e 8e90 b8bd 54b1 ebbc 4723 2f3e
00000110: 4196 19be d34e 16be 493a 4a3e bffb 60be
00000120: 1d1e c63e dc51 a6bc f494 8cbd 923d 7ebd
00000130: dbfe 2e3d f38c 8abe 5b1f c33c e367 4f3e
00000140: 98a1 453e 01ec 86bc 3333 ee3d c75f bcbd
00000150: de36 37be a116 9c3e 645a 973d 2199 6cbd
00000160: ad28 3c3e f87e 9fbe 8acc a7bd 65a9 9bbe
00000170: 72e4 88bd 37a2 e5bd 5242 84be 7485 85bd
00000180: fedb 0dbe 5a07 8e3e 6fb3 b1bd ad2b 8d3d
00000190: eeb8 b5bd 21a7 84bc d1dd 78bd 826f cbbc
000001a0: f701 a83d 88d6 ecbd b4f9 1abe f02e 033e
000001b0: 6d3a fabe 95ca 0e3e 7cac edbc b71e 5ebd
000001c0: 4fce 37be 929c 353d 5c2b aebe cdf5 2b3e
000001d0: eb46 dabd 24f3 90be d395 51bc 0ccc b13b
000001e0: 4749 ebbd 9a63 733e c113 61be 8932 1f3d
000001f0: c65b fdbd 81dc e93d b20b 71be f9f0 6e3e
00000200: be4c cdbc c70e c83e aa90 9dbb 8611 3abe
00000210: 05a5 36be d442 7ebd ac4f b8bd a249 95be
00000220: d40c 39be 8bda 1abe 1e12 6cbd 3c25 4b3e
00000230: 5c7f bcbe 9e08 ae3d 5217 903d dc39 b73c
00000240: 57af 6d3d 6b49 213d d9b2 64bd 68b3 8abd
00000250: e91c e2bd 6497 963e db8f 0abd 3982 5abe
00000260: b1f4 63bc 79a2 873d 3dac 7fbe 2e7e 273e
00000270: 6f08 afbd 8423 1fbe 0a49 51be 3689 233e
00000280: 5c24 9a3d 21af 1a3d 3824 673e 3eb9 be3e
00000290: a9b9 78bd 0735 103d 61e3 c43e 9cfb a2bd
000002a0: ae7a 073e a97c ca3d d75e 85be 319f 74be
000002b0: aa90 44be a23e 083e 5872 fcbc 2787 d13e
000002c0: ca64 c5bd 9772 a93b d034 8ebe d327 44be
000002d0: babe babd 151b 623e 1e74 d03d 10a4 7cbe
000002e0: 81a0 063e df4a 12be 6b88 e53d af72 4fbd
000002f0: c40d c33d 9dd8 bfbc f402 333e a9c3 e4bd
00000300: 6c85 d9be bb0b 3f3e 1192 f43d 9e43 1f3e
00000310: a9dc 60be fba0 e63d a469 4b3d 9878 07be
00000320: c4d1 e93b 7f1c 453e 095c b73e 9cf3 95bd
00000330: c7b4 72be 458c 773d f0a2 203d f8e6 823d
00000340: a497 8dbe c793 a7bd 1bc2 563e 4ec8 ca3d
00000350: 8b00 ff3d 3202 28bd bf08 383e 154c a7bd
00000360: 06e1 40be 7091 86be 859d e5bc 8458 753e
00000370: 8cd4 503e 9e99 bebd b3cd 093e 541a a43e
00000380: 27e0 0c3e 93d5 a7bb b870 363d 7378 f0ba
00000390: b5a6 c9bd 4261 1f3e fba3 21be 78df 2ebe
000003a0: 81b4 8a3d 586b 233e d281 233d fb9f 0c3e
000003b0: e914 64be 5f37 77be 69be e4bd a336 bfbd
000003c0: 2f02 7d3e bd70 96bd 653a 693c d2bf b73e
000003d0: b144 7fbe 542b 673e 9ef4 07be 2b31 58be
000003e0: 03cc b7bc b407 1d3c 2f49 bebe dec9 3b3e
000003f0: 3083 5abe 1e19 c63c 37c8 d8bd 6aff eb3d
-0.06944553 -0.092740685 -0.10522852 -0.00010229484 0.15220517 0.102509804 0.12750779 -0.2458797
0.26036942 -0.1496484 0.10494672 0.1951466 -0.13783059 -0.18779403 -0.21999583 0.066936515
0.113926895 0.0028324046 -0.028860928 -0.13440247 -0.28473082 0.030328276 -0.2212155 0.3887306
-0.07321851 0.27873397 0.51144946 -0.12268456 0.09602525 -0.46633625 0.23205562 0.1914059
0.23550883 -0.13338327 -0.15895498 0.14189133 0.22389033 -0.18081705 0.020459957 0.06842808
-0.06858755 0.38687158 0.059343748 0.12039974 0.016316017 0.28306517 -0.06367538 0.12774904
-0.007863897 -0.2287956 0.032892212 0.14816162 -0.020536141 -0.04355715 -0.011630259 -0.07685066
-0.022365233 -0.14621282 -0.06987902 -0.038604826 -0.15032208 0.043984473 0.09786554 -0.04474979
0.2720477 -0.090119466 -0.02877108 0.17103301 -0.14998724 -0.14678507 0.19748797 -0.21971034
0.3869485 -0.020302705 -0.06864348 -0.062070437 0.042723518 -0.2706066 0.023818662 0.20254473
0.19299924 -0.016469957 0.11630859 -0.091979556 -0.17892024 0.30486014 0.073902875 -0.057763223
0.18374892 -0.31151557 -0.081933096 -0.30402675 -0.066841975 -0.11212581 -0.25831848 -0.06519595
-0.13853452 0.27739984 -0.08676802 0.06893096 -0.08873163 -0.016192975 -0.060758416 -0.024833445
0.082035 -0.11564356 -0.15134317 0.12810874 -0.488727 0.13944466 -0.029012911 -0.05422851
-0.17949794 0.04433877 -0.34017456 0.16792984 -0.10658058 -0.28310502 -0.0127920685 0.0054259356
-0.11488586 0.23768464 -0.21980192 0.038866553 -0.1237102 0.11419011 -0.23539618 0.23334111
-0.025061008 0.39073774 -0.004808505 -0.18170747 -0.17836387 -0.06207545 -0.08999571 -0.2915774
-0.180713 -0.1512243 -0.057634465 0.19838423 -0.36815917 0.08497737 0.07035698 0.022366457
0.058028545 0.039376657 -0.055834625 -0.067725 -0.110406704 0.29412377 -0.033828598 -0.21338739
-0.013913319 0.06622786 -0.24968047 0.16356727 -0.085465305 -0.15540892 -0.20438018 0.1597031
0.07526466 0.037764672 0.2257241 0.37250704 -0.060723934 0.03520682 0.38454726 -0.07958147
0.13230392 0.09887058 -0.2604892 -0.23888852 -0.1919581 0.13305143 -0.030816242 0.40923426
-0.096383646 0.005171131 -0.27774668 -0.19155817 -0.091184095 0.22080643 0.101783976 -0.2467196
0.13147165 -0.14286374 0.1120766 -0.05064648 0.0952411 -0.023418719 0.17481595 -0.11170132
-0.42484605 0.18656819 0.119419225 0.15553138 -0.21959175 0.11261173 0.049661294 -0.13229597
0.0071356017 0.19249152 0.35812405 -0.073218554 -0.23701774 0.060436506 0.03921789 0.0639171
-0.27654755 -0.08182483 0.20972483 0.09901486 0.124512754 -0.04101772 0.17972086 -0.08168808
-0.1883584 -0.26282835 -0.028029213 0.23959547 0.2039358 -0.09306644 0.13457374 0.32051337
0.13757382 -0.0051218956 0.04454109 -0.0018346444 -0.0984625 0.15564445 -0.1578521 -0.17077434
0.0677271 0.15958917 0.03991873 0.13732903 -0.22273602 -0.24142216 -0.1116913 -0.09336593
0.24707864 -0.07345722 0.014235114 0.35888535 -0.24928547 0.22575122 -0.13276908 -0.21112506
-0.022436148 0.009584356 -0.3716521 0.18338725 -0.21339107 0.024181899 -0.10585063 0.11523326

base.mlp.fc_h.0.bias f4 [64]
00000000: 0000 0000 0000 0000 0000 0000 0000 0000
00000010: 0000 0000 0000 0000 0000 0000 0000 0000
00000020: 0000 0000 0000 0000 0000 0000 0000 0000
00000030: 0000 0000 0000 0000 0000 0000 0000 0000
00000040: 0000 0000 0000 0000 0000 0000 0000 0000
00000050: 0000 0000 0000 0000 0000 0000 0000 0000
00000060: 0000 0000 0000 0000 0000 0000 0000 0000
00000070: 0000 0000 0000 0000 0000 0000 0000 0000
00000080: 0000 0000 0000 0000 0000 0000 0000 0000
00000090: 0000 0000 0000 0000 0000 0000 0000 0000
000000a0: 0000 0000 0000 0000 0000 0000 0000 0000
000000b0: 0000 0000 0000 0000 0000 0000 0000 0000
000000c0: 0000 0000 0000 0000 0000 0000 0000 0000
000000d0: 0000 0000 0000 0000 0000 0000 0000 0000
000000e0: 0000 0000 0000 0000 0000 0000 0000 0000
000000f0: 0000 0000 0000 0000 0000 0000 0000 0000
0.0 0.0 0.0 0.0 0.0 0.0 0.0 0.0
0.0 0.0 0.0 0.0 0.0 0.0 0.0 0.0
0.0 0.0 0.0 0.0 0.0 0.0 0.0 0.0
0.0 0.0 0.0 0.0 0.0 0.0 0.0 0.0
0.0 0.0 0.0 0.0 0.0 0.0 0.0 0.0
0.0 0.0 0.0 0.0 0.0 0.0 0.0 0.0
0.0 0.0 0.0 0.0 0.0 0.0 0.0 0.0
0.0 0.0 0.0 0.0 0.0 0.0 0.0 0.0

base.mlp.fc_h.2.weight f4 [64]
00000000: 0000 803f 0000 803f 0000 803f 0000 803f
00000010: 0000 803f 0000 803f 0000 803f 0000 803f
00000020: 0000 803f 0000 803f 0000 803f 0000 803f
00000030: 0000 803f 0000 803f 0000 803f 0000 803f
00000040: 0000 803f 0000 803f 0000 803f 0000 803f
00000050: 0000 803f 0000 803f 0000 803f 0000 803f
00000060: 0000 803f 0000 803f 0000 803f 0000 803f
00000070: 0000 803f 0000 803f 0000 803f 0000 803f
00000080: 0000 803f 0000 803f 0000 803f 0000 803f
00000090: 0000 803f 0000 803f 0000 803f 0000 803f
000000a0: 0000 803f 0000 803f 0000 803f 0000 803f
000000b0: 0000 803f 0000 803f 0000 803f 0000 803f
000000c0: 0000 803f 0000 803f 0000 803f 0000 803f
000000d0: 0000 803f 0000 803f 0000 803f 0000 803f
000000e0: 0000 803f 0000 803f 0000 803f 0000 803f
000000f0: 0000 803f 0000 803f 0000 803f 0000 803f
1.0 1.0 1.0 1.0 1.0 1.0 1.0 1.0
1.0 1.0 1.0 1.0 1.0 1.0 1.0 1.0
1.0 1.0 1.0 1.0 1.0 1.0 1.0 1.0
1.0 1.0 1.0 1.0 1.0 1.0 1.0 1.0
1.0 1.0 1.0 1.0 1.0 1.0 1.0 1.0
1.0 1.0 1.0 1.0 1.0 1.0 1.0 1.0
1.0 1.0 1.0 1.0 1.0 1.0 1.0 1.0
1.0 1.0 1.0 1.0 1.0 1.0 1.0 1.0

base.mlp.fc_h.2.bias f4 [64]
00000000: 0000 0000 0000 0000 0000 0000 0000 0000
00000010: 0000 0000 0000 0000 0000 0000 0000 0000
00000020: 0000 0000 0000 0000 0000 0000 0000 0000
00000030: 0000 0000 0000 0000 0000 0000 0000 0000
00000040: 0000 0000 0000 0000 0000 0000 0000 0000
00000050: 0000 0000 0000 0000 0000 0000 0000 0000
00000060: 0000 0000 0000 0000 0000 0000 0000 0000
00000070: 0000 0000 0000 0000 0000 0000 0000 0000
00000080: 0000 0000 0000 0000 0000 0000 0000 0000
00000090: 0000 0000 0000 0000 0000 0000 0000 0000
000000a0: 0000 0000 0000 0000 0000 0000 0000 0000
000000b0: 0000 0000 0000 0000 0000 0000 0000 0000
000000c0: 0000 0000 0000 0000 0000 0000 0000 0000
000000d0: 0000 0000 0000 0000 0000 0000 0000 0000
000000e0: 0000 0000 0000 0000 0000 0000 0000 0000
000000f0: 0000 0000 0000 0000 0000 0000 0000 0000
0.0 0.0 0.0 0.0 0.0 0.0 0.0 0.0
0.0 0.0 0.0 0.0 0.0 0.0 0.0 0.0
0.0 0.0 0.0 0.0 0.0 0.0 0.0 0.0
0.0 0.0 0.0 0.0 0.0 0.0 0.0 0.0
0.0 0.0 0.0 0.0 0.0 0.0 0.0 0.0
0.0 0.0 0.0 0.0 0.0 0.0 0.0 0.0
0.0 0.0 0.0 0.0 0.0 0.0 0.0 0.0
0.0 0.0 0.0 0.0 0.0 0.0 0.0 0.0

base.mlp.fc2.0.0.weight f4 [64, 64]
00000000: 8994 91bd b531 c1bd 7c55 d6bd 4436 8e3a
00000010: 6aa9 1a3e a994 d33d 8599 043e 0e48 7cbe
00000020: d036 863e 86e9 1abe 2adf d43d e833 463e
00000030: e2c3 0ebe f0f9 41be 21f4 62be fad4 853d
00000040: 85f7 e53d 01e5 973b 45d0 f9bc 4841 0bbe
00000050: f848 91be e52a 033d 683c 60be f130 c63e
00000060: 4334 99bd c8fa 903e 0083 023f c0ea fbbd
00000070: f54d c13d e693 efbe 11d5 6f3e 5b8f 433e
00000080: 9e88 6f3e 1b36 0abe ad72 24be 85ab 0f3e
00000090: 764e 663e e4d1 3abe e82a b63c fdc8 883d
000000a0: 6c8b 8abd bf17 c63e 8747 6d3d 5253 f33d
000000b0: e849 713c a51d 903e 2ec3 85bd 3223 013e
000000c0: 76d2 c5bb 7c41 67be 6c77 0b3d 490a 163e
000000d0: acd2 99bc a81f 39bd 2aea 29bc 2b9b 98bd
000000e0: b65f bebc 8e66 17be 5d77 92bd 25d6 24bd
000000f0: 8c8e 1bbe f161 3b3d 3750 cb3d 32c4 36bd
00000100: d604 8c3e 03bd b5bd c692 eebc dc24 2e3e
00000110: 5c28 18be 11e7 16be 6868 483e 5240 60be
00000120: fc51 c53e 28ad 9abc 98f8 8abd bf99 78bd
00000130: d6a1 343d 45d2 89be bfcf ce3c bcd0 503e
00000140: 9517 473e abf9 93bc ca1c f13d 248e b9bd
00000150: 02fc 37be 3454 9b3e 5d31 933d 02c1 66bd
00000160: 5891 3d3e fdb0 a1be b4e0 a4bd 6d9c 9bbe
00000170: 8ef8 85bd 6dd0 e2bd f341 85be e618 85bd
00000180: 1073 0cbe c2bb 8e3e 4cc7 aebd 41fd 8f3d
00000190: 625c b7bd b029 72bc 4048 7fbd 77bf bfbc
000001a0: 9f88 a63d 466f ecbd d1bf 19be ae97 043e
000001b0: fb85 f9be 7d33 103e d1fc e1bc e846 58bd
000001c0: 4d76 39be 5e46 2a3d 9ca6 aebe b36b 2d3e
000001d0: d672 ddbd 1138 90be e6ad 62bc 59b9 573b
000001e0: 79f2 e9bd d5d9 743e f29d 5fbe 8c0a 253d
000001f0: 0c8a fabd 57ae e63d c144 72be ff09 6f3e
00000200: 4787 c1bc 08c5 c83e 82c2 a9bb ec13 3bbe
00000210: 643f 35be c15b 80bd 91f6 bbbd f0ec 94be
00000220: 2aa7 3abe 1f63 19be 5ecd 68bd 0491 4c3e
00000230: 93c9 bbbe d1f8 b03d c208 933d 5a97 c23c
00000240: ea91 733d 5eba 1a3d 99d4 5ebd 11dc 87bd
00000250: fdae e3bd bcd3 953e e6e2 12bd 8809 59be
00000260: 0b3c 4dbc a4d2 7d3d a533 7ebe c79d 273e
00000270: 2d17 acbd cfb7 1dbe 9448 53be 43c6 233e
00000280: f9fb 9c3d c05d 203d fa9c 683e 0c6f bf3e
00000290: 0212 7cbd a409 163d 3215 c43e 4c0a a0bd
000002a0: 8cb9 063e 3ed7 ca3d 92c0 84be 9e33 73be
000002b0: f724 43be 61aa 093e 71ad f0bc 7443 d23e
000002c0: b9b8 c8bd 545a 1e3b 06b2 8ebe 46af 42be
000002d0: b8ef bdbd e093 633e 1c4a ce3d ebd3 7ebe
000002e0: ee4f 073e ffd1 10be 6879 e83d 0490 49bd
000002f0: 29e5 c53d ada1 ccbc 77c6 313e b09f e4bd
00000300: 6c85 d9be bb0b 3f3e 1192 f43d 9e43 1f3e
00000310: a9dc 60be fba0 e63d a469 4b3d 9878 07be
00000320: c4d1 e93b 7f1c 453e 095c b73e 9cf3 95bd
00000330: c7b4 72be 458c 773d f0a2 203d f8e6 823d
00000340: a497 8dbe c793 a7bd 1bc2 563e 4ec8 ca3d
00000350: 8b00 ff3d 3202 28bd bf08 383e 154c a7bd
00000360: 06e1 40be 7091 86be 859d e5bc 8458 753e
00000370: 8cd4 503e 9e99 bebd b3cd 093e 541a a43e
00000380: 27e0 0c3e 93d5 a7bb b870 363d 7378 f0ba
00000390: b5a6 c9bd 4261 1f3e fba3 21be 78df 2ebe
000003a0: 81b4 8a3d 586b 233e d281 233d fb9f 0c3e
000003b0: e914 64be 5f37 77be 69be e4bd a336 bfbd
000003c0: 2f02 7d3e bd70 96bd 653a 693c d2bf b73e
000003d0: b144 7fbe 542b 673e 9ef4 07be 2b31 58be
000003e0: 03cc b7bc b407 1d3c 2f49 bebe dec9 3b3e
000003f0: 3083 5abe 1e19 c63c 37c8 d8bd 6aff eb3d
-0.07108409 -0.09433309 -0.104655236 0.0010849913 0.15103689 0.10331089 0.12949188 -0.24636862
0.26213694 -0.15128145 0.10394128 0.19355738 -0.13941911 -0.18943 -0.2216344 0.06534763
0.11228851 0.0046354537 -0.030494818 -0.13599122 -0.28375983 0.03202333 -0.21898043 0.38709214
-0.07480671 0.2831633 0.5098114 -0.123006344 0.09438697 -0.46792525 0.23421122 0.19097655
0.23391959 -0.13497202 -0.1605937 0.14030273 0.22490868 -0.1824413 0.022237256 0.066789605
-0.06764874 0.38689992 0.057929542 0.118811265 0.014727093 0.28147617 -0.06531368 0.12611082
-0.006037052 -0.22583574 0.034049436 0.14652361 -0.018777214 -0.045196205 -0.0103707705 -0.07451471
-0.023238998 -0.14785215 -0.07151673 -0.040243287 -0.15191096 0.0457477 0.09927409 -0.0446207
0.2734744 -0.08873942 -0.029122721 0.17006248 -0.14859146 -0.14736582 0.19571078 -0.21899536
0.38539112 -0.018881395 -0.06785697 -0.0606935 0.04409965 -0.26918235 0.025245545 0.20392126
0.1944259 -0.018063387 0.11773069 -0.09060314 -0.17967227 0.3033768 0.0718715 -0.05633641
0.18512475 -0.31580344 -0.08050671 -0.3039278 -0.06541549 -0.1107491 -0.26026878 -0.064988896
-0.13715768 0.27877623 -0.085341066 0.07030726 -0.089531675 -0.014780447 -0.062324762 -0.023406727
0.08131527 -0.11544661 -0.15014578 0.12948486 -0.4873503 0.14082141 -0.027586373 -0.052801996
-0.18111534 0.041571014 -0.34111488 0.16935615 -0.10812919 -0.28167775 -0.013835406 0.0032916872
-0.11423201 0.23911221 -0.21837595 0.04029326 -0.122333616 0.112637214 -0.2365904 0.23343657
-0.023624076 0.39212823 -0.005180658 -0.18269318 -0.17699963 -0.06267501 -0.09177888 -0.2908702
-0.1822783 -0.14979218 -0.05683648 0.19977194 -0.36677226 0.08641208 0.07179405 0.02375381
0.059465326 0.03777539 -0.054401968 -0.06633771 -0.11117361 0.29263103 -0.03586092 -0.21195042
-0.012526522 0.06196846 -0.24824388 0.16368781 -0.08402858 -0.15402149 -0.20633155 0.159936
0.076652475 0.039151907 0.22716132 0.3738941 -0.06154061 0.036630288 0.3829742 -0.07814464
0.13156718 0.099043354 -0.2592817 -0.23750159 -0.1905707 0.134439 -0.029379578 0.41067088
-0.09800858 0.0024162726 -0.27870196 -0.19012174 -0.09274238 0.22224379 0.10072729 -0.24885528
0.13214085 -0.14142607 0.113512814 -0.04920961 0.096628495 -0.024979437 0.17360865 -0.111632705
-0.42484605 0.18656819 0.119419225 0.15553138 -0.21959175 0.11261173 0.049661294 -0.13229597
0.0071356017 0.19249152 0.35812405 -0.073218554 -0.23701774 0.060436506 0.03921789 0.0639171
-0.27654755 -0.08182483 0.20972483 0.09901486 0.124512754 -0.04101772 0.17972086 -0.08168808
-0.1883584 -0.26282835 -0.028029213 0.23959547 0.2039358 -0.09306644 0.13457374 0.32051337
0.13757382 -0.0051218956 0.04454109 -0.0018346444 -0.0984625 0.15564445 -0.1578521 -0.17077434
0.0677271 0.15958917 0.03991873 0.13732903 -0.22273602 -0.24142216 -0.1116913 -0.09336593
0.24707864 -0.07345722 0.014235114 0.35888535 -0.24928547 0.22575122 -0.13276908 -0.21112506
-0.022436148 0.009584356 -0.3716521 0.18338725 -0.21339107 0.024181899 -0.10585063 0.11523326

base.mlp.fc2.0.0.bias f4 [64]
00000000: 0e50 d33a 527f b7ba 75d8 b8ba 0000 0000
00000010: 5be9 ccba 239e cb3a fd55 83ba 0000 0000
00000020: 0000 0000 0000 0000 b06c c83b 0000 0000
00000030: 0b39 d93a 64e7 ceba 0000 0000 0000 0000
00000040: 0000 0000 74f5 caba 0000 0000 0000 0000
00000050: 04df 92bb 27ea 0f3b 0000 0000 0000 0000
00000060: 0000 0000 beb5 0d3c 0000 0000 0000 0000
00000070: 5440 983a 0000 0000 3db0 033b 20bb 85ba
00000080: 5e02 cc3a 0000 0000 0000 0000 0000 0000
00000090: 891c c1ba 320e a03a 0000 0000 71b3 c7ba
000000a0: 0000 0000 2692 e5b9 0000 0000 e627 3b39
000000b0: 0000 0000 870d 97bb 0000 0000 acf2 d1ba
000000c0: 0000 0000 0000 0000 9132 473b 0000 0000
000000d0: 836b c03a 0000 0000 0000 0000 7d75 d4ba
000000e0: 0000 0000 09b6 71ba 0000 0000 0000 0000
000000f0: f5cb 77bb 8e5b d4ba 0000 0000 0000 0000
0.0016121881 -0.0013999736 -0.0014102595 0.0 -0.001563351 0.0015534799 -0.0010020133 0.0
0.0 0.0 0.006116472 0.0 0.0016572786 -0.0015785513 0.0 0.0
0.0 -0.0015484528 0.0 0.0 -0.004482152 0.0021959634 0.0 0.0
0.0 0.008649288 0.0 0.0 0.0011615851 0.0 0.002009406 -0.0010202862
0.001556467 0.0 0.0 0.0 -0.0014733236 0.0012211262 0.0 -0.0015235973
0.0 -0.00043787173 0.0 0.00017848573 0.0 -0.004609767 0.0 -0.0016017756
0.0 0.0 0.003039513 0.0 0.0014680478 0.0 0.0 -0.0016209331
0.0 -0.0009220546 0.0 0.0 -0.0037810777 -0.0016201602 0.0 0.0

base.mlp.fc2.0.2.weight f4 [64]
00000000: 0504 803f 21f1 7e3f c838 7d3f b589 7f3f
00000010: ad73 7e3f 8ac2 7f3f 2562 7f3f 737a 7f3f
00000020: 8037 803f ce2f 803f 438a 7f3f fb36 803f
00000030: 28f9 7f3f efc8 7f3f a937 803f e264 7f3f
00000040: 147f 7f3f ebc7 7c3f f87e 7f3f c36e 7f3f
00000050: 2b54 7f3f 7d08 803f 8c36 803f 9e76 7f3f
00000060: d285 7f3f bc9a 7f3f 667f 7f3f 3288 7f3f
00000070: 0d3f 7f3f 2a85 7f3f 5320 803f fc48 7f3f
00000080: 8ae1 7f3f ee30 803f fe73 7f3f e237 803f
00000090: b16b 7d3f 7137 7f3f bd33 803f c9ac 7e3f
000000a0: fb86 7f3f 3a47 7f3f a5fd 7e3f 1e76 7f3f
000000b0: cd34 803f 90d0 7f3f 7988 7f3f fed1 7f3f
000000c0: c488 7f3f 2f1e 803f 0e09 803f a4ce 7c3f
000000d0: 8423 7e3f 4a82 7f3f b286 7f3f a90b 803f
000000e0: 4589 7f3f c35f 7f3f d335 803f c42a 803f
000000f0: 8f11 803f 9152 7f3f 2c38 803f 7c84 7f3f
1.0001227 0.99586684 0.98914766 0.998195 0.9939526 0.9990622 0.9975913 0.9979622
1.0016937 1.0014589 0.99820346 1.0016779 0.9998956 0.99915975 1.0016986 0.9976331
0.9980328 0.9874255 0.99803114 0.99778384 0.99737805 1.000259 1.0016646 0.9979037
0.9981357 0.9984548 0.9980377 0.9981719 0.9970558 0.9981257 1.0009865 0.9972074
0.9995352 1.0014932 0.99786365 1.0017054 0.9899245 0.9969397 1.0015789 0.994824
0.9981534 0.9971806 0.9960578 0.9978961 1.0016114 0.99927616 0.99817616 0.999298
0.9981806 1.0009211 1.0002763 0.9875281 0.9927294 0.9980818 0.99814904 1.0003558
0.9981883 0.99755496 1.0016426 1.0013051 1.0005358 0.9973536 1.0017142 0.9981153

base.mlp.fc2.0.2.bias f4 [64]
00000000: 5384 b93a 8c15 d4ba 1401 bbba 8148 ca3a
00000010: 1e1b c9ba 3b1e ba3a 5de3 cdba 4f72 e93a
00000020: 146f bbba c03b 9cba 3f7c 04bb ef5d b9ba
00000030: a68e bb3a 826e b1ba 9023 bcba b0cc 0a3b
00000040: 64f7 df3a ea65 c8ba 9235 e03a dcae 003b
00000050: 5a2c b2ba 5232 973a 049f b7ba e145 f13a
00000060: ff31 d23a a38a d8ba 3a52 df3a 0c5e cd3a
00000070: 7a6d df3a 568d d33a 5d50 ba3a 9c3b d8ba
00000080: 4830 ba3a 02d0 a0ba b8a5 f63a 28fd bcba
00000090: 7c1f cbba e56f a23a 1641 acba d464 c0ba
000000a0: d1da cf3a 3acc dcba 109a 753b 76a5 cfba
000000b0: c683 b0ba a408 bcba aecd cc3a 78cd bdba
000000c0: 3233 cc3a 40c1 29ba a908 1f3a 29b4 523c
000000d0: 0234 cb3a c26d d93a 3973 d03a e1c5 9cba
000000e0: b636 cb3a 61c6 ccba 60a8 b4ba bde1 87ba
000000f0: 1b66 f2b9 fc27 d5ba 9033 beba cced d43a
0.0014153816 -0.0016180738 -0.0014267289 0.0015432985 -0.0015343165 0.0014199683 -0.0015708018 0.0017810556
-0.0014300072 -0.0011919662 -0.0020215658 -0.0014142374 0.001430948 -0.0013536962 -0.001435386 0.0021179132
0.0017087278 -0.0015289162 0.0017105809 0.0019635474 -0.001359354 0.0011535382 -0.0014009182 0.0018407666
0.0016036629 -0.0016520809 0.0017038055 0.0015668287 0.0017046176 0.0016140144 0.0014214624 -0.0016497257
0.0014205063 -0.0012269022 0.0018817699 -0.0014418708 -0.0015497054 0.0012392966 -0.0013141956 -0.0014678487
0.0015858059 -0.0016845532 0.0037475862 -0.0015842158 -0.0013467006 -0.0014345837 0.0015625262 -0.001448079
0.0015579222 -0.0006475635 0.0006066659 0.012860336 0.001550317 0.0016588497 0.001590348 -0.0011960828
0.0015503976 -0.0015623086 -0.001378309 -0.0010366958 -0.0004623391 -0.0016262527 -0.0014511216 0.0016245185

v_out.weight f4 [1, 64]
00000000: 1dd1 f0bd 5674 b73d 9b35 803d 60c0 93be
00000010: 52a0 ab3e 5ce6 fcbd 18a9 263e c40a 1cbd
00000020: cdb9 0f3e b99f 0d3d 9c26 aa3c ad84 ee3d
00000030: 069d 14be 6065 923d 718d 1a3e 660a 89bc
00000040: 88da 54bd 18a7 9c3d 6ee5 52bd 3a3b b9bc
00000050: 17ce 913d bef5 f9bc 9693 d03d dc55 ffbc
00000060: 2302 dfbd 6da5 963d 7d3b 5abd 10ff 33be
00000070: 4b15 55bd 6568 c9bd b433 01be 6250 923d
00000080: ba56 02be 0905 1f3d 70d2 e2bc 7700 2a3e
00000090: a2c8 bd3c 7554 17bd 671c 663d bb88 853e
000000a0: ffc4 08be cb92 6c3d 22a7 84bb 557a 0b3e
000000b0: e636 8a3d 6453 1c3e 2ae0 41be 39ce 403e
000000c0: b348 53be a389 553c ce68 47bc b084 5639
000000d0: 662a 49be b5b9 8dbd 1c52 01be 088d 123d
000000e0: ba9e 77be ad2f 3f3e 6800 ac3d 9739 bf3c
000000f0: c92b 323c df9b a73d a44e 463e d65a b7bd
-0.11758635 0.08957736 0.062602244 -0.28857708 0.33520752 -0.12348625 0.16275442 -0.038096204
0.14035721 0.03457615 0.020770364 0.116464 -0.14513025 0.07148242 0.15093018 -0.016728591
-0.05196622 0.07649058 -0.051488332 -0.02261125 0.07119387 -0.030512687 0.101844 -0.03116887
-0.108890794 0.07355771 -0.05327939 -0.17577767 -0.05202226 -0.09834365 -0.1261738 0.07144238
-0.12728396 0.03882316 -0.027688235 0.1660174 0.023166958 -0.03694578 0.05617943 0.2608088
-0.13356398 0.05775718 -0.004048244 0.13620885 0.06748752 0.15266186 -0.18933168 0.18828668
-0.20633201 0.013033303 -0.0121709835 0.0002045806 -0.1964508 -0.069201864 -0.12628978 0.03577903
-0.24181643 0.1867053 0.08398515 0.02334289 0.010874697 0.08184027 0.19365937 -0.089528725
