mappo_ros/onpolicy/scripts/results/MPE/simple_spread/mappo/check/wandb/offline-run-20230123_101604-ptcce85l/files/actor.pt (torch_old, 42840 bytes, 16 tensors)

base.feature_norm.weight f4 [14]
0	0x3f878390	1.0587025
1	0x3f932358	1.1495161
2	0x3f83c613	1.0294822
3	0x3f746e69	0.9548097
4	0x3f897c7c	1.0741115
5	0x3f7404fc	0.95320106
6	0x3f7baf6d	0.98314553
7	0x3f72ca50	0.94839954
8	0x3f85284a	1.040292
9	0x3f7a920f	0.9787912
10	0x3f8188e9	1.0119907
11	0x3f7ceb06	0.9879612
12	0x3f76802b	0.9628932
13	0x3f80b648	1.0055628

base.feature_norm.bias f4 [14]
0	0xbc9b06d6	-0.018924158
1	0xbca2a868	-0.019855693
2	0xbc8969ae	-0.016774025
3	0x3c62dd22	0.0138466675
4	0x3b9be8e5	0.004757988
5	0xbcf7dcb0	-0.0302566
6	0xbd5fc1e0	-0.054628253
7	0xbb06442f	-0.0020487418
8	0xbd29af07	-0.041426685
9	0x3be03b04	0.0068429727
10	0x3b7dd807	0.0038733499
11	0xbb8db665	-0.0043247216
12	0x3d3bac73	0.045818757
13	0xbdf1529d	-0.11783335

base.mlp.fc1.0.weight f4 [64, 14]
0	0x3ea06e3e	0.31334108
1	0x3d333f89	0.043761764
2	0x3e2c0ce4	0.16801792
3	0xbd603950	-0.054742157
4	0xbe11d518	-0.14241445
5	0xbe8b6442	-0.27224928
6	0xbe8d18b6	-0.27557915
7	0x3e5fef64	0.21868664
8	0xbe43d578	-0.191244
9	0xbccc4369	-0.024934487
10	0xbd5c5b7e	-0.05379819
11	0x3d658908	0.056038886
12	0x3ed0be9b	0.4077042
13	0x3ea206e1	0.31645873
14	0x3e900b76	0.28133744
15	0x3e193616	0.14962038
16	0x3e2f614c	0.1712696
17	0xbd880459	-0.06641454
18	0xbe238e3d	-0.15972228
19	0x3e69943f	0.22810458
20	0x3dd3584d	0.103195764
21	0x3c48f1f5	0.012264718
22	0xbe72ca58	-0.2371
23	0x3e018190	0.1264708
24	0x3dcf322d	0.10116992
25	0x3dbdb350	0.09262717
26	0x3eb1380e	0.3461308
27	0xbe658af8	-0.22416294
28	0xbd30c00a	-0.043151893
29	0x3ece4fc3	0.40295228
30	0xbc10e998	-0.008844756
31	0xbd96410b	-0.07336625
32	0xbe86df73	-0.26342353
33	0xbda5c6f4	-0.08094588
34	0x3dbef269	0.0932358
35	0xbd078f00	-0.03309536
36	0xbe619750	-0.22030377
37	0xbdb91ba6	-0.09038477
38	0xbd5d6051	-0.054046933
39	0xbd2fdc23	-0.042934548
40	0x3e623477	0.22090326
41	0x3d57cf0b	0.052687686
42	0x3df19ef2	0.117978945
43	0x3f00cd8f	0.5031366
44	0x3d8197a9	0.06327755
45	0xbdcd0be4	-0.100120336
46	0xbde4d240	-0.111729145
47	0x3e41dfe4	0.18933064
48	0xbd9cbd28	-0.07653266
49	0x3dc2ef15	0.095182575
50	0xbed29024	-0.41125596
51	0x3ed69f1c	0.41918266
52	0x3e607a07	0.2192155
53	0xbdb58406	-0.08863072
54	0xbe2d2714	-0.16909438
55	0xbd8bd63c	-0.06827971
56	0xbe222927	-0.15836011
57	0xbd6fa5f9	-0.058507893
58	0xbdb05d28	-0.08611518
59	0x3e963854	0.2933985
60	0xbdbe7407	-0.09299474
61	0x3da4296c	0.08015713
62	0x3e3debbf	0.18546961
63	0x3e42f4e8	0.19038737
64	0x3e4eca96	0.20194468
65	0xbdff3c00	-0.12462616
66	0x3dda5f52	0.10662712
67	0xbe34f09d	-0.17669912
68	0x3d4f4442	0.050602205
69	0xbda46479	-0.08026976
70	0xbb4aede9	-0.003096456
71	0xbe07041b	-0.1318516
72	0xbe66b16a	-0.22528616
73	0xbe1804fc	-0.14845651
74	0xbe730bbc	-0.23734945
75	0x3dbc5c8f	0.09197342
76	0x3d974daa	0.0738786
77	0xbe27be86	-0.16381273
78	0x3e9d7f51	0.30761197
79	0x3d4a691f	0.049416658
80	0xbdca00af	-0.09863412
81	0xbecd70ca	-0.40125114
82	0xbd856bed	-0.06514726
83	0x3e502da6	0.20329913
84	0x3e984a02	0.29743963
85	0xbeec5239	-0.4615648
86	0xbd4f52af	-0.050615963
87	0xbe949ee3	-0.2902747
88	0x3d16912b	0.036759537
89	0x3da28cf6	0.079370424
90	0x3c129d76	0.008948674
91	0x3e426d1b	0.18986933
92	0x3c976689	0.01848151
93	0xbcb67d58	-0.022276565
94	0xbea48ba9	-0.32137802
95	0x3d91ce60	0.07119441
96	0x3e25c337	0.1618775
97	0xbe67778c	-0.22604197
98	0xbe36f79d	-0.17867894
99	0x3e2674cc	0.16255492
100	0x3e887277	0.2664983
101	0xbe32e073	-0.17468433
102	0x3e1a17ac	0.15048093
103	0x3e26af61	0.16277839
104	0x3dd1b47c	0.10239503
105	0x3d275fe8	0.040862948
106	0x3cd6038f	0.026124744
107	0x3e35730c	0.17719668
108	0xbde9c75f	-0.1141498
109	0x3dcff31d	0.10153792
110	0x3d74c958	0.05976233
111	0xbd98f607	-0.07468801
112	0x3db20d4a	0.08693941
113	0xbe494a20	-0.19657183
114	0x3d378b7e	0.044810764
115	0xbc98c9b6	-0.01865087
116	0x3e45136b	0.19245689
117	0xbec0f5fe	-0.37687677
118	0x3d15b37c	0.036548123
119	0x3e7edfec	0.24890107
120	0xbe3d1dbc	-0.18468374
121	0xbcb00013	-0.02148441
122	0x3d9ed264	0.077549726
123	0xbd013aee	-0.03155034
124	0xbe9bfa73	-0.30464515
125	0xbe32e74a	-0.17471042
126	0x3d71b113	0.05900676
127	0x3e230948	0.1592151
128	0x3e529558	0.20564783
129	0xbe99abf7	-0.3001401
130	0xbe3a94d6	-0.18220839
131	0xbe9419e6	-0.2892601
132	0xbd03f496	-0.032215677
133	0xbd18aed8	-0.03727612
134	0x3e2f7a42	0.17136481
135	0xbe56d2ec	-0.20978898
136	0x3dceab7c	0.10091302
137	0x3df5fb1e	0.120107874
138	0x3dde802c	0.108642906
139	0x3de669c0	0.11250639
140	0xbd3837ba	-0.04497502
141	0x3cc5cef6	0.024146538
142	0x3eaf8c17	0.34286568
143	0x3e045ccf	0.12926029
144	0xba930888	-0.0011217752
145	0xbea34fac	-0.31896722
146	0xbea86c0a	-0.32894927
147	0x3ea982b1	0.33107522
148	0x3df0fcaf	0.117669456
149	0x3e0a1fc0	0.13488674
150	0xbe290199	-0.16504516
151	0xbd7c2bf5	-0.06156536
152	0x3d210056	0.03930696
153	0xbd720c2f	-0.05909365
154	0xbca0eac2	-0.019643191
155	0x3c940b6a	0.018071849
156	0x3eb115a9	0.34586838
157	0x3e1a0972	0.15042666
158	0x3d63b194	0.055589274
159	0xbe0ce87c	-0.13760561
160	0x3e3d60b6	0.18493924
161	0xbe803340	-0.250391
162	0x3e0c7801	0.13717653
163	0x3d538d14	0.051648214
164	0x3e4825b5	0.19545634
165	0x3d83ec34	0.064415365
166	0x3e591f84	0.21203429
167	0xbdf14428	-0.11780578
168	0x3e8d18da	0.27558023
169	0xbeac1bf2	-0.3361507
170	0xbe9c2b52	-0.305018
171	0xbe840be8	-0.25790334
172	0xba05dca3	-0.0005106425
173	0xbb8c7f36	-0.0042876257
174	0x3df25b34	0.11833802
175	0x3e190669	0.14943852
176	0xbea930ef	-0.33045146
177	0xbd9d7c27	-0.07689696
178	0x3e030df3	0.1279829
179	0xbe3ee05a	-0.18640271
180	0xbdbd7c9e	-0.092522845
181	0x3eb514bc	0.35367382
182	0x3edfd162	0.43714434
183	0xbdcfdf1d	-0.10149977
184	0xbe3e3fb5	-0.1857899
185	0x3de0baed	0.10973153
186	0x3dc4ead1	0.096151
187	0x3e986e7c	0.29771793
188	0xbd17264a	-0.03690175
189	0x3e99ec55	0.3006312
190	0x3ef9e0a5	0.48804203
191	0xbdcce554	-0.10004678
192	0x3e1ff3a2	0.15620282
193	0xbc81ec6f	-0.01585981
194	0x3e3374c8	0.17525017
195	0x3b925ec2	0.0044668624
196	0xbe856600	-0.26054382
197	0x3e373861	0.178926
198	0x3d1d6629	0.038427506
199	0xbdc09b9a	-0.09404679
200	0x3e00b6bd	0.12569709
201	0xbe0389fe	-0.12845609
202	0xbcaacc26	-0.020849299
203	0x3def2476	0.11676876
204	0x3ecc476b	0.39898238
205	0x3c6feb36	0.014643481
206	0x3dca045b	0.09864112
207	0xbdac0591	-0.08399499
208	0xbdf3862f	-0.11890828
209	0x3e03839b	0.12843172
210	0xbe2d162d	-0.1690299
211	0xbbd3f1a9	-0.006468017
212	0x3e843f61	0.25829604
213	0x3e6c7dfd	0.23094936
214	0x3d085328	0.03328243
215	0xbbe60f2a	-0.0070208507
216	0xbda74f5c	-0.081694335
217	0xbd62e942	-0.055398233
218	0x3acb2f95	0.0015501851
219	0xbcd5e253	-0.026108896
220	0x3deaeed7	0.11471336
221	0xbd7193fe	-0.058979027
222	0xbe27f026	-0.16400203
223	0x3c04373c	0.0080698095
224	0xbe973fb3	-0.29540786
225	0xbbc718ab	-0.0060759387
226	0xbe947a5d	-0.28999606
227	0x3e28cc3d	0.1648416
228	0x3d0ca444	0.034336343
229	0x3be0a556	0.006855647
230	0xbe7f38ea	-0.24924055
231	0xbdb279f9	-0.08714671
232	0xbc3e1b10	-0.011603132
233	0x3eda4850	0.42633295
234	0xbe95dd33	-0.29270324
235	0xbde16e80	-0.11007404
236	0xbe268734	-0.16262513
237	0xbc62c977	-0.013841978
238	0x3e9f16ca	0.31072074
239	0xbece678b	-0.40313372
240	0x3e2e271a	0.17007104
241	0x3ee67409	0.45010403
242	0x3dfcc32b	0.12341913
243	0xbd59d434	-0.05318089
244	0x3d70d924	0.05880083
245	0x3be592af	0.0070060114
246	0xbd1dec56	-0.038555466
247	0xbda5f4f6	-0.08103363
248	0x3ed98ad7	0.4248874
249	0x3d8a3fa3	0.06750419
250	0xbe7b4b4d	-0.24540444
251	0xbd2f557d	-0.042806137
252	0x3e45bc85	0.19310196
253	0xbe0287f8	-0.1274718
254	0xbe199c10	-0.1500094
255	0xbe85525c	-0.26039398

base.mlp.fc1.0.bias f4 [64]
0	0x3d492142	0.049103983
1	0xbd3a1c1d	-0.045436967
2	0xbc5073a2	-0.0127228815
3	0x3d342d8e	0.043988757
4	0x3a9cacb6	0.0011953327
5	0x3cad4c00	0.021154404
6	0x3d6ab915	0.057305414
7	0xbcd939a6	-0.026516747
8	0xbac4a1f7	-0.0015001883
9	0x3cae5e8b	0.021285316
10	0x3c6fcb80	0.0146359205
11	0x3d3095de	0.043111674
12	0x3bf2c0c2	0.0074082324
13	0x3cc61a2d	0.024182403
14	0xbcace949	-0.021107333
15	0x3bcbcc94	0.006219456
16	0x3d88a7e7	0.0667265
17	0xbb7f207a	-0.003892927
18	0xbd81b605	-0.063335456
19	0x3d4f43a4	0.050601617
20	0x3bc5475f	0.006020471
21	0x3d0e7758	0.034781784
22	0xbc880285	-0.016602764
23	0xbc27c726	-0.010240352
24	0xba5e7ca1	-0.0008487199
25	0xbd9c1ea6	-0.07623033
26	0xbc726812	-0.01479532
27	0xbd4280ba	-0.047486044
28	0x3c787aee	0.0151660275
29	0xbd9c4ded	-0.07632051
30	0xbc19fa15	-0.009398003
31	0xbd410817	-0.047126856
32	0xbd249d85	-0.040189285
33	0xbae95418	-0.0017801551
34	0x3b5ce7fe	0.0033707614
35	0x3d4be861	0.04978216
36	0x3d076906	0.033059143
37	0x3cd673c3	0.026178246
38	0xbbee3a67	-0.0072701457
39	0xbd0be9c0	-0.03415847
40	0x3b6cfebf	0.0036162583
41	0xbd1c9d5f	-0.03823602
42	0x3d900def	0.070339076
43	0xbd21c0f2	-0.039490648
44	0x3c9f497d	0.019444222
45	0xbd9f769f	-0.07786297
46	0xbd7db17c	-0.06193684
47	0x3c480d5d	0.012210217
48	0xbac85cd6	-0.0015286456
49	0xbce200bf	-0.027588246
50	0xbcee7a84	-0.029111154
51	0xbd10fde0	-0.035398364
52	0xbd480cd1	-0.048840348
53	0x3cd618bd	0.026134843
54	0xbd884bf9	-0.06655116
55	0x3ceb7d0b	0.028746149
56	0xbc18d1da	-0.009327376
57	0x3d9f051b	0.07764646
58	0x3bcf231c	0.006321324
59	0x394f8a16	0.000197925
60	0x3d1582fd	0.036501873
61	0xbcda449b	-0.026644042
62	0x3d6e6759	0.05820403
63	0xbd58c145	-0.05291869

base.mlp.fc1.2.weight f4 [64]
0	0x3f89f3f2	1.0777571
1	0x3f804e69	1.0023929
2	0x3f8a9681	1.082718
3	0x3f7ace5d	0.97971135
4	0x3f71708a	0.94312346
5	0x3f746a80	0.95475006
6	0x3f833606	1.0250862
7	0x3f7ad2a5	0.9797767
8	0x3f711535	0.94172984
9	0x3f81de8c	1.0146041
10	0x3f851063	1.0395626
11	0x3f801b4d	1.0008332
12	0x3f899c3e	1.0750806
13	0x3f832b8f	1.0247668
14	0x3f874d1c	1.0570407
15	0x3f7a98e2	0.9788953
16	0x3f822d9e	1.0170171
17	0x3f872179	1.055709
18	0x3f7b3598	0.9812865
19	0x3f8fc98c	1.1233382
20	0x3f7f564a	0.9974104
21	0x3f889e11	1.0673238
22	0x3f857495	1.0426203
23	0x3f829f7d	1.0204922
24	0x3f8018e8	1.0007601
25	0x3f82c276	1.0215595
26	0x3f79de15	0.97604495
27	0x3f6cfa8e	0.92569816
28	0x3f71982f	0.9437284
29	0x3f746def	0.95480245
30	0x3f753b50	0.9579363
31	0x3f81fd74	1.0155473
32	0x3f78e915	0.97230655
33	0x3f6ac6a0	0.9170933
34	0x3f7ee637	0.9957003
35	0x3f7b08d5	0.9806035
36	0x3f7cf60b	0.9881293
37	0x3f84ee83	1.0385288
38	0x3f872a99	1.0559875
39	0x3f789ca6	0.97114027
40	0x3f7ad6d7	0.9798407
41	0x3f81a996	1.0129879
42	0x3f7f99a3	0.99843806
43	0x3f7b14ff	0.9807891
44	0x3f81dcfc	1.0145564
45	0x3f76e925	0.964495
46	0x3f7da5db	0.990812
47	0x3f8438c6	1.0329826
48	0x3f76c577	0.9639506
49	0x3f7b983f	0.98279184
50	0x3f85d701	1.0456239
51	0x3f7f8ecf	0.99827284
52	0x3f87d32a	1.0611317
53	0x3f77eab7	0.9684252
54	0x3f7cff84	0.98827386
55	0x3f838333	1.0274414
56	0x3f7714f5	0.9651635
57	0x3f80e59f	1.0070075
58	0x3f822b0e	1.0169389
59	0x3f7a097e	0.97670734
60	0x3f81f403	1.0152591
61	0x3f808275	1.0039812
62	0x3f72cb4c	0.94841456
63	0x3f7ce06b	0.98779935

base.mlp.fc1.2.bias f4 [64]
0	0xbc5b4920	-0.013384134
1	0xbb4793b7	-0.0030453035
2	0xbbadf920	-0.005309239
3	0x3d40c918	0.047066778
4	0x3cb64485	0.02224947
5	0xbba475cd	-0.0050189258
6	0x3c2ece8c	0.010669362
7	0x3b9453bf	0.004526585
8	0xbcefc9ac	-0.02927097
9	0x3c34ff15	0.011047144
10	0xbcc7e06b	-0.024399003
11	0x3d9368e0	0.07197738
12	0xbd4fe612	-0.05075652
13	0xbcbe7745	-0.023250232
14	0xbbdafa0a	-0.006682639
15	0xbbeeb94c	-0.0072852727
16	0x3d1a3948	0.037652284
17	0x3ca58477	0.020204766
18	0xbcdd7fd8	-0.0270385
19	0xbc4e5160	-0.0125926435
20	0xbaedfce1	-0.0018157029
21	0x3b1b780c	0.0023722677
22	0xbd187e75	-0.037229974
23	0x3cccaa24	0.024983473
24	0xbc457da2	-0.012053879
25	0xbdbc5b04	-0.09197047
26	0xbba054ff	-0.004892945
27	0xbd4aafdc	-0.04948412
28	0x3c2ebf92	0.010665791
29	0xbd37d156	-0.044877373
30	0x3c8f6805	0.017505655
31	0xbdc7063c	-0.09717986
32	0xbc53f9dc	-0.012937989
33	0x3b65e00a	0.0035076165
34	0xbc0ab3b9	-0.008465701
35	0x3d18089e	0.037117593
36	0x3c94b393	0.018152034
37	0xbc6a0848	-0.014284201
38	0xbd30649d	-0.043064702
39	0xbbeaf497	-0.0071702707
40	0x3c44ec25	0.012019192
41	0xbd7002d0	-0.058596432
42	0x3ca4a145	0.02009643
43	0x3cf115a3	0.029429263
44	0xbc83a034	-0.016067602
45	0xbdc36ade	-0.09541868
46	0xbc87aee3	-0.016562885
47	0x3bcc7686	0.006239715
48	0x3cbe8366	0.023256015
49	0xbc184c8b	-0.009295593
50	0xbcff844c	-0.031191014
51	0x3ba23a24	0.0049507786
52	0xbd54c906	-0.051949523
53	0x3d2fe6e7	0.042944815
54	0xbd9a77c5	-0.075423755
55	0x3d10e1cd	0.03537159
56	0xbc231371	-0.009953366
57	0x3d838c18	0.06423205
58	0x3c78376a	0.0151499305
59	0xbcc2f3ac	-0.023797832
60	0xbccd28d8	-0.02504389
61	0xbcdfebc3	-0.0273341
62	0x3d54fb72	0.05199761
63	0xbd7029e1	-0.05863369

base.mlp.fc_h.0.weight f4 [64, 64]
0	0xbe39e02d	-0.18151923
1	0xbe204256	-0.15650305
2	0x3be67f4e	0.007034219
3	0x3e2d3ed9	0.16918506
4	0xbe007aa3	-0.12546782
5	0xbe27dd80	-0.1639309
6	0xbe806bdc	-0.2508229
7	0x3db68f22	0.08914019
8	0x3e9dcc94	0.30820143
9	0xbdefd286	-0.11710076
10	0x3e89798a	0.2685054
11	0xbe24f7d8	-0.1611017
12	0x3e26d122	0.16290715
13	0xbe3ced00	-0.18449783
14	0xbe6d11ee	-0.23151371
15	0x3e03dffd	0.12878413
16	0xbcd39f09	-0.02583267
17	0xbe2ecc70	-0.17070174
18	0x3d7dfc91	0.062008444
19	0x3dea1a3e	0.114307866
20	0x3e4ad501	0.19807817
21	0x3db70a2a	0.089374855
22	0xbe3af8ce	-0.18258974
23	0xbd63bebe	-0.055601828
24	0x3d0e0974	0.034676984
25	0x3eb95dd9	0.36204413
26	0x3d87e695	0.06635777
27	0x3ab5ca18	0.0013869433
28	0xbe5f6b3e	-0.21818253
29	0x3de24665	0.11048583
30	0x3ed8ed45	0.42368522
31	0xbde483e2	-0.11157967
32	0xbe1c8869	-0.15286411
33	0x3d80d5e1	0.06290794
34	0xbe810d1f	-0.25205323
35	0x3dd79e6c	0.105282634
36	0x3e73370b	0.23751466
37	0xbe1c27e6	-0.15249595
38	0xbc8e9639	-0.017405616
39	0x3d0bae6c	0.03410189
40	0x3d1caa17	0.038248148
41	0x3da88083	0.08227637
42	0xbe01b657	-0.12667213
43	0xbdd457c6	-0.10368304
44	0xbe02e8cc	-0.12784117
45	0x3c9eb815	0.019374887
46	0x3ed91336	0.4239747
47	0xbe1b271a	-0.15151635
48	0xbd109003	-0.03529359
49	0xbdfb0bbc	-0.122580975
50	0xbe60cc7d	-0.21953006
51	0xbe512da0	-0.20427561
52	0xbe13f470	-0.14448714
53	0xbe1cb917	-0.15304981
54	0x3d3af6d9	0.04564557
55	0xbea7f5c8	-0.32804704
56	0xbd0a1113	-0.03370769
57	0xbca4175f	-0.020030675
58	0x3e2c5550	0.16829419
59	0xbe71fa96	-0.23630747
60	0xbdeb1e7f	-0.11480426
61	0xbe0a48fd	-0.13504405
62	0x3e83468b	0.25639758
63	0xbe81028d	-0.2519726
64	0xbe2e0c4a	-0.16996875
65	0xbdb9fec3	-0.09081795
66	0x3e60e6a9	0.2196299
67	0xbe152bc6	-0.1456748
68	0x3d48cc38	0.049022883
69	0xbe80be30	-0.25145102
70	0x3c3e5aba	0.011618311
71	0x3c370bc6	0.011172241
72	0x3e073558	0.13203943
73	0xbe17a6d9	-0.14809741
74	0xbdc20562	-0.09473683
75	0x3ce5519f	0.027993022
76	0x3ebf293c	0.37336147
77	0x3e3a9122	0.18219426
78	0xbdc79e1d	-0.097469546
79	0xbda4c73a	-0.08045812
80	0xbecba218	-0.39772105
81	0x3aaf0fe6	0.0013356179
82	0xbc76b36e	-0.015057428
83	0xbe712563	-0.23549418
84	0xbe2b83af	-0.16749452
85	0x3d709e18	0.05874452
86	0xbe8e1fe1	-0.27758697
87	0xbd0d3543	-0.034474622
88	0x3caf76b4	0.021418907
89	0xbe37e19c	-0.17957157
90	0xbe823483	-0.25430688
91	0x3e4247e4	0.18972737
92	0xbe3449a8	-0.17606223
93	0x3d06f85e	0.032951705
94	0x3d47880a	0.04871372
95	0x3d8e2318	0.06940287
96	0xbdecc7a2	-0.115615144
97	0xbdb6b36b	-0.0892094
98	0x3e124953	0.14285783
99	0xbe472137	-0.19446264
100	0x3d083f47	0.03326347
101	0x3ea1cc10	0.31601
102	0x3e80827a	0.25099546
103	0xbe54d447	-0.20784102
104	0x3e4ab54d	0.19795723
105	0x3e94b334	0.2904297
106	0xbe33ec72	-0.17570665
107	0xbe92c1f5	-0.28663602
108	0x3d507b5a	0.050898887
109	0xbdee1b3e	-0.1162629
110	0xbceda3d5	-0.029008785
111	0xbe329738	-0.17440498
112	0x3e2a1713	0.16610365
113	0x3e48a018	0.19592321
114	0x3e2fc499	0.1716484
115	0xbe34587c	-0.17611879
116	0x3e87abf8	0.2649839
117	0xbde2c9aa	-0.110736206
118	0x3cef98c9	0.029247658
119	0x3ea99c29	0.33126953
120	0xbe42e3b7	-0.19032179
121	0x3d08cfa1	0.033401135
122	0x3e399d23	0.18126349
123	0x3e399176	0.18121895
124	0xbe6b60a4	-0.22986084
125	0x3e045ca5	0.12925966
126	0x3e179d9c	0.14806217
127	0xbdc0ed2e	-0.094202384
128	0x3e0e29be	0.13883111
129	0x3e859395	0.2608916
130	0x3da5f266	0.081028745
131	0x3e9fbf07	0.3120043
132	0xbe29b98b	-0.16574685
133	0x3e6aa365	0.22913893
134	0xbe2c100f	-0.16803001
135	0xbd94d058	-0.07266301
136	0xbe91dcb3	-0.28488693
137	0xbea01275	-0.31264082
138	0xbe8dda04	-0.27705395
139	0x3d5df4aa	0.054188408
140	0xbda7d0c6	-0.08194117
141	0x3d8af44c	0.06784877
142	0xbe398ca5	-0.18120058
143	0x3e9ee10f	0.3103108
144	0xbd1a83a8	-0.037723213
145	0x3dfc3ec9	0.12316663
146	0x3e28796f	0.16452573
147	0xbe2ab0dd	-0.1666903
148	0x3dd5d238	0.10440487
149	0xbecc70ab	-0.3992971
150	0xbcb53eef	-0.022124736
151	0xbe8e35a3	-0.27775297
152	0xbe1a4383	-0.15064816
153	0xbd5ea16d	-0.054353166
154	0xbc0cac0b	-0.00858594
155	0xbe8813af	-0.26577517
156	0x3bea149a	0.007143569
157	0x3d32041f	0.04346096
158	0x3e2fd5cd	0.17171402
159	0xbe8c5916	-0.27411717
160	0xbd1ca158	-0.038239807
161	0xbd9e732f	-0.07736813
162	0x3e1541b2	0.14575842
163	0xbec76eb3	-0.38951644
164	0x3e683faa	0.22680536
165	0xbd80db14	-0.06291786
166	0x3e9f32e6	0.3109352
167	0xbe93d2fb	-0.28871903
168	0xbdca78ee	-0.09886347
169	0x3d95c57c	0.07313058
170	0x3d1b5b7f	0.037929054
171	0xbcff2190	-0.031143934
172	0x3d8343c6	0.06409411
173	0xbdc9ebe4	-0.09859446
174	0xbcf2528b	-0.029580375
175	0xbe18706f	-0.1488664
176	0x3e313f77	0.17309366
177	0xbe5b3ded	-0.21410342
178	0x3e331a5e	0.17490527
179	0x3e604e53	0.21904878
180	0xbe55b2d4	-0.20868999
181	0x3d1ba929	0.03800312
182	0xbc2750fb	-0.010212178
183	0xbdcf87d4	-0.10133329
184	0xbb38ba98	-0.002818739
185	0x3c3cc75a	0.0115221385
186	0xbe3ae48e	-0.18251249
187	0xbd572dd1	-0.05253393
188	0x3d118e2a	0.03553597
189	0x3cf04c22	0.029333178
190	0x3e64f52f	0.22359155
191	0xbd987c51	-0.074455865
192	0x3ded0421	0.11573053
193	0xbc7eb515	-0.015546103
194	0x3c896d7f	0.016775845
195	0x3e29d01b	0.16583292
196	0xbe1da7e5	-0.15396078
197	0x3e21043d	0.15724273
198	0x3e0d3bee	0.13792393
199	0x3e11243a	0.14173976
200	0x3d7cfb83	0.061763298
201	0xbe1be939	-0.15225686
202	0x3d6218e9	0.055199537
203	0xbe1f0733	-0.1553009
204	0x3c4e43b6	0.012589386
205	0x3e92c724	0.28667557
206	0xbdf1f42d	-0.11814151
207	0xbe42cbc3	-0.19023041
208	0x3e2a319f	0.16620491
209	0xbe31e241	-0.17371465
210	0xbe63720e	-0.22211477
211	0xbdf617b5	-0.120162405
212	0x3e2d9cca	0.16954342
213	0x3e038098	0.12842023
214	0x3e1a898b	0.15091531
215	0x3e47656a	0.1947228
216	0xbe00199b	-0.12509768
217	0xbd35efb0	-0.044418037
218	0xbd29dc0c	-0.04146962
219	0xbdc9e060	-0.09857249
220	0x3ea12cb4	0.31479418
221	0xbd9a88eb	-0.07545646
222	0x3ee89881	0.4542885
223	0xbe14a215	-0.14514954
224	0xbd62038e	-0.05517917
225	0x3d8469d1	0.064654954
226	0x3e0a44e9	0.1350285
227	0xbd3f5fca	-0.04672221
228	0x3db4991d	0.088182665
229	0x3e29991b	0.16562311
230	0xbc4f06bc	-0.012635883
231	0x3c35a0b2	0.011085676
232	0x3e820779	0.25396326
233	0x3e388d17	0.18022572
234	0xbe3d5db9	-0.18492784
235	0xbd2f5298	-0.042803377
236	0x3ee21511	0.44156697
237	0x3683393a	3.9107663e-06
238	0xbe5f6b93	-0.2181838
239	0x3e8414fd	0.25797263
240	0xbea99ab2	-0.33125836
241	0x3e91221e	0.28346342
242	0x3e250819	0.1611637
243	0xbbf97f41	-0.007614047
244	0xbcf407de	-0.029788908
245	0x3e7a6aa6	0.24454746
246	0xbdd79895	-0.105271496
247	0xbe2a415d	-0.16626497
248	0xbd2bc170	-0.041932523
249	0xbe9a2286	-0.30104464
250	0x3e9e2530	0.30887747
251	0xbde3e496	-0.11127584
252	0x3e23948c	0.15974635
253	0xbd85cf79	-0.06533713
254	0xbe08e3bd	-0.13368125
255	0xbe281dcf	-0.16417621

base.mlp.fc_h.0.bias f4 [64]
0	0x00000000	0.0
1	0x00000000	0.0
2	0x00000000	0.0
3	0x00000000	0.0
4	0x00000000	0.0
5	0x00000000	0.0
6	0x00000000	0.0
7	0x00000000	0.0
8	0x00000000	0.0
9	0x00000000	0.0
10	0x00000000	0.0
11	0x00000000	0.0
12	0x00000000	0.0
13	0x00000000	0.0
14	0x00000000	0.0
15	0x00000000	0.0
16	0x00000000	0.0
17	0x00000000	0.0
18	0x00000000	0.0
19	0x00000000	0.0
20	0x00000000	0.0
21	0x00000000	0.0
22	0x00000000	0.0
23	0x00000000	0.0
24	0x00000000	0.0
25	0x00000000	0.0
26	0x00000000	0.0
27	0x00000000	0.0
28	0x00000000	0.0
29	0x00000000	0.0
30	0x00000000	0.0
31	0x00000000	0.0
32	0x00000000	0.0
33	0x00000000	0.0
34	0x00000000	0.0
35	0x00000000	0.0
36	0x00000000	0.0
37	0x00000000	0.0
38	0x00000000	0.0
39	0x00000000	0.0
40	0x00000000	0.0
41	0x00000000	0.0
42	0x00000000	0.0
43	0x00000000	0.0
44	0x00000000	0.0
45	0x00000000	0.0
46	0x00000000	0.0
47	0x00000000	0.0
48	0x00000000	0.0
49	0x00000000	0.0
50	0x00000000	0.0
51	0x00000000	0.0
52	0x00000000	0.0
53	0x00000000	0.0
54	0x00000000	0.0
55	0x00000000	0.0
56	0x00000000	0.0
57	0x00000000	0.0
58	0x00000000	0.0
59	0x00000000	0.0
60	0x00000000	0.0
61	0x00000000	0.0
62	0x00000000	0.0
63	0x00000000	0.0

base.mlp.fc_h.2.weight f4 [64]
0	0x3f800000	1.0
1	0x3f800000	1.0
2	0x3f800000	1.0
3	0x3f800000	1.0
4	0x3f800000	1.0
5	0x3f800000	1.0
6	0x3f800000	1.0
7	0x3f800000	1.0
8	0x3f800000	1.0
9	0x3f800000	1.0
10	0x3f800000	1.0
11	0x3f800000	1.0
12	0x3f800000	1.0
13	0x3f800000	1.0
14	0x3f800000	1.0
15	0x3f800000	1.0
16	0x3f800000	1.0
17	0x3f800000	1.0
18	0x3f800000	1.0
19	0x3f800000	1.0
20	0x3f800000	1.0
21	0x3f800000	1.0
22	0x3f800000	1.0
23	0x3f800000	1.0
24	0x3f800000	1.0
25	0x3f800000	1.0
26	0x3f800000	1.0
27	0x3f800000	1.0
28	0x3f800000	1.0
29	0x3f800000	1.0
30	0x3f800000	1.0
31	0x3f800000	1.0
32	0x3f800000	1.0
33	0x3f800000	1.0
34	0x3f800000	1.0
35	0x3f800000	1.0
36	0x3f800000	1.0
37	0x3f800000	1.0
38	0x3f800000	1.0
39	0x3f800000	1.0
40	0x3f800000	1.0
41	0x3f800000	1.0
42	0x3f800000	1.0
43	0x3f800000	1.0
44	0x3f800000	1.0
45	0x3f800000	1.0
46	0x3f800000	1.0
47	0x3f800000	1.0
48	0x3f800000	1.0
49	0x3f800000	1.0
50	0x3f800000	1.0
51	0x3f800000	1.0
52	0x3f800000	1.0
53	0x3f800000	1.0
54	0x3f800000	1.0
55	0x3f800000	1.0
56	0x3f800000	1.0
57	0x3f800000	1.0
58	0x3f800000	1.0
59	0x3f800000	1.0
60	0x3f800000	1.0
61	0x3f800000	1.0
62	0x3f800000	1.0
63	0x3f800000	1.0

base.mlp.fc_h.2.bias f4 [64]
0	0x00000000	0.0
1	0x00000000	0.0
2	0x00000000	0.0
3	0x00000000	0.0
4	0x00000000	0.0
5	0x00000000	0.0
6	0x00000000	0.0
7	0x00000000	0.0
8	0x00000000	0.0
9	0x00000000	0.0
10	0x00000000	0.0
11	0x00000000	0.0
12	0x00000000	0.0
13	0x00000000	0.0
14	0x00000000	0.0
15	0x00000000	0.0
16	0x00000000	0.0
17	0x00000000	0.0
18	0x00000000	0.0
19	0x00000000	0.0
20	0x00000000	0.0
21	0x00000000	0.0
22	0x00000000	0.0
23	0x00000000	0.0
24	0x00000000	0.0
25	0x00000000	0.0
26	0x00000000	0.0
27	0x00000000	0.0
28	0x00000000	0.0
29	0x00000000	0.0
30	0x00000000	0.0
31	0x00000000	0.0
32	0x00000000	0.0
33	0x00000000	0.0
34	0x00000000	0.0
35	0x00000000	0.0
36	0x00000000	0.0
37	0x00000000	0.0
38	0x00000000	0.0
39	0x00000000	0.0
40	0x00000000	0.0
41	0x00000000	0.0
42	0x00000000	0.0
43	0x00000000	0.0
44	0x00000000	0.0
45	0x00000000	0.0
46	0x00000000	0.0
47	0x00000000	0.0
48	0x00000000	0.0
49	0x00000000	0.0
50	0x00000000	0.0
51	0x00000000	0.0
52	0x00000000	0.0
53	0x00000000	0.0
54	0x00000000	0.0
55	0x00000000	0.0
56	0x00000000	0.0
57	0x00000000	0.0
58	0x00000000	0.0
59	0x00000000	0.0
60	0x00000000	0.0
61	0x00000000	0.0
62	0x00000000	0.0
63	0x00000000	0.0

base.mlp.fc2.0.0.weight f4 [64, 64]
0	0xbdf99ef4	-0.12188521
1	0xbe1f47f9	-0.15554799
2	0x3b17c51e	0.0023158262
3	0x3e35c803	0.1775208
4	0xbd7140e1	-0.058899764
5	0xbe23e0ed	-0.16003771
6	0xbe9b626f	-0.30348536
7	0x3d8f1d73	0.06988039
8	0x3e8718ae	0.26386017
9	0xbdad6ef3	-0.084684275
10	0x3e91661b	0.28398213
11	0xbe398d89	-0.18120398
12	0x3de93ca2	0.11388518
13	0xbe62b9ed	-0.22141238
14	0xbe7b2a1d	-0.24527784
15	0x3e335959	0.17514552
16	0xbd73a158	-0.05948004
17	0xbe062a0d	-0.13101979
18	0x3c0cbe45	0.008590286
19	0x3e20e728	0.15713179
20	0x3e4ef4a3	0.20210509
21	0x3dcf9f2d	0.10137782
22	0xbe0af3ac	-0.13569516
23	0xbd57965d	-0.052633632
24	0x3d425c20	0.04745114
25	0x3ec2f3af	0.3807654
26	0x3dcac02f	0.09899937
27	0x3cd24514	0.025667705
28	0xbe36e7ef	-0.17861913
29	0x3e0554a6	0.13020572
30	0x3ebcba58	0.3686092
31	0xbe337c4f	-0.17527889
32	0xbdbd24fd	-0.092355706
33	0xbb8bda4a	-0.0042679654
34	0xbe76bca9	-0.24095406
35	0x3dcfbd75	0.10143558
36	0x3e79a0b9	0.24377717
37	0xbe1400ec	-0.14453477
38	0xbdc243dd	-0.094856
39	0x3dca156a	0.09867366
40	0xbb0b0ead	-0.0021218464
41	0x3e0ae3d0	0.13563466
42	0xbdb8436d	-0.089972354
43	0xbda9cab1	-0.082906134
44	0xbdd86502	-0.10566141
45	0x3cacbbce	0.021085646
46	0x3edb2b7a	0.42806607
47	0xbe176788	-0.14785588
48	0xbd803d65	-0.0626171
49	0xbe0df7fb	-0.13864128
50	0xbe607de3	-0.21923022
51	0xbe3cfe56	-0.18456396
52	0xbd9a4dac	-0.07534346
53	0xbdcb1c30	-0.09917486
54	0x3c9f2d5e	0.019430812
55	0xbeb44e18	-0.3521583
56	0xbd4c2d77	-0.049848046
57	0xbd89eede	-0.067350134
58	0x3e326a7a	0.1742343
59	0xbe8cf5a9	-0.27531174
60	0xbdc1beb0	-0.09460199
61	0xbe09b017	-0.13446079
62	0x3e6d09a8	0.23148215
63	0xbe73998e	-0.23789045
64	0xbdb9458b	-0.090464674
65	0xbd8958aa	-0.067063645
66	0x3e6c2bec	0.2306363
67	0xbe08a6dc	-0.13344902
68	0x3c127aa5	0.008940374
69	0xbe3b73e8	-0.18305933
70	0x3c88ac4e	0.016683724
71	0xbcb69b44	-0.022290833
72	0x3e06135a	0.1309332
73	0xbdcff390	-0.10153878
74	0xbd291af2	-0.041285463
75	0xbd0b5714	-0.03401859
76	0x3edfc9a4	0.43708527
77	0x3e75c40d	0.24000569
78	0xbd897418	-0.06711596
79	0xbd65fe9a	-0.05615101
80	0xbebbef8d	-0.367062
81	0xbd3fda82	-0.046839245
82	0xbb358ea9	-0.002770344
83	0xbe3b05dc	-0.18263954
84	0xbe335120	-0.17511415
85	0x3e0a0d5d	0.1348166
86	0xbe7a4880	-0.24441719
87	0xbd7366ab	-0.059424084
88	0x3d39757a	0.04527805
89	0xbdaa9649	-0.08329446
90	0xbe5389f5	-0.20658095
91	0x3e1d5413	0.15364103
92	0xbe5d7226	-0.21625575
93	0x3c0d1de5	0.008613084
94	0x3d5c29a7	0.05375066
95	0x3de2f69c	0.11082193
96	0xbe0d13d8	-0.13777101
97	0xbd502ad9	-0.050822113
98	0x3dd87e52	0.10570969
99	0xbe6d66e0	-0.23183775
100	0x3d89e96a	0.06733973
101	0x3e9511c3	0.29115114
102	0x3e70f4d1	0.2353089
103	0xbe3bed14	-0.18352157
104	0x3e6b1c4b	0.22960012
105	0x3ea583a5	0.32327
106	0xbe5ed60f	-0.21761344
107	0xbe6d4b4c	-0.23173255
108	0x3b3513a2	0.002763011
109	0xbc1b4507	-0.009476907
110	0xbd54ee61	-0.05198515
111	0xbe1ca273	-0.15296344
112	0x3e00406a	0.12524572
113	0x3e2e13f4	0.16999799
114	0x3e8f7284	0.28017056
115	0xbe48220e	-0.19544241
116	0x3e8a09a4	0.2696048
117	0xbe0ea2c7	-0.13929282
118	0x3b850449	0.0040593487
119	0x3e8e8606	0.27836627
120	0xbe65bc9a	-0.22435227
121	0x3dd3cbda	0.10341616
122	0x3e09b4bc	0.13447851
123	0x3e72163f	0.23641299
124	0xbe54b6bb	-0.20772831
125	0x3e0edc39	0.13951196
126	0x3dc7206c	0.09722981
127	0xbe169947	-0.14706908
128	0x3dab7435	0.08371774
129	0x3e8396d6	0.25701016
130	0xbcbf8661	-0.023379507
131	0x3e7cee50	0.24700284
132	0xbe186a3e	-0.14884278
133	0x3e40439d	0.18775792
134	0xbddd684e	-0.1081091
135	0xbd541a0f	-0.051782664
136	0xbe99f370	-0.3006854
137	0xbec29eac	-0.38011682
138	0xbea67b36	-0.32515877
139	0x3d6d56a8	0.05794397
140	0xbdda2fec	-0.106536716
141	0x3dd6741c	0.10471365
142	0xbe433862	-0.19064477
143	0x3e88189b	0.26581272
144	0x3b546723	0.0032410107
145	0x3e222bb3	0.15836982
146	0x3e24766b	0.16060798
147	0xbe4f42f1	-0.2024038
148	0x3de7f845	0.113266505
149	0xbeeb07ce	-0.45904392
150	0xbd6f3293	-0.05839784
151	0xbe8b06e9	-0.2715371
152	0xbe4dc5fc	-0.20095056
153	0xbdc2c839	-0.09510846
154	0xbd8c91aa	-0.06863721
155	0xbe84e176	-0.25953263
156	0x3ca03828	0.019558027
157	0x3d999a6d	0.075001575
158	0x3e37bdf8	0.17943561
159	0xbe89b7de	-0.26898092
160	0xbbfbdc24	-0.007686155
161	0xbd51928a	-0.05116514
162	0x3e11c727	0.14236127
163	0xbeb484db	-0.3525761
164	0x3e1ae671	0.15126969
165	0xbdb337b2	-0.087508574
166	0x3ec6da15	0.38838258
167	0xbea1fe4e	-0.31639332
168	0xbd92a138	-0.07159656
169	0x3d9d0e9a	0.07668801
170	0x3dc9afb6	0.09847967
171	0xbcaab80f	-0.02083972
172	0x3d82d27b	0.06387802
173	0xbe10ba5b	-0.14133589
174	0x3c9470bc	0.018120162
175	0xbe17bab6	-0.14817318
176	0x3e444fd0	0.19171071
177	0xbe327023	-0.1742559
178	0x3de8a0bc	0.11358783
179	0x3e4fa7d5	0.20278867
180	0xbea177bf	-0.31536672
181	0x3dadf893	0.084946774
182	0xbc8e5d47	-0.017378462
183	0xbdea4ba4	-0.114402086
184	0x3cf5a957	0.029987974
185	0x3cd8f132	0.026482198
186	0xbe19f92b	-0.15036456
187	0xbd97c8b3	-0.07411327
188	0x3d6fd296	0.05855044
189	0x3cbb75e2	0.02288336
190	0x3e53f09f	0.20697258
191	0xbdc670bc	-0.09689471
192	0x3e824383	0.25442132
193	0xbbcbb2de	-0.006216391
194	0x3d66f075	0.05638166
195	0x3e1b2f7a	0.1515483
196	0xbe088198	-0.13330686
197	0x3db7857b	0.08961006
198	0x3e22b88d	0.15890713
199	0x3dfcc63e	0.12342499
200	0x3dbb43b7	0.09143775
201	0xbde31439	-0.110878415
202	0x3e0e712d	0.1391036
203	0xbe2f53fc	-0.17121881
204	0xbbc111fa	-0.0058920356
205	0x3e6f1cdd	0.23350854
206	0xbe0f1c4e	-0.13975641
207	0xbe21b48b	-0.15791528
208	0x3e06c9dd	0.13162942
209	0xbe505869	-0.20346226
210	0xbe8ba0fe	-0.27271265
211	0xbbff7a09	-0.00779653
212	0x3e043343	0.1291018
213	0x3e31215d	0.17297883
214	0x3e5eab2c	0.21744984
215	0x3e6672fe	0.22504804
216	0xbe5298d7	-0.20566116
217	0xbd0137db	-0.03154741
218	0xbd05ef16	-0.032698713
219	0xbe353a46	-0.17698011
220	0x3eb2c2f1	0.34914353
221	0xbd3c3b07	-0.04595473
222	0x3ec2d7fe	0.38055414
223	0xbe20778b	-0.15670602
224	0xbd3bb10e	-0.04582315
225	0x3d7b3491	0.061329428
226	0x3e592a82	0.21207622
227	0xbd56c186	-0.052430652
228	0x3d5e379c	0.054252252
229	0x3e80ec6c	0.25180376
230	0xbd8bc482	-0.0682459
231	0x3d9588aa	0.07301457
232	0x3e81a332	0.2531982
233	0x3df06a88	0.11739069
234	0xbe605958	-0.21909082
235	0xbdc522f5	-0.09625808
236	0x3ef230c5	0.47302833
237	0xbd0baef3	-0.03410239
238	0xbe3480bf	-0.17627238
239	0x3e475c62	0.19468835
240	0xbea1e7db	-0.31622204
241	0x3ea125db	0.31474194
242	0x3e5ff162	0.21869424
243	0xbc98ce45	-0.018653044
244	0xbd5a2e24	-0.05326666
245	0x3e31ccfb	0.1736335
246	0xbdd1f7a7	-0.10252314
247	0xbe3c3fd9	-0.18383731
248	0xbcf9f189	-0.03051068
249	0xbea3cfda	-0.31994516
250	0x3e98a225	0.29811206
251	0xbdd99f20	-0.10626054
252	0x3e005736	0.12533268
253	0xbca33e21	-0.019927086
254	0xbe33f6f4	-0.17574674
255	0xbdf312c3	-0.11868813

base.mlp.fc2.0.0.bias f4 [64]
0	0xbc54f4ef	-0.01299785
1	0xbd7b25c0	-0.061315298
2	0x3d25e142	0.040498026
3	0x3a3389a1	0.00068488164
4	0x3d3d82f8	0.04626748
5	0xbb056aa0	-0.0020357743
6	0x3c067951	0.008207635
7	0x3c7d363b	0.015454824
8	0xbd401632	-0.046896167
9	0xbb4475ba	-0.0029977397
10	0xbd705517	-0.058674898
11	0xbbfc53c3	-0.007700415
12	0x3d0ff666	0.035147093
13	0xbd14a853	-0.03629334
14	0xbcfe6995	-0.031056205
15	0x3d7490aa	0.059708275
16	0x3d40ee6b	0.047102373
17	0xb9350108	-0.0001726189
18	0x3c8db2a0	0.01729709
19	0x3ce43917	0.027859254
20	0x3d278aac	0.040903732
21	0xbb009293	-0.0019618615
22	0x3a017fec	0.00049400213
23	0xbc67a67e	-0.014138816
24	0x3d0afce4	0.03393258
25	0xbbbc3d6b	-0.0057446263
26	0xbd879b2c	-0.066213936
27	0xbdc86260	-0.097843885
28	0x3c05a0c0	0.008156002
29	0x3c7c3d88	0.01539553
30	0xbc99b5de	-0.018763479
31	0xbd53b218	-0.051683515
32	0xbdb24645	-0.08704809
33	0x3c1a0c26	0.0094023105
34	0x3d0195b9	0.031636927
35	0x3c165a76	0.009176841
36	0x3c4f79e4	0.012663338
37	0xbd67e5cb	-0.056615632
38	0x3c8a7fd3	0.016906654
39	0xbbc00ede	-0.0058611473
40	0x3cbe7920	0.023251116
41	0x3cda3230	0.02663526
42	0xbd4318f9	-0.047631238
43	0xbd1c5847	-0.038170125
44	0xbd7e732e	-0.062121563
45	0xbd80fada	-0.06297846
46	0x3d8adc9e	0.06780361
47	0x3d1005a1	0.03516162
48	0xbc9a257f	-0.018816708
49	0x3cbe6f30	0.023246378
50	0x3c392dc2	0.011302413
51	0xbd67cf25	-0.056594033
52	0xbc1cc925	-0.009569441
53	0x3cc9e5a2	0.02464563
54	0x3d584c4b	0.052807134
55	0xbbca70c8	-0.0061779954
56	0x3d717005	0.05894472
57	0x3b0dc031	0.0021629448
58	0x3c1ac1f1	0.009445653
59	0x3d70c64b	0.058782857
60	0xbcf20826	-0.029544901
61	0xbd3c6bfa	-0.046001412
62	0x3cdc84c7	0.026918782
63	0xbd3c858e	-0.046025805

base.mlp.fc2.0.2.weight f4 [64]
0	0x3f7da46c	0.9907901
1	0x3f775ef5	0.9662927
2	0x3f85983e	1.0437086
3	0x3f8227ed	1.0168434
4	0x3f8b0211	1.0860006
5	0x3f84a45c	1.0362659
6	0x3f8b17d4	1.0866647
7	0x3f84ee31	1.038519
8	0x3f8607fa	1.0471184
9	0x3f8374f6	1.0270069
10	0x3f82a438	1.0206366
11	0x3f859edd	1.0439106
12	0x3f80099a	1.000293
13	0x3f7d08ca	0.98841536
14	0x3f7f0a3b	0.99624985
15	0x3f9586ad	1.1681725
16	0x3f89e22e	1.077215
17	0x3f858eb2	1.0434172
18	0x3f8620df	1.0478781
19	0x3f8bb3c9	1.0914241
20	0x3f8e71eb	1.1128515
21	0x3f84bef0	1.037077
22	0x3f7b20a5	0.98096687
23	0x3f7a31d6	0.97732294
24	0x3f891b4a	1.0711453
25	0x3f85e0c2	1.0459216
26	0x3f7b94a0	0.9827366
27	0x3f80c033	1.0058655
28	0x3f7c90e0	0.9865856
29	0x3f8ab2bf	1.0835799
30	0x3f7c6142	0.98585904
31	0x3f816a48	1.011056
32	0x3f86ccbd	1.0531231
33	0x3f87d4b6	1.0611789
34	0x3f8595e7	1.0436372
35	0x3f85992e	1.0437372
36	0x3f8c0b10	1.0940876
37	0x3f7dc5a1	0.9912968
38	0x3f86a516	1.051913
39	0x3f7bfaf4	0.984298
40	0x3f7e1e65	0.9926513
41	0x3f864560	1.0489922
42	0x3f856921	1.0422708
43	0x3f84bc14	1.0369897
44	0x3f85f78b	1.0466169
45	0x3f897355	1.0738322
46	0x3f8743b1	1.0567533
47	0x3f836bb7	1.0267247
48	0x3f77b389	0.96758324
49	0x3f883523	1.0641216
50	0x3f8820e3	1.0635036
51	0x3f844bba	1.033561
52	0x3f804d91	1.0023671
53	0x3f7f3ee2	0.99705327
54	0x3f88166a	1.063184
55	0x3f806974	1.0032182
56	0x3f8921b8	1.0713415
57	0x3f87c85c	1.060802
58	0x3f895894	1.0730157
59	0x3f842df3	1.0326523
60	0x3f81c8af	1.0139369
61	0x3f83be4c	1.0292449
62	0x3f83b87c	1.0290675
63	0x3f81686a	1.010999

base.mlp.fc2.0.2.bias f4 [64]
0	0x3cd447c4	0.025913127
1	0xbd8f505f	-0.069977514
2	0xbc99eca7	-0.018789602
3	0x3c8e0ab1	0.017339082
4	0xbc51e7c3	-0.012811604
5	0x3d4b2622	0.049596913
6	0xbc912af4	-0.017720677
7	0xba1f7f32	-0.0006084322
8	0xbc41fce6	-0.011840081
9	0xbca24013	-0.019805944
10	0xbceabb48	-0.028653756
11	0x3c0471ab	0.008083741
12	0xb89a919f	-7.370416e-05
13	0xbd1f8f0d	-0.038954783
14	0x3cd69064	0.026191898
15	0xbc277982	-0.010221841
16	0x3ce81f6b	0.028335294
17	0x3c29d075	0.010364641
18	0x3b74d540	0.0037358552
19	0xbc7a90cb	-0.01529331
20	0x3c2d53ce	0.010579063
21	0xbb3fc7c5	-0.002926336
22	0x3cdf10b8	0.027229652
23	0xbd324d7c	-0.043530926
24	0xbca3bc30	-0.019987196
25	0xbcca90ae	-0.024727192
26	0x3cffadd2	0.031210814
27	0xbd0d1035	-0.034439284
28	0x3b9eb1e4	0.0048429836
29	0xbc0ad432	-0.008473443
30	0x3d50a38f	0.05093723
31	0xbb646af9	-0.00348538
32	0x3c82fd68	0.015989974
33	0xbcc497ad	-0.023998106
34	0x3c094411	0.008378045
35	0xbd2c0625	-0.041998047
36	0x3bfe5daf	0.007762633
37	0x3b7f5290	0.0038959123
38	0xbb6ee9b1	-0.003645521
39	0x3d5d5e65	0.0540451
40	0x3ce16ae5	0.027516792
41	0xbbad5aaf	-0.0052903513
42	0xbc6c3845	-0.014417713
43	0xbd7f9f47	-0.062407758
44	0xbd04fe02	-0.032468803
45	0x3bccef95	0.0062541463
46	0x3cb5d786	0.022197496
47	0x3c8d59b5	0.01725469
48	0x3ca4e4d0	0.020128638
49	0x3c7d1dbe	0.015448986
50	0x3c7c633e	0.015404521
51	0x3d15d930	0.03658408
52	0xbc216390	-0.009850398
53	0x3d463d2f	0.048398193
54	0xbb1e246b	-0.0024130594
55	0xbc4ddd12	-0.012564914
56	0x3ca82a9a	0.020528127
57	0xbce8affc	-0.028404228
58	0x3c663108	0.014049776
59	0x3c9929dd	0.01869672
60	0xbd403827	-0.04692855
61	0x3c4ac30d	0.012375605
62	0x3c01d7a7	0.007924951
63	0xbd02928a	-0.03187803

act.action_out.linear.weight f4 [5, 64]
0	0xbc0554de	-0.00813791
1	0x3bea3e07	0.0071485075
2	0x3d20a5cf	0.039220627
3	0xbd0a0258	-0.03369364
4	0x3db75fcd	0.089538194
5	0x3d1ebc18	0.0387536
6	0x3dac870a	0.08424194
7	0x3cac2c4e	0.02101722
8	0xbd036b2c	-0.03208463
9	0xbc9b38e6	-0.01894803
10	0x3cb59c13	0.022169149
11	0xbcca60d6	-0.024704378
12	0xbc5ce02d	-0.013481182
13	0x3c36f4e9	0.01116679
14	0x3869002c	5.555169e-05
15	0xbc38044b	-0.011231492
16	0xbd33ea26	-0.043924473
17	0x3be84bff	0.0070891376
18	0xbd46bdbd	-0.048520792
19	0x3d732db1	0.059369747
20	0xbdb46dab	-0.0880998
21	0xbd4d6e12	-0.0501538
22	0x3cda88e7	0.026676608
23	0x3cc9b89e	0.024624165
24	0x3b52a85a	0.0032143802
25	0xbae26836	-0.0017273489
26	0xbcbedb14	-0.023297824
27	0xb91a3a14	-0.0001470822
28	0xbb985fab	-0.0046500764
29	0x3dbd9e34	0.092586905
30	0xbb295d1b	-0.0025842849
31	0xbc51a3e6	-0.012795424
32	0x3d2e8bc2	0.042613752
33	0x3d2e3faf	0.042541202
34	0xbd44601f	-0.04794323
35	0x3b99a9e7	0.0046894434
36	0xbdb69605	-0.08915333
37	0x398f9b8c	0.00027390977
38	0xbd60a459	-0.054844234
39	0xbd05ecd9	-0.03269658
40	0xbd188f08	-0.03724578
41	0x3d2f5b8c	0.042811915
42	0x3d67e81c	0.05661784
43	0x3d3f3cbd	0.046688784
44	0x3c40b842	0.0117626805
45	0xbd2eefb9	-0.042709086
46	0xbce99adb	-0.028516224
47	0xbd5b65ba	-0.05356381
48	0x3c69a228	0.0142598525
49	0xbd34b160	-0.04411447
50	0xbda66b5b	-0.08125945
51	0xbd530555	-0.051518757
52	0xbc572548	-0.013131447
53	0xbb47038b	-0.0030367102
54	0xbd1dbd4f	-0.038510617
55	0x3cc9d274	0.024636485
56	0xbb961709	-0.0045803827
57	0x3d1ded35	0.038556296
58	0xbba26ad2	-0.0049565816
59	0x3d06ce90	0.032911837
60	0x3b86e0f6	0.004116173
61	0xbd0153f2	-0.031574197
62	0xbd925449	-0.07144982
63	0x3d54a543	0.05191542
64	0xbd26222f	-0.040559944
65	0xbc185400	-0.009297371
66	0x3cbdc0f2	0.023163293
67	0xbc79f4dd	-0.015256134
68	0xbd245e5c	-0.04012905
69	0x3c8de17b	0.017319432
70	0x3c288a2c	0.010286849
71	0x3bfe6cae	0.0077644205
72	0xbc762644	-0.015023772
73	0x3d0e27b9	0.03470585
74	0x3cb17139	0.021660434
75	0x3bf29620	0.00740315
76	0x3d26e1c5	0.040742654
77	0xbcb9a713	-0.022662675
78	0xbd501cc2	-0.050808676
79	0x3cbfd96c	0.023419105
80	0x3d30f1f4	0.043199494
81	0x3d5454ed	0.051838804
82	0xbd4fe0df	-0.050751563
83	0x3be25b2b	0.0069078407
84	0x3bff6ca8	0.0077949353
85	0x3d3d1052	0.046158142
86	0xbc0b4151	-0.008499459
87	0x3b260d33	0.0025337457
88	0x3c31f2b5	0.0108610885
89	0x3d24e1b3	0.040254306
90	0x3cc8106a	0.02442189
91	0xbd218cc1	-0.039440874
92	0xbc9a9337	-0.018869026
93	0xbd2c82ed	-0.042117048
94	0xbd4dd8f8	-0.050255746
95	0x3cfcbb76	0.030851107
96	0xbaccc545	-0.0015622756
97	0xbbe3d830	-0.006953262
98	0x3cdff64f	0.027339129
99	0xbc810ca7	-0.015753103
100	0x3c5290e1	0.012851925
101	0x3c581273	0.013187992
102	0x3d94552f	0.0724281
103	0xbd19f9ec	-0.03759186
104	0x3bff12d6	0.007784228
105	0x3b461e3b	0.003023042
106	0xbda07eec	-0.078367084
107	0x3c1bbdd3	0.009505707
108	0x3c1dbbbc	0.009627279
109	0xbd62ff19	-0.05541906
110	0xbbeea7af	-0.007283173
111	0x3d0973e6	0.033557795
112	0x3bd9b424	0.006643789
113	0x3c6344ea	0.013871411
114	0x3d471d5f	0.048611995
115	0x3c40b2cb	0.011761378
116	0xbb2e5cf2	-0.0026605693
117	0x3bcc4f52	0.0062350417
118	0xbd047ac0	-0.032343626
119	0xbc3afe6f	-0.011413201
120	0x3dae6e47	0.085171275
121	0x3d540064	0.051758185
122	0x3d58c6fa	0.052924134
123	0x3d4c94e6	0.049946688
124	0xbd0de41f	-0.03464138
125	0xbce1ce63	-0.027564233
126	0x3c52e779	0.01287257
127	0xbd30662c	-0.04306619
128	0xbc50fee8	-0.012756087
129	0x3c8cb623	0.017176693
130	0xbd9c5b55	-0.07634608
131	0x3d37e1ca	0.044893064
132	0xbd2421fe	-0.04007148
133	0xbdb12f91	-0.08651651
134	0xbb4f4149	-0.0031624606
135	0x3c7eb91b	0.015547062
136	0x3d8f702b	0.07003816
137	0xbd81bd55	-0.0633494
138	0x3d1d5c7e	0.038418286
139	0xbba35281	-0.0049842005
140	0x3c20a9bd	0.009806094
141	0x3bee8a1e	0.0072796484
142	0x3d05e9ad	0.032693554
143	0xbddfbee6	-0.10925083
144	0xbd84f9fd	-0.06492994
145	0xbd391e86	-0.045195125
146	0x3d9788ca	0.07399137
147	0x3d458866	0.048225783
148	0x3db80583	0.08985426
149	0x3c1e4296	0.00965943
150	0xbd08ac56	-0.033367477
151	0x3bf36beb	0.0074286363
152	0xbd3967ca	-0.045264997
153	0xbce36cc3	-0.027761823
154	0x3b932ed4	0.0044916663
155	0x3cfb50dd	0.030678207
156	0xbb8005c9	-0.0039069396
157	0xbcbc081a	-0.022953082
158	0x3c37289b	0.011179115
159	0x3c9b7496	0.018976491
160	0xbd84b174	-0.06479159
161	0xbd8e5f3b	-0.069517575
162	0x3d9b97e3	0.075973295
163	0xbd35c626	-0.044378422
164	0x3db2178b	0.08695897
165	0xbc813df7	-0.015776617
166	0x3d0aa812	0.03385169
167	0x3cbb76c7	0.022883786
168	0x3cd9675a	0.02653854
169	0xbd74e484	-0.059788242
170	0xbc9fdf1d	-0.019515568
171	0xbcbee91c	-0.023304515
172	0x3d98c49d	0.07459376
173	0x3d9699fd	0.0735359
174	0x3d421e24	0.047392026
175	0x3d02db7b	0.031947594
176	0x3cbe8fe8	0.02326198
177	0xbd3289b7	-0.043588366
178	0xbd0ad84a	-0.033897676
179	0x3d530c94	0.051525667
180	0xbcfd11a0	-0.030892193
181	0x3d4a190b	0.04934029
182	0x3d7faa19	0.062418077
183	0xbccc0e2e	-0.024909105
184	0xb91552a8	-0.00014240539
185	0xb9b74262	-0.0003495394
186	0xbdbf9078	-0.09353727
187	0xbbaef2aa	-0.0053389864
188	0x3d123698	0.035696596
189	0x3d84fbe3	0.06493356
190	0x3cf69da7	0.030104471
191	0x3ca8c773	0.020602917
192	0x3ca48f4f	0.020087866
193	0x3ca69559	0.020334886
194	0x3ca0eec6	0.019645106
195	0xbc7eec4a	-0.015559265
196	0x3c4ca838	0.012491278
197	0x3baf19e3	0.005343662
198	0xbd37dc59	-0.044887874
199	0xbda9ec74	-0.08297053
200	0x3c5639e3	0.013075325
201	0x3c21fe5e	0.009887306
202	0xbd1a7cdf	-0.037716743
203	0xbd75130a	-0.05983261
204	0x3a3e676c	0.0007263336
205	0x3cdc490c	0.0268903
206	0x3c0fd6c1	0.008779229
207	0x3dfc40da	0.12317057
208	0x3d137dff	0.03600883
209	0xbd08b932	-0.03337974
210	0x3cafae12	0.021445308
211	0x3c2ed0ee	0.01066993
212	0xbd78d051	-0.06074554
213	0x3d60eeae	0.054915123
214	0xbc9011dd	-0.017586643
215	0x3ba22eec	0.004949441
216	0x3d569951	0.052392308
217	0x3d3a9293	0.04554994
218	0xbd16ebf8	-0.03684613
219	0x3d0835cc	0.03325443
220	0x3c914100	0.01773119
221	0x3af5e1e8	0.0018759342
222	0x3c9c5bc3	0.019086724
223	0xbd14ec78	-0.036358327
224	0xbbf222f5	-0.007389421
225	0x3d1db619	0.03850374
226	0xbd24b645	-0.04021289
227	0x3d9650d1	0.07339633
228	0xbd5b6780	-0.053565502
229	0x3d3999a6	0.045312546
230	0xbcde1d8f	-0.027113704
231	0x3cf27d44	0.029600747
232	0xbbccef46	-0.0062541096
233	0x3d0d7a33	0.034540366
234	0xbc8eaadb	-0.017415455
235	0x3d27e197	0.040986624
236	0xbd597ba7	-0.05309644
237	0xbcb3a734	-0.021930315
238	0xbd691f5b	-0.05691467
239	0xbcfbf81a	-0.030757952
240	0x3af072d3	0.0018344767
241	0xbc0ef08b	-0.008724342
242	0x3bf7ba60	0.0075600594
243	0xbd5acba1	-0.053416852
244	0x3d3cb54d	0.04607134
245	0xbcbaa9d4	-0.022786058
246	0xbd1ac5af	-0.037786182
247	0x3bcd93b5	0.0062737116
248	0xbd9bc4a7	-0.07605868
249	0xbcaf898f	-0.021427898
250	0x3d2d0837	0.042244162
251	0xbd581a30	-0.05275935
252	0x3c9bacd8	0.019003317
253	0x3c4cbf48	0.012496777
254	0x3bf19cdd	0.007373436
255	0x3bb0c2b4	0.005394304

act.action_out.linear.bias f4 [5]
0	0xbc89a3c7	-0.016801728
1	0xbc899130	-0.016792864
2	0xbc9042fe	-0.01761007
3	0x3c276391	0.01021661
4	0x3cf600db	0.030029705
