mappo_ros/onpolicy/scripts/results/MPE/simple_spread/mappo/check/wandb/offline-run-20230123_101604-ptcce85l/files/critic.pt (torch_old, 45400 bytes, 15 tensors)

base.feature_norm.weight f4 [28]
0.9607084 0.99323565 1.008862 0.9826246 0.9819382 0.9864726 1.006922 1.003225
0.9893927 1.0112357 0.9805747 0.98675543 0.9695208 1.0045507 0.96052474 0.98903763
0.9914073 0.99851567 1.0132177 1.0200064 0.99864966 0.9858719 1.0100555 1.0245515
1.0107813 1.0670414 1.0086919 1.0068518
00000000: fcf0 753f b144 7e3f 6422 813f 498d 7b3f
00000010: 4d60 7b3f 7889 7c3f d2e2 803f ad69 803f
00000020: d748 7d3f 2c70 813f f206 7b3f 019c 7c3f
00000030: 8432 783f 1e95 803f f3e4 753f 9231 7d3f
00000040: decc 7d3f b99e 7f3f 1eb1 813f 928f 823f
00000050: 81a7 7f3f 1a62 7c3f 8049 813f 8124 833f
00000060: 4861 813f d094 883f d11c 813f 85e0 803f

base.feature_norm.bias f4 [28]
-0.023565073 0.0004613344 0.0089684585 -0.014464446 -0.00013646897 -0.012866581 0.013782511 -0.010159622
0.010661042 -0.006962939 -0.010111008 0.013376843 -0.025923897 0.010425448 0.006467255 0.0101386085
0.028777145 -0.0046999096 -0.015617303 -0.0018850381 -0.007240311 -0.005483637 0.005692066 0.03431647
0.017881542 -0.05048692 -0.01606711 0.006589559
00000000: 8a0b c1bc 41df f139 71f0 123c 49fc 6cbc
00000010: 1c19 0fb9 5ace 52bc 0bd0 613c 8b74 26bc
00000020: a7ab 2e3c 5e29 e4bb a4a8 25bc 8c2a 5b3c
00000030: 5a5e d4bc 80cf 2a3c 44eb d33b 681c 263c
00000040: 0cbe eb3c b301 9abb b7df 7fbc 6213 f7ba
00000050: 2140 edbb 15b0 b3bb 8384 ba3b 6d8f 0c3d
00000060: 507c 923c 5fcb 4ebd 2c9f 83bc 3aed d73b

base.mlp.fc1.0.weight f4 [64, 28]
0.24146856 0.05449959 0.05887669 -0.034052797 0.15829809 0.13657892 -0.20219086 -0.062269915
0.06386999 0.04551495 -0.051546894 0.31200933 -0.026205236 -0.23599225 0.11815385 0.2527763
-0.0327809 0.32122335 0.019131297 -0.07719725 -0.19081688 -0.060726423 -0.35616904 -0.08133521
0.07142313 0.3085127 -0.081110336 0.1992479 0.17415316 0.00086090865 -0.007984321 -0.1309333
0.43491545 0.1724206 0.41041607 0.37331218 -0.00056377554 -0.2500666 0.00017787825 -0.07319664
-0.08913285 0.1326129 0.15516804 -0.0662165 -0.21573985 -0.23790562 -0.41596022 -0.058173846
-0.33982334 -0.24739039 -0.10215126 0.26205882 0.16406879 -0.095852144 -0.20669274 -0.3352968
0.14425261 0.16464293 0.025850367 0.018583776 -0.028821027 -0.03040325 0.027242275 0.037986793
0.09733887 0.1005651 -0.10400683 0.03647637 0.4092778 0.38709253 -0.08548852 0.16966482
0.13013929 -0.08471293 0.22464058 -0.27050006 0.008974277 -0.17953804 -0.17181298 0.12158262
-0.05161866 0.005504335 0.027148832 -0.012396712 0.29794705 -0.059200957 -0.07122128 -0.40647206
-0.16666251 -0.05489865 -0.12413022 0.09213384 -0.18159182 -0.21408425 0.06545671 0.053503226
-0.15722929 0.16621116 -0.069439605 0.015583756 0.043436088 -0.08334476 0.19802697 0.22132882
0.117236756 -0.098154195 0.023977201 0.03242978 0.20704909 0.032765694 0.0010134251 0.4032507
-0.05445596 -0.020199623 -0.23155858 -0.09790788 -0.07533644 -0.20724949 0.23518845 -0.49336192
-0.018878201 0.13611555 0.13505404 -0.104136266 -0.36073717 -0.056121886 0.06761107 0.28513032
-0.03781411 -0.08515919 0.029844042 -0.118618146 -0.24643534 -0.016168889 -0.062202793 -0.23332338
0.16536485 -0.06276337 -0.12950563 0.046199337 0.09866208 -0.053834166 -0.13073976 0.024371315
0.07436886 -0.05250203 0.08794246 -0.10507092 0.18997943 -0.2948732 0.1973082 0.032956716
0.028869024 -0.16580828 -0.11816967 0.14076659 -0.00011055065 -0.3151989 0.05241974 -0.29851106
0.42609015 -0.0886688 0.08118856 0.1346264 -0.07786644 -0.21580742 -0.0009122474 -0.07065127
-0.13611986 0.21868907 -0.13204607 0.10034583 0.054675546 -0.042662118 0.043154556 -0.078042924
0.15460171 0.041537646 -0.05431446 -0.19041449 0.03530831 -0.06279739 0.078453474 -0.30618155
0.032717954 -0.10310302 0.057587564 0.0853723 -0.3255864 -0.069995455 -0.06912161 -0.21972919
0.22034392 0.14573124 -0.2526383 0.006500752 0.2472944 -0.05903394 -0.01631362 0.37184525
-0.10191136 -0.13864483 -0.14466183 -0.0151786795 0.07212184 -0.25014785 -0.20190984 -0.022988455
0.21455736 -0.15959729 -0.14121261 0.10770026 -0.08446579 -0.2088252 -0.30544084 0.18546468
-0.0046628173 0.07826522 0.139919 -0.12201192 0.08629077 0.50353885 -0.019444643 -0.04880364
-0.12166193 0.29795447 -0.079084426 0.12168211 0.058626965 0.10753318 -0.16609368 0.059323307
-0.3958108 -0.08948748 0.08498842 0.28549635 0.19147885 -0.011129814 0.021174492 -0.21866305
-0.052267395 0.09908457 -0.19728036 0.18255007 0.11370866 -0.26502395 -0.3679803 0.11127492
-0.3176306 0.15150256 -0.016796632 0.051828884 -0.29277247 0.31767562 0.09935622 0.12952618
00000000: 8943 773e f63a 5f3d af28 713d f27a 0bbd
00000010: e518 223e 58db 0b3e 1f0b 4fbe bd0e 7fbd
00000020: 45ce 823d e26d 3a3d d622 53bd b0bf 9f3e
00000030: 5dac d6bc f4a7 71be a5fa f13d e56b 813e
00000040: 4445 06bd 6377 a43e 3db9 9c3c 9819 9ebd
00000050: 8065 43be 45bc 78bd ca5b b6be 1393 a6bd
00000060: 4a46 923d 60f5 9d3e 2d1d a6bd a407 4c3e
00000070: 3555 323e 9aae 613a abd0 02bc 6113 06be
00000080: 3dad de3e 078f 303e 0e22 d23e c622 bf3e
00000090: 56ca 13ba bb08 80be d484 3a39 1fe8 95bd
000000a0: 498b b6bd adcb 073e 5fe4 1e3e 849c 87bd
000000b0: e8ea 5cbe 889d 73be bdf8 d4be b347 6ebd
000000c0: 53fd adbe e853 7dbe ae34 d1bd 932c 863e
000000d0: a601 283e 214e c4bd 43a7 53be 06ac abbe
000000e0: f5b6 133e 2898 283e 26c4 d33c 013d 983c
000000f0: 131a ecbc 3d10 f9bc 312b df3c 0a98 1b3d
00000100: 9a59 c73d 13f5 cd3d 8801 d5bd 3f68 153d
00000110: dc8c d13e fe30 c63e 9b14 afbd 9dbc 2d3e
00000120: 3c43 053e f97d adbd 2e08 663e fc7e 8abe
00000130: d908 133c d2d8 37be beef 2fbe 4f00 f93d
00000140: 176e 53bd b55d b43b 3a67 de3c 941b 4bbc
00000150: 848c 983e b47c 72bd 76dc 91bd 1b1d d0be
00000160: 94a9 2abe 68dd 60bd fc37 febd abb0 bc3d
00000170: 35f3 39be e738 5bbe 2b0e 863d 3326 5b3d
00000180: b700 21be 4233 2a3e 5a36 8ebd 0353 7f3c
00000190: 0aea 313d a8b0 aabd 95c7 4a3e 06a4 623e
000001a0: d319 f03d 1105 c9bd d66b c43c 17d5 043d
000001b0: ad04 543e 5235 063d e7d4 843a e076 ce3e
000001c0: 360d 5fbd ae79 a5bc b11d 6dbe ed83 c8bd
000001d0: fe49 9abd 3639 54be 3ed5 703e ef99 fcbe
000001e0: 75a6 9abc e061 0b3e 9b4b 0a3e 6545 d5bd
000001f0: 8bb2 b8be 10e0 65bd ac77 8a3d 9afc 913e
00000200: f8e2 1abd f167 aebd 7e7b f43c 12ee f2bd
00000210: 8c59 7cbe 9e74 84bc 5bc8 7ebd 53ec 6ebe
00000220: 6755 293e 158a 80bd 209d 04be 843b 3d3d
00000230: 580f ca3d 3781 5cbd a5e0 05be 5aa6 c73c
00000240: b34e 983d 5e0c 57bd 2d1b b43d 6c2f d7bd
00000250: f889 423e 9ff9 96be 290b 4a3e 9ffd 063d
00000260: bb7e ec3c a5c9 29be f102 f2bd 1e25 103e
00000270: 6ed7 e7b8 c061 a1be 15b6 563d 71d6 98be
00000280: 7d28 da3e fd97 b5bd 3046 a63d 81db 093e
00000290: 7178 9fbd 9ffc 5cbe e323 6fba 9db1 90bd
000002a0: 0163 0bbe 07f0 5f3e 1637 07be 1d82 cd3d
000002b0: 77f3 5f3d 79be 2ebd d5c2 303d f8d4 9fbd
000002c0: e94f 1e3e 6123 2a3d d778 5ebd 04fc 42be
000002d0: 729f 103d eb9b 80bd 37ac a03d d4c3 9cbe
000002e0: 4303 063d ad27 d3bd f0e0 6b3d acd7 ae3d
000002f0: 43b3 a6be c759 8fbd a18f 8dbd b000 61be
00000300: d6a1 613e 923a 153e cf59 81be 4304 d53b
00000310: be3a 7d3e 93cd 71bd 24a4 85bc 8062 be3e
00000320: e7b6 d0bd e9f8 0dbe 3b22 14be ffaf 78bc
00000330: 9eb4 933d 6113 80be 74c1 4ebe 4952 bcbc
00000340: edb4 5b3e 796d 23be 0a9a 10be f491 dc3d
00000350: 66fc acbd 46d6 55be be62 9cbe 74ea 3d3e
00000360: 8cca 98bb 8449 a03d ed46 0f3e 63e1 f9bd
00000370: 37b9 b03d ece7 003f 5f4a 9fbc 53e6 47bd
00000380: e429 f9bd 7d8d 983e 04f7 a1bd 7834 f93d
00000390: d422 703d 5b3a dc3d 7614 2abe fffc 723d
000003a0: b7a7 cabe 3645 b7bd 690e ae3d 942c 923e
000003b0: 0813 443e d359 36bc 2176 ad3c 35e9 5fbe
000003c0: 5616 56bd daec ca3d dd03 4abe 68ee 3a3e
000003d0: 16e0 e83d 38b1 87be ea67 bcbe 1be4 e33d
000003e0: 7aa0 a2be 7d23 1b3e 1799 89bc 864a 543d
000003f0: 46e6 95be 61a6 a23e 467b cb3d 83a2 043e

base.mlp.fc1.0.bias f4 [64]
-0.03150153 0.0022904254 -0.0014075256 -0.013917162 0.025075484 0.013971775 0.0043451567 -0.007619426
-0.0009007854 0.033889126 0.009970726 0.010294678 0.009385253 -0.010137395 -0.016393328 -0.009637276
0.0031117143 0.042646296 0.0046291547 0.027707936 0.009266386 -0.01730799 -0.0021726757 -0.023236278
-0.003558951 -0.01393088 -0.0063068494 0.00079732446 0.018925384 0.025414826 0.02163867 -0.0011935376
-0.0070962566 -0.00823053 0.001120627 0.011751192 -0.00840837 0.021473942 0.03183308 0.0071952674
-0.014379705 -0.010912953 0.0040963897 0.00022180221 -0.0041986224 -0.006403732 0.019951617 -0.017987348
-0.0005648244 0.007026576 0.03400964 -0.016779082 0.0032885787 0.016067464 0.013188987 0.0030609027
-0.004185408 -0.0063139764 0.0604404 0.044708047 0.027476348 -0.0018674223 -0.01678411 -0.027818786
00000000: c007 01bd f61a 163b b97c b8ba cf04 64bc
00000010: 1a6b cd3c dfe9 643c d161 8e3b 61ac f9bb
00000020: af22 6cba 53cf 0a3d 425c 233c 02ab 283c
00000030: 9bc4 193c 5117 26bc 4d4b 86bc aae5 1dbc
00000040: e7ed 4b3b e2ad 2e3d 2ab0 973b c1fb e23c
00000050: 0ad2 173c 7cc9 8dbc 7363 0ebb 025a bebc
00000060: 4a3d 69bb 593e 64bc b0a9 cebb 8a03 513a
00000070: 6809 9b3c c132 d03c 9443 b13c 7a70 9cba
00000080: b787 e8bb 58d9 06bc 01e2 923a 1288 403c
00000090: 43c3 09bc 1fea af3c 6763 023d 47c6 eb3b
000000a0: db98 6bbc 3ecc 32bc 023b 863b 9493 6839
000000b0: 9994 89bb 66d6 d1bb 9371 a33c 345a 93bc
000000c0: b910 14ba 313f e63b b14d 0b3d 4974 89bc
000000d0: 3285 573b ea9f 833c 9f16 583c 6d99 483b
000000e0: bf25 89bb 79e5 cebb 5a90 773d c91f 373d
000000f0: 1416 e13c 4bc4 f4ba d47e 89bc 39e4 e3bc

base.mlp.fc1.2.weight f4 [64]
1.0340831 0.9946947 1.0029193 1.0085031 0.9875811 0.9978194 1.0039189 0.9927503
0.99392027 1.0524734 1.0034485 0.99750805 1.02278 0.99885404 0.9929664 0.981344
1.0161226 1.0177505 0.98809385 1.0032138 0.9571289 0.9954748 1.0359402 0.980908
1.0029519 1.0053016 0.98509604 1.0042017 0.99364245 0.9840579 1.003898 1.0173254
0.9765906 1.0083187 1.0010825 0.98994094 0.9975203 0.9915228 1.0522678 1.0137628
0.9830071 0.99886733 0.98093665 0.99356043 1.0088017 1.0034486 1.0038198 1.0203667
0.98812187 0.9876629 1.0144154 1.0067704 1.0097488 0.97645617 1.0104412 1.0033898
0.9981183 0.98992175 1.031856 1.0074685 1.0194798 1.0076959 1.007217 0.9862612
00000000: d65c 843f 50a4 7e3f a95f 803f a116 813f
00000010: 1dd2 7c3f 1871 7f3f 6a80 803f e224 7e3f
00000020: 8f71 7e3f 73b7 863f 0071 803f b05c 7f3f
00000030: 74ea 823f e6b4 7f3f 0c33 7e3f 5c39 7b3f
00000040: 4e10 823f a645 823f b8f3 7c3f 4f69 803f
00000050: 6606 753f 70d7 7e3f b099 843f c91c 7b3f
00000060: ba60 803f b9ad 803f 412f 7c3f ae89 803f
00000070: 5a5f 7e3f 38eb 7b3f bb7f 803f b837 823f
00000080: d701 7a3f 9610 813f 7923 803f c56c 7d3f
00000090: 7e5d 7f3f 70d4 7d3f b6b0 863f fbc2 813f
000000a0: 5aa6 7b3f c5b5 7f3f aa1e 7b3f fa59 7e3f
000000b0: 6a20 813f 0171 803f 2b7d 803f 609b 823f
000000c0: 8ef5 7c3f 7ad7 7c3f 5dd8 813f dadd 803f
000000d0: 733f 813f 08f9 793f 2356 813f 146f 803f
000000e0: ae84 7f3f 836b 7d3f db13 843f baf4 803f
000000f0: 507e 823f 2efc 803f 7dec 803f 9d7b 7c3f

base.mlp.fc1.2.bias f4 [64]
-0.043504868 0.0031577717 -0.006538273 -0.012069458 0.018427467 0.0155963255 0.010217557 0.0077369823
-0.0064997063 0.017429577 0.007825357 0.015377974 -0.003865943 -0.0041933376 -0.01317425 -0.010876436
-0.005355206 0.015454607 0.00987488 0.03158752 0.026649127 -0.017806975 -0.048877496 -0.020839449
-0.019128636 -0.014044929 -0.013795194 -0.0052875043 0.014341106 0.039405394 0.024958191 -0.037490554
0.011880034 -0.017594758 -0.0015342799 0.0076655988 -0.015747208 0.011908608 0.026872799 -0.004293075
-0.028154599 0.00600728 -0.0022086326 -0.015764369 -0.0014029442 -0.0046273526 0.01980142 -0.03218393
0.0034928964 0.018976802 0.023439476 -0.012786272 0.010081008 0.037258174 0.0059109363 -0.014300587
-0.0050542015 0.0024030556 0.0031105173 0.01851232 0.003783582 -0.01100309 -0.02878399 -0.020185187
00000000: 2932 32bd 9ef2 4e3b 023f d6bb fabe 45bc
00000010: 33f5 963c bb87 7f3c 8a67 273c 8386 fd3b
00000020: 7dfb d4bb 79c8 8e3c ed35 003c e6f3 7b3c
00000030: c35b 7dbb 4468 89bb cfd8 57bc 1433 32bc
00000040: b97a afbb 5235 7d3c 40ca 213c ea61 013d
00000050: 454f da3c efdf 91bc c533 48bd 7eb7 aabc
00000060: a8b3 9cbc b41c 66bc 3d05 62bc cd42 adbb
00000070: f5f6 6a3c 8d67 213d 1f75 cc3c b28f 19bd
00000080: 79a4 423c e222 90bc e419 c9ba b42f fb3b
00000090: 4a00 81bc 521c 433c 5824 dc3c ecac 8cbb
000000a0: 79a4 e6bc b8d8 c43b b5be 10bb 4724 81bc
000000b0: ffe2 b7ba 0ca1 97bb 9636 a23c 4cd3 03bd
000000c0: 14e9 643b 3d75 9b3c 2504 c03c 837d 51bc
000000d0: d02a 253c 079c 183d 87b0 c13b 024d 6abc
000000e0: b79d a5bb 957c 1d3b d2d9 4b3b 26a7 973c
000000f0: f9f5 773b 4e46 34bc 67cc ebbc 685b a5bc

base.mlp.fc_h.0.weight f4 [64, 64]
0.032056723 0.0078182565 0.06556119 0.41587514 0.064625226 -0.38089994 0.11409278 0.087521516
0.051957138 0.07678691 0.12677021 -0.21503633 0.067549236 0.21181223 0.2824872 -0.33112693
-0.21318446 0.0206855 -0.059845816 0.079367295 -0.051493052 0.26217145 -0.078955404 -0.44446233
0.20674479 -0.27749586 0.15363218 -0.22745565 0.36879382 0.027774304 -0.16954538 -0.07769128
-0.100479804 -0.1089206 0.28038442 -0.10709861 0.0639716 0.030587725 0.102357395 0.0041645346
-0.07253309 -0.071858786 0.06414741 -0.022786884 -0.11367018 0.1919837 0.032962326 0.068999164
-0.1697902 -0.10708686 0.025773069 0.0036711558 0.1466432 0.28428292 0.24460892 -0.17497428
-0.07466941 0.0015769769 -0.042306516 -0.09422265 0.0075697545 -0.0947655 0.43075448 -0.03928344
-0.1937206 0.07413652 0.272368 -0.24633233 -0.01883632 -0.3080867 -0.2629623 -0.24596627
0.020959375 0.08737918 0.29568702 -0.11251275 -0.07481488 -0.31608027 0.09738797 0.119842865
0.11777946 0.2880638 0.1915276 -0.004691386 0.33105975 -0.006476643 -0.028302867 -0.10692126
-0.3082588 -0.11914259 0.020900121 0.026285756 0.0634893 -0.008145501 -0.15135787 -0.3135201
0.08014185 0.16486396 0.0909054 0.23723668 -0.19956441 -0.030006893 -0.10200648 0.2275203
-0.059229165 -0.2706256 -0.015147625 -0.026407612 -0.2783074 0.04833641 0.08010854 0.32546353
0.1556691 -0.1637489 0.03366418 -0.05104889 -0.0012758865 -0.1252111 0.31628382 0.120735
-0.16120186 0.03143004 0.015296954 -0.20715523 -0.32246342 0.1027685 -0.16614218 -0.019898798
-0.03461019 -0.0057861274 -0.03873321 0.119221166 0.107346505 -0.05159729 -0.33078402 -0.21980797
0.06537034 0.50633085 -0.01697955 0.03136554 -0.18393917 -0.20852835 -0.09384543 0.21846642
-0.06322829 0.17460628 -0.09752537 -0.28660277 0.06558426 0.14541303 -0.1397311 0.19658643
0.18633263 -0.032614976 0.13595077 -0.23459435 0.16009134 0.21401264 0.11806363 -0.15410113
-0.18271704 -0.26614827 -0.022994751 -0.28304625 0.17670988 0.15278836 -0.027738392 -0.065093905
-0.21996246 0.17556356 0.12382946 0.18247105 0.16601466 -0.19504529 0.0058824467 0.016515147
-0.25566354 0.07759693 -0.30156302 -0.21149491 -0.19754767 -0.26396385 -0.12401769 -0.2845133
0.042020146 0.21631499 0.06651256 -0.016106818 -0.2861034 -0.031848077 -0.015522626 -0.023848597
0.05032585 0.3733408 0.03101918 0.27643695 -0.012171216 0.24366443 -0.3534917 -0.109551266
0.037364926 -0.16427284 0.038420785 -0.30614102 0.033113834 0.2767257 -0.07399156 0.22434261
0.25504988 0.17529513 0.12405891 0.26793233 0.14464435 -0.38172045 -0.010767021 -0.16698727
-0.065771624 -0.2195248 0.059758883 0.0030827508 -0.079489194 0.014200685 0.1347229 0.07553282
-0.0682323 -0.1419728 -0.031415142 -0.38538286 -0.109272264 -0.01747584 -0.08846362 -0.13240546
0.020132871 0.1870491 0.13796756 0.41434723 0.12427748 0.108112596 -0.115998596 -0.16894478
-0.06705446 -0.32181737 0.0758215 0.06823663 -0.14313698 0.22934753 0.11211397 0.12476227
-0.13505287 -0.16983016 0.086418524 -0.22544539 0.027149862 0.018228868 -0.15444554 0.07713488
00000000: e94d 033d 2518 003c f244 863d 96ed d43e
00000010: 3b5a 843d 5105 c3be 7aa9 e93d 7b3e b33d
00000020: 02d1 543d 7542 9d3d 0dd0 013e 7c32 5cbe
00000030: 4157 8a3d 4ee5 583e 2aa2 903e 7889 a9be
00000040: 074d 5abe a374 a93c e320 75bd 528b a23d
00000050: 61ea 52bd 563b 863e 5fb3 a1bd 9190 e3be
00000060: e8b4 533e f013 8ebe c151 1d3e 22ea 68be
00000070: 8bd2 bc3e f086 e33c 4e9d 2dbe 9b1c 9fbd
00000080: 5bc8 cdbd c311 dfbd 8c8e 8f3e 8456 dbbd
00000090: 8b03 833d 1c93 fa3c c1a0 d13d a676 883b
000000a0: 3b8c 94bd b32a 93bd b85f 833d 8fab babc
000000b0: e9cb e8bd 6097 443e 8103 073d 6f4f 8d3d
000000c0: 7bdd 2dbe 5b50 dbbd 0b22 d33c c697 703b
000000d0: a329 163e 888d 913e c37a 7a3e 752c 33be
000000e0: 47ec 98bd 90b2 ce3a 9949 2dbd cef7 c0bd
000000f0: b40b f83b 6a14 c2bd da8b dc3e ace7 20bd
00000100: b15e 46be e3d4 973d d273 8b3e 8b3e 7cbe
00000110: a04e 9abc 8abd 9dbe ffa2 86be 95de 7bbe
00000120: ffb2 ab3c dbf3 b23d 4a64 973e 166d e6bd
00000130: 8b38 99bd 46d5 a1be 5873 c73d 2d70 f53d
00000140: 5c36 f13d 197d 933e d01f 443e 33ba 99bb
00000150: aa80 a93e 053a d4bb 6adb e7bc 89f9 dabd
00000160: 19d4 9dbe 0801 f4bd bb36 ab3c 3a55 d73c
00000170: ae06 823d b574 05bc 8ffd 1abe b585 a0be
00000180: 6921 a43d 19d2 283e 9c2c ba3d 2cee 723e
00000190: 9d5a 4cbe 04d1 f5bc c6e8 d0bd 15fb 683e
000001a0: 489a 72bd 708f 8abe be2d 78bc c754 d8bc
000001b0: 4f7e 8ebe 66fc 453d f20f a43d 28a3 a63e
000001c0: b867 1f3e cbad 27be 74e3 093d a418 51bd
000001d0: a63b a7ba 5737 00be f4ef a13e e943 f73d
000001e0: 1a12 25be c9bc 003d 13a0 7a3c 8020 54be
000001f0: ed19 a5be 4b78 d23d 2d21 2abe ce02 a3bc
00000200: 6ac3 0dbd 8e99 bdbb b7a6 1ebd 3a2a f43d
00000210: 7cd8 db3d ae57 53bd 865c a9be 5715 61be
00000220: e3e0 853d e69e 013f b218 8bbc 2779 003d
00000230: 8d5a 3cbe 7588 55be 0832 c0bd a9b5 5f3e
00000240: d57d 81bd fdcb 323e 62bb c7bd 99bd 92be
00000250: 0a51 863d 27e7 143e ab15 0fbe f44d 493e
00000260: fbcd 3e3e 4897 05bd ae36 0b3e 8039 70be
00000270: fcee 233e 2126 5b3e 58cb f13d b0cc 1dbe
00000280: 2d1a 3bbe 9644 88be 7d5f bcbc 70eb 90be
00000290: 6ff3 343e 8d74 1c3e a03b e3bc f44f 85bd
000002a0: d73d 61be efc6 333e 4d9a fd3d b1d9 3a3e
000002b0: bfff 293e f4b9 47be 8ac1 c03b c64a 873c
000002c0: 55e6 82be 24eb 9e3d 7866 9abe 1f92 58be
000002d0: f049 4abe 4526 87be fdfc fdbd baab 91be
000002e0: 511d 2c3d ad81 5d3e bd37 883d 72f2 83bc
000002f0: 257c 92be 2173 02bd 9d52 7ebc 225e c3bc
00000300: 7a22 4e3d 8626 bf3e ef1b fe3c 2589 8d3e
00000310: c869 47bc 2b83 793e ddfc b4be 6a5c e0bd
00000320: f70b 193d 2437 28be 1d5f 1d3d 84be 9cbe
00000330: 5fa2 073d feae 8d3e e388 97bd 12ba 653e
00000340: e695 823e 9180 333e 9912 fe3d 6d2e 893e
00000350: a61d 143e dd70 c3be 2968 30bc b6fe 2abe
00000360: 46b3 86bd 1ccb 60be bbc5 743d fa07 4a3b
00000370: 3bcb a2bd fda9 683c cdf4 093e f3b0 9a3d
00000380: 60bd 8bbd 5161 11be 2aad 00bd e750 c5be
00000390: 23ca dfbd 7e29 8fbc 6a2c b5bd 4c95 07be
000003a0: b1ed a43c cd89 3f3e 5e47 0d3e 5225 d43e
000003b0: 3185 fe3d 236a dd3d ac90 edbd dcff 2cbe
000003c0: d953 89bd 3fc5 a4be 4d48 9b3d a5bf 8b3d
000003d0: 8092 12be 14da 6a3e 029c e53d 5c83 ff3d
000003e0: 4d4b 0abe f5e7 2dbe 32fc b03d 28db 66be
000003f0: 6369 de3c b554 953c f926 1ebe e4f8 9d3d

base.mlp.fc_h.0.bias f4 [64]
0.0 0.0 0.0 0.0 0.0 0.0 0.0 0.0
0.0 0.0 0.0 0.0 0.0 0.0 0.0 0.0
0.0 0.0 0.0 0.0 0.0 0.0 0.0 0.0
0.0 0.0 0.0 0.0 0.0 0.0 0.0 0.0
0.0 0.0 0.0 0.0 0.0 0.0 0.0 0.0
0.0 0.0 0.0 0.0 0.0 0.0 0.0 0.0
0.0 0.0 0.0 0.0 0.0 0.0 0.0 0.0
0.0 0.0 0.0 0.0 0.0 0.0 0.0 0.0
00000000: 0000 0000 0000 0000 0000 0000 0000 0000
00000010: 0000 0000 0000 0000 0000 0000 0000 0000
00000020: 0000 0000 0000 0000 0000 0000 0000 0000
00000030: 0000 0000 0000 0000 0000 0000 0000 0000
00000040: 0000 0000 0000 0000 0000 0000 0000 0000
00000050: 0000 0000 0000 0000 0000 0000 0000 0000
00000060: 0000 0000 0000 0000 0000 0000 0000 0000
00000070: 0000 0000 0000 0000 0000 0000 0000 0000
00000080: 0000 0000 0000 0000 0000 0000 0000 0000
00000090: 0000 0000 0000 0000 0000 0000 0000 0000
000000a0: 0000 0000 0000 0000 0000 0000 0000 0000
000000b0: 0000 0000 0000 0000 0000 0000 0000 0000
000000c0: 0000 0000 0000 0000 0000 0000 0000 0000
000000d0: 0000 0000 0000 0000 0000 0000 0000 0000
000000e0: 0000 0000 0000 0000 0000 0000 0000 0000
000000f0: 0000 0000 0000 0000 0000 0000 0000 0000

base.mlp.fc_h.2.weight f4 [64]
1.0 1.0 1.0 1.0 1.0 1.0 1.0 1.0
1.0 1.0 1.0 1.0 1.0 1.0 1.0 1.0
1.0 1.0 1.0 1.0 1.0 1.0 1.0 1.0
1.0 1.0 1.0 1.0 1.0 1.0 1.0 1.0
1.0 1.0 1.0 1.0 1.0 1.0 1.0 1.0
1.0 1.0 1.0 1.0 1.0 1.0 1.0 1.0
1.0 1.0 1.0 1.0 1.0 1.0 1.0 1.0
1.0 1.0 1.0 1.0 1.0 1.0 1.0 1.0
00000000: 0000 803f 0000 803f 0000 803f 0000 803f
00000010: 0000 803f 0000 803f 0000 803f 0000 803f
00000020: 0000 803f 0000 803f 0000 803f 0000 803f
00000030: 0000 803f 0000 803f 0000 803f 0000 803f
00000040: 0000 803f 0000 803f 0000 803f 0000 803f
00000050: 0000 803f 0000 803f 0000 803f 0000 803f
00000060: 0000 803f 0000 803f 0000 803f 0000 803f
00000070: 0000 803f 0000 803f 0000 803f 0000 803f
00000080: 0000 803f 0000 803f 0000 803f 0000 803f
00000090: 0000 803f 0000 803f 0000 803f 0000 803f
000000a0: 0000 803f 0000 803f 0000 803f 0000 803f
000000b0: 0000 803f 0000 803f 0000 803f 0000 803f
000000c0: 0000 803f 0000 803f 0000 803f 0000 803f
000000d0: 0000 803f 0000 803f 0000 803f 0000 803f
000000e0: 0000 803f 0000 803f 0000 803f 0000 803f
000000f0: 0000 803f 0000 803f 0000 803f 0000 803f

base.mlp.fc_h.2.bias f4 [64]
0.0 0.0 0.0 0.0 0.0 0.0 0.0 0.0
0.0 0.0 0.0 0.0 0.0 0.0 0.0 0.0
0.0 0.0 0.0 0.0 0.0 0.0 0.0 0.0
0.0 0.0 0.0 0.0 0.0 0.0 0.0 0.0
0.0 0.0 0.0 0.0 0.0 0.0 0.0 0.0
0.0 0.0 0.0 0.0 0.0 0.0 0.0 0.0
0.0 0.0 0.0 0.0 0.0 0.0 0.0 0.0
0.0 0.0 0.0 0.0 0.0 0.0 0.0 0.0
00000000: 0000 0000 0000 0000 0000 0000 0000 0000
00000010: 0000 0000 0000 0000 0000 0000 0000 0000
00000020: 0000 0000 0000 0000 0000 0000 0000 0000
00000030: 0000 0000 0000 0000 0000 0000 0000 0000
00000040: 0000 0000 0000 0000 0000 0000 0000 0000
00000050: 0000 0000 0000 0000 0000 0000 0000 0000
00000060: 0000 0000 0000 0000 0000 0000 0000 0000
00000070: 0000 0000 0000 0000 0000 0000 0000 0000
00000080: 0000 0000 0000 0000 0000 0000 0000 0000
00000090: 0000 0000 0000 0000 0000 0000 0000 0000
000000a0: 0000 0000 0000 0000 0000 0000 0000 0000
000000b0: 0000 0000 0000 0000 0000 0000 0000 0000
000000c0: 0000 0000 0000 0000 0000 0000 0000 0000
000000d0: 0000 0000 0000 0000 0000 0000 0000 0000
000000e0: 0000 0000 0000 0000 0000 0000 0000 0000
000000f0: 0000 0000 0000 0000 0000 0000 0000 0000

base.mlp.fc2.0.0.weight f4 [64, 64]
0.021718768 0.02822096 0.049135774 0.413344 0.0835385 -0.3832308 0.12126141 0.08119175
0.044177774 0.09099181 0.12962267 -0.2254872 0.056879215 0.22028074 0.28807396 -0.32362187
-0.22853236 0.035634972 -0.057995696 0.10478714 -0.035991564 0.25047028 -0.0906002 -0.4634104
0.19264576 -0.28460446 0.1357173 -0.2146289 0.38124076 0.0031069322 -0.12940463 -0.09949064
-0.07091 -0.09306304 0.2849234 -0.113851205 0.022366256 0.0339359 0.08442946 0.017670915
-0.076763235 -0.07065617 0.039664518 -0.03290149 -0.10001197 0.17324044 0.047437537 0.048613623
-0.15017726 -0.092469506 0.019488484 -0.0005968096 0.15888162 0.28241634 0.23671317 -0.18786682
-0.0687062 -0.00044309584 -0.028670436 -0.12517148 0.029039541 -0.09837978 0.4284335 -0.06889066
-0.19484244 0.08042328 0.24706706 -0.2267362 -0.058623016 -0.34458506 -0.28139976 -0.2606453
0.042748384 0.07067694 0.31929302 -0.15031093 -0.07370682 -0.3226922 0.08490796 0.14112358
0.080551244 0.30177253 0.23095402 -0.061516043 0.28961545 0.008215028 -0.037084322 -0.12905522
-0.31853375 -0.11100901 0.040070523 -0.003638194 0.07709946 -0.022381566 -0.18240124 -0.3136595
0.0666408 0.17431957 0.07468722 0.2550216 -0.18771654 -0.06212588 -0.11994281 0.26563597
-0.026181225 -0.28996807 -0.016075311 -0.046618316 -0.29709417 0.031423565 0.10285554 0.34619597
0.15505295 -0.18378185 0.020557662 -0.06616241 -0.010483771 -0.13403153 0.30406702 0.10235605
-0.12236464 0.006047498 0.051116135 -0.19777414 -0.34124145 0.11589293 -0.14600123 -0.034750424
-0.020371389 0.012656834 -0.025612803 0.12102376 0.105951935 -0.06074982 -0.35636094 -0.24804941
0.055283766 0.5197104 -0.0018441778 0.06683197 -0.18865974 -0.21744372 -0.083657 0.23210908
-0.06555216 0.2066007 -0.08631223 -0.28635547 0.06927523 0.12886558 -0.14948922 0.1799057
0.16857608 -0.021104094 0.10887305 -0.2438108 0.16935715 0.2145858 0.12061943 -0.15420626
-0.16321237 -0.25661975 -0.043568894 -0.28412616 0.16387257 0.13953918 -0.024965597 -0.057719443
-0.21687528 0.14885992 0.112635896 0.16533044 0.18737416 -0.21572506 0.010119846 0.0034765177
-0.26264003 0.11632317 -0.3184606 -0.20393988 -0.20932393 -0.22548692 -0.10659675 -0.29017472
0.056889012 0.21848127 0.089645006 -0.0087896325 -0.27889025 -0.012460793 -0.025655475 -0.052135035
0.051636733 0.3885745 0.021379601 0.27169758 -0.0060373503 0.23769878 -0.3673379 -0.122558765
0.033183843 -0.16675057 0.036244415 -0.29106507 0.03188035 0.29165938 -0.065125294 0.23566698
0.24649042 0.18262517 0.11898373 0.28718424 0.16825749 -0.38461205 -0.03812815 -0.18388854
-0.05664017 -0.21642865 0.052959953 0.0154122375 -0.0666492 0.012320403 0.14623243 0.07683071
-0.05358739 -0.13304503 -0.041303568 -0.36741796 -0.1114857 -0.023440793 -0.09813729 -0.12383151
0.0072846017 0.17773154 0.12484929 0.39988542 0.1391334 0.09739531 -0.12271637 -0.17144096
-0.05624824 -0.29725257 0.06266715 0.084363975 -0.12969336 0.2513512 0.12614481 0.109223776
-0.13398984 -0.1724839 0.09416181 -0.23802139 0.039680704 0.024826955 -0.15271631 0.06303543
00000000: 8feb b13c a52f e73c 9842 493d d3a1 d33e
00000010: 3c16 ab3d d436 c4be e757 f83d dc47 a63d
00000020: c1f3 343d ea59 ba3d cebb 043e 1ee6 66be
00000030: 2efa 683d 4691 613e 6e7e 933e c4b1 a5be
00000040: 6304 6abe faf5 113d e58c 6dbd a49a d63d
00000050: e46b 13bd a43d 803e 998c b9bd 2144 edbe
00000060: ee44 453e adb7 91be 7af9 0a3e aec7 5bbe
00000070: fd31 c33e ac9d 4b3b a682 04be c0c1 cbbd
00000080: 4339 91bd d697 bebd 7be1 913e d22a e9bd
00000090: 7039 b73c 5f00 0b3d 5ae9 ac3d 98c2 903c
000000a0: 0b36 9dbd 2fb4 90bd 4377 223d b6c3 06bd
000000b0: 13d3 ccbd f165 313e dd4d 423d 141f 473d
000000c0: 11c8 19be a760 bdbd 50a6 9f3c 3773 1cba
000000d0: ddb1 223e e098 903e f064 723e 2960 40be
000000e0: d6b5 8cbd 514f e8b9 43de eabc f42c 00be
000000f0: 55e4 ed3c 577b c9bd a35b db3e 8c16 8dbd
00000100: c784 47be f6b4 a43d 26ff 7c3e 892d 68be
00000110: b01e 70bd 746d b0be a113 90be 4d73 85be
00000120: ee18 2f3d 12bf 903d 607a a33e 1ceb 19be
00000130: 9af3 96bd e937 a5be 39e4 ad3d b382 103e
00000140: 0df8 a43d ee81 9a3e 367f 6c3e 3ff8 7bbd
00000150: 7a48 943e 5398 063c bbe5 17bd 0d27 04be
00000160: db16 a3be b158 e3bd fd20 243d c46e 6ebb
00000170: 52e6 9d3d 8c59 b7bc 64c7 3abe fa97 a0be
00000180: f97a 883d d480 323e 9df5 983d 3192 823e
00000190: c438 40be b577 7ebd 93a4 f5bd 7001 883e
000001a0: 027a d6bc b276 94be 5fb0 83bc d9f2 3ebd
000001b0: ba1c 98be ffb5 003d eda5 d23d 9940 b13e
000001c0: 33c6 1e3e 4f31 3cbe 8b68 a83c 2880 87bd
000001d0: 1fc4 2bbc 903f 09be acae 9b3e 0ca0 d13d
000001e0: 509a fabd 172a c63b 275f 513d 4e85 4abe
000001f0: 33b7 aebe 4659 ed3d 5981 15be 7656 0ebd
00000200: e6e1 a6bc 9c5e 4f3c f1d1 d1bc 4edb f73d
00000210: 54fd d83d ced4 78bd f174 b6be aa00 7ebe
00000220: 3b71 623d be0b 053f 57b8 f1ba 33df 883d
00000230: 0530 41be 91a9 5ebe 5c54 abbd 01ae 6d3e
00000240: 3640 86bd 228f 533e 77c4 b0bd 2f9d 92be
00000250: 2ce0 8d3d 57f5 033e b413 19be 3339 383e
00000260: 359f 2c3e 7ee2 acbc d5f8 de3d 8aa9 79be
00000270: f66b 2d3e 61bc 5b3e 5207 f73d 3fe8 1dbe
00000280: 2521 27be aa63 83be 4c75 32bd fc78 91be
00000290: 36ce 273e 5ce3 0e3e a784 ccbc 396b 6cbd
000002a0: 8e14 5ebe bc6e 183e a6ad e63d 624c 293e
000002b0: 03df 3f3e 08e7 5cbe b6cd 253c 4ad6 633b
000002c0: c178 86be d83a ee3d 450d a3be 9ed5 50be
000002d0: 0359 56be 0be6 66be 664f dabd c891 94be
000002e0: 7404 693d 8eb9 5f3e cd97 b73d 6402 10bc
000002f0: b4ca 8ebe 5b28 4cbc 6e2b d2bc 8c8b 55bd
00000300: 0a81 533d 3df3 c63e 4624 af3c f21b 8b3e
00000310: f7d4 c5bb 4f67 733e b713 bcbe 1700 fbbd
00000320: c8eb 073d a9c0 2abe 0675 143d 7b06 95be
00000330: f894 023d 6154 953e 6960 85bd af52 713e
00000340: fc67 7c3e 1802 3b3e bead f33d d009 933e
00000350: b14b 2c3e dfeb c4be 432c 1cbd 474d 3cbe
00000360: 86ff 67bd 799f 5dbe 89ec 583d 9c83 7c3c
00000370: 607f 88bd 84db 493c f4bd 153e 6b59 9d3d
00000380: 737e 5bbd f53c 08be ee2d 29bd 351e bcbe
00000390: 9d52 e4bd e806 c0bc 34fc c8bd 609b fdbd
000003a0: abb3 ee3b 42ff 353e fcb0 ff3d c8bd cc3e
000003b0: fc78 0e3e 3177 c73d b852 fbbd 388e 2fbe
000003c0: 8e64 66bd 7d31 98be a257 803d 05c7 ac3d
000003d0: 56ce 04be 1bb1 803e 1b2c 013e b7b0 df3d
000003e0: a234 09be 9f9f 30be e8d7 c03d e1bb 73be
000003f0: 3c88 223d e661 cb3c aa61 1cbe b818 813d

base.mlp.fc2.0.0.bias f4 [64]
0.0014277702 0.021813158 -0.0009913562 0.002001025 0.08689852 0.0062034647 0.0041223173 -0.01915679
0.0050817723 0.0054539153 0.009706039 0.0015853265 -0.0075818654 0.13343666 -0.019612014 0.008238265
-0.0073323105 -0.0057346076 0.015422832 -0.018217484 0.004984246 0.030466223 0.022557516 -0.022835054
0.018893167 0.0023959898 0.011904495 0.05692733 0.07398611 -0.010875653 -0.020630678 -0.006170996
0.01911345 0.010058272 0.021002837 0.012325177 -0.005837249 0.028299816 0.024859691 0.010064547
-8.9097826e-05 -0.0048813396 0.03859681 -0.016691886 -0.020195113 0.010856858 0.083117045 0.00047958212
0.11417625 -0.0022673008 0.010538917 0.014534127 0.014863525 0.014383184 0.025923766 0.011893739
0.02437052 -0.011934488 0.039866704 0.07943353 -0.019564271 -0.011024904 0.02405717 0.017861666
00000000: 0524 bb3a 82b1 b23c 65f0 81ba a123 033b
00000010: daf7 b13d 6f46 cb3b 8114 873b b3ee 9cbc
00000020: ff84 a63b c2b6 b23b 1406 1f3c bbca cf3a
00000030: 4c71 f8bb 9fa3 083e 60a9 a0bc caf9 063c
00000040: e143 f0bb 60e9 bbbb 0cb0 7c3c d53c 95bc
00000050: e352 a33b 4d94 f93c 8aca b83c 9410 bbbc
00000060: d8c5 9a3c 0a06 1d3b 120b 433c a22c 693d
00000070: 0886 973d cb2f 32bc ab01 a9bc 1136 cabb
00000080: cf93 9c3c 73cb 243c 240e ac3c 8aef 493c
00000090: 6546 bfbb 04d5 e73c 8da6 cb3c c5e5 243c
000000a0: 08da bab8 a5f3 9fbb b017 1e3d 6cbd 88bc
000000b0: 3970 a5bc f7e0 313c 4539 aa3d 6c70 fb39
000000c0: 3dd5 e93d ff96 14bb 6cab 2c3c 8c20 6e3c
000000d0: 2486 733c 72a7 6b3c 145e d43c f5dd 423c
000000e0: afa4 c73c df88 43bc 454b 233d 0cae a23d
000000f0: 4045 a0bc cda1 34bc 8b13 c53c a152 923c

base.mlp.fc2.0.2.weight f4 [64]
0.99152327 0.9923657 0.99366236 0.9825472 0.980431 0.9639951 0.97091454 0.97913104
0.96265095 0.969337 0.98286366 0.97391766 0.9702166 0.9666693 0.98427355 0.98146427
0.98885006 0.9658849 0.9746248 0.98095846 0.99037415 0.990968 1.0132904 0.980328
0.9852058 0.98818165 0.9904904 0.9983601 0.9328912 1.0100136 0.9760462 0.97423583
1.0025398 0.99183995 0.98246425 0.9756598 0.98706967 1.0009403 0.98217005 0.9779239
0.9756156 0.97483134 0.9973691 0.9766874 0.97642887 0.96353275 0.9590269 0.99923337
0.96442074 0.9957949 0.99445266 1.0217433 0.96965283 0.9894892 1.0112057 0.96469223
0.991645 0.98409396 0.9873692 0.9963972 0.9762048 0.9761435 1.0035584 1.0096464
00000000: 78d4 7d3f ae0b 7e3f a860 7e3f 3788 7b3f
00000010: 87fd 7a3f 62c8 763f db8d 783f 55a8 7a3f
00000020: 4b70 763f 7826 783f f49c 7b3f ab52 793f
00000030: 1d60 783f a477 773f 5af9 7b3f 3e41 7b3f
00000040: 4725 7d3f 3c44 773f 0381 793f 1820 7b3f
00000050: 2989 7d3f 14b0 7d3f 80b3 813f c7f6 7a3f
00000060: 7336 7c3f 79f9 7c3f c790 7d3f 8794 7f3f
00000070: f5d1 6e3f 2048 813f 2ade 793f 8567 793f
00000080: 3953 803f 39e9 7d3f c782 7b3f d7c4 793f
00000090: 99b0 7c3f d01e 803f 7f6f 7b3f 3959 7a3f
000000a0: f2c1 793f 8c8e 793f 9553 7f3f 2f08 7a3f
000000b0: 3ef7 793f 15aa 763f c982 753f c2cd 7f3f
000000c0: 47e4 763f 6aec 7e3f 7394 7e3f 7cc8 823f
000000d0: 2b3b 783f 2a4f 7d3f 306f 813f 12f6 763f
000000e0: 72dc 7d3f 95ed 7b3f 3ac4 7c3f e313 7f3f
000000f0: 8fe8 793f 8ae4 793f 9a74 803f 183c 813f

base.mlp.fc2.0.2.bias f4 [64]
-0.013920763 0.013031439 -0.011307851 -0.012990148 -0.015534137 0.012722184 0.0133040445 -0.012548662
0.013172831 0.01369316 0.012390006 0.014205111 0.013140847 -0.017877506 -0.012849899 0.013105314
-0.013047469 0.0129863545 0.013687198 -0.01324709 -0.012435653 0.013261578 0.012929072 -0.012650887
0.013408683 -0.012667253 -0.01270329 0.013769443 0.03321455 -0.01283642 -0.013330465 0.012748361
-0.010714081 -0.012304492 -0.027173383 0.013166528 -0.012834967 0.01185855 -0.014428483 0.012823876
0.012705131 -0.012999295 0.012657445 -0.013801992 -0.011874504 0.013462897 -0.016158603 -0.011608203
0.0031903263 -0.013306869 0.014275319 -0.015528623 0.013941549 -0.011198849 0.012062127 0.014501474
0.011609181 -0.013518831 -0.0017739626 -0.02367155 -0.012735332 -0.012792386 -0.011368531 -0.012884615
00000000: e913 64bc d181 553c 9144 39bc a1d4 54bc
00000010: e582 7ebc b570 503c 35f9 593c e798 4dbc
00000020: dcd2 573c 4759 603c 74ff 4a3c 8ebc 683c
00000030: b54c 573c d973 92bc 6288 52bc acb7 563c
00000040: 0dc5 55bc b8c4 543c 4540 603c 530a 59bc
00000050: e9be 4bbc 1747 593c 75d4 533c aa45 4fbc
00000060: 18b0 5b3c 4f8a 4fbc 7621 50bc 3b99 613c
00000070: fb0b 083d d94f 52bc 0668 5abc 80de 503c
00000080: 1d8a 2fbc c898 49bc b79a debc 6cb8 573c
00000090: c149 52bc 5d4a 423c 7265 6cbc 3c1b 523c
000000a0: 2f29 503c fffa 54bc 2c61 4f3c c021 62bc
000000b0: 488d 42bc 7c93 5c3c 0c5f 84bc 5530 3ebc
000000c0: cb14 513b 0e05 5abc 07e3 693c c46b 7ebc
000000d0: 186b 643c 617b 37bc 3aa0 453c 9797 6d3c
000000e0: 6f34 3e3c 167e 5dbc 4f84 e8ba d7ea c1bc
000000f0: dba7 50bc 2897 51bc 1343 3abc fe19 53bc

v_out.weight f4 [1, 64]
0.02650466 -0.039640687 0.1042982 0.07383212 0.008345739 -0.20586593 -0.14821543 0.124422446
-0.1120203 -0.14656292 -0.22899917 0.006742655 -0.21487485 0.0062632184 0.15324306 -0.04295949
0.059266567 -0.19584394 -0.060175397 0.03698139 0.06672125 -0.04673249 -0.06650327 0.15431768
-0.088404804 0.08165719 0.03473157 -0.0322771 0.0037276358 0.18844861 0.15984158 -0.20911755
0.06652205 0.123365074 0.00047893624 -0.053424384 0.15792237 -0.0187144 0.016954647 -0.077559724
-0.24650335 0.14315823 -0.088693514 0.0779554 0.101387985 -0.07391723 0.0016837959 0.061145805
0.012092863 0.08329268 -0.07310982 0.020886088 -0.08197921 0.05698364 -0.05985228 -0.08973007
-0.07393878 0.10790699 -0.016595684 0.012830181 0.2617311 0.11573421 0.06264182 0.10163266
00000000: 4d20 d93c 465e 22bd 4b9a d53d 4b35 973d
00000010: 91bc 083c 85ce 52be c9c5 17be 32d1 fe3d
00000020: e66a e5bd 9714 16be c27e 6abe 7df1 dc3b
00000030: 2708 5cbe af3b cd3b c0eb 1c3e 4af6 2fbd
00000040: 80c1 723d 508b 48be 7a7a 76bd cc79 173d
00000050: 27a5 883d 916a 3fbd de32 88bd 7405 1e3e
00000060: 940d b5bd e33b a73d b142 0e3d fe34 04bd
00000070: 5a4b 743b acf8 403e 83ad 233e e922 56be
00000080: b63c 883d d4a6 fc3d bc19 fb39 87d3 5abd
00000090: 67b6 213e f14e 99bc 79e4 8a3c a2d7 9ebd
000000a0: 606b 7cbe 1298 123e f2a4 b5bd 15a7 9f3d
000000b0: 81a4 cf3d eb61 97bd d1b2 dc3a 0674 7a3d
000000c0: 2521 463c 5a95 aa3d 9aba 95bd 4d19 ab3c
000000d0: b7e4 a7bd ad67 693d aa27 75bd 66c4 b7bd
000000e0: 376d 97bd 57fe dc3d acf3 87bc ae35 523c
000000f0: 9e01 863e 0f06 ed3d 5b4a 803d c924 d03d
