mappo_ros/onpolicy/scripts/results/MPE/simple_spread/mappo/check/wandb/offline-run-20230124_163230-8f9fu8gk/files/actor.pt (torch_old, 42680 bytes, 16 tensors)

base.feature_norm.weight f4 [14]
00000000: 6f55 7f3f 69bf 813f 9ee8 803f 9cea 7f3f
00000010: e763 813f e783 7e3f 7a49 813f 4603 803f
00000020: 6a96 813f 8f31 7f3f 9aba 813f 5115 7c3f
00000030: 8692 813f a734 7f3f
0.99739736 1.0136539 1.0070989 0.9996736 1.0108613 0.99420017 1.0100548 1.0000999
1.0124028 0.99684995 1.0135071 0.98470026 1.012284 0.99689716

base.feature_norm.bias f4 [14]
00000000: c4a8 d53b 5353 ceba 1ebd 2b3b 64ae eb3b
00000010: b2f5 b13a 6d6a 873b 6f8b 87bc 6511 14bc
00000020: c54a 4cbc 19c5 60bc 305c c237 ac28 0b3c
00000030: e42d a5bb e070 8fbc
0.0065203626 -0.0015741385 0.0026205252 0.00719242 0.0013577251 0.00413256 -0.01654598 -0.00903735
-0.012468998 -0.013718867 2.316953e-05 0.008493584 -0.005040871 -0.017509878

base.mlp.fc1.0.weight f4 [64, 14]
00000000: 98b2 353e 7c89 e0bc b872 843d b6e4 40bd
00000010: c4c2 6abd 769f 6abe 09c4 7dbe 6365 6b3e
00000020: aaf8 29be 9959 aebc 6e42 eebc 077b 633d
00000030: cda4 ca3e 486e a13e 596a 2e3e 715e 9e3d
00000040: 900f 243e 98df dfbd 0cc2 debd 7108 8b3e
00000050: a3b6 ad3d 0ceb 263d 3b6f 3fbe f4db 3a3e
00000060: 6bd3 013e ddb2 793d bfd7 cd3e 8be3 42be
00000070: a287 663d 635f 8f3e e253 83bd 8254 abbd
00000080: 7644 65be 24ef 8abd 69c6 da3d 517c 67bd
00000090: 5769 43be 589c 8cbd cc14 8dbc c996 80bd
000000a0: d7ae 4f3e 8a7b f13c f76d bb3d 2ba8 003f
000000b0: a0ea 7a3d 5401 4cbc a152 bbbd d76d 1e3e
000000c0: 5e6e 7fbd 3d1e 003d 4c47 a9be 194e bb3e
000000d0: cdf5 a13e d200 55be ad40 6cbd 71a0 283d
000000e0: 8121 21be bb52 113c b8b8 ecbd 665a a83e
000000f0: eada 56bd 01be 1e3d 6d48 523e 0e75 183e
00000100: ab85 633e eab8 fcbd 4f87 943d 410f 38be
00000110: 2575 533d e2b0 99bd 5ec2 923d 1863 03be
00000120: 45a8 28be 56b0 19be b966 8cbe d7c2 e13d
00000130: ce21 be3c ed5e 0ebe de6b 783e 24c5 233d
00000140: aa67 f2bd 42cb d5be 1924 51bc 7e8d 893e
00000150: 6ae2 a43e a93f a1be 6ee7 4f3c a2fc 92be
00000160: 69b6 4d3c 64e2 9a3d 550d 8cbc b89a 4b3e
00000170: 07d9 9cbd 4fb3 47bd a27f 96be 37c5 433c
00000180: 6728 263e 0bc1 5cbe d489 c5bd 4be0 533e
00000190: 8d29 823e 6c45 4bbe 2f19 173e c5f1 203e
000001a0: 4ce4 5a3d ab88 a83c 03c4 ef3b 0fe4 363e
000001b0: 558f c2bd f1e0 9c3d f476 103d 378e debd
000001c0: 6027 cd3d 0144 05be 6d5d af3d f842 1b3d
000001d0: fbe2 1d3e 9c43 d3be e18b bc3d 9298 6c3e
000001e0: ded3 31be 52fc a2bd 98df fc3d 2d0e debd
000001f0: 71d5 61be 1eae 9dbd b212 c63d a4eb ea3d
00000200: a5e9 2d3e 14ac 94be ed62 1ebe c078 8abe
00000210: 720e e2bc 0e63 76bd fe47 563e 4b75 54be
00000220: 4413 e43d 7efe ab3d 28a2 ac3d 862c ce3d
00000230: 05f8 b9bd f35d adbd ce94 7f3e 2edd 7b3d
00000240: dea3 d53d 3687 8ebe 70cf a2be 800e b33e
00000250: 4980 a13d 8577 433e 0dd7 48bc 601f 87bd
00000260: 3395 c0bc 1d69 f8bd 6823 83bc 9402 e7bb
00000270: c6ca c33e 9248 be3d 41ba 513d e311 bbbd
00000280: c385 023e 37e7 44be 6e07 513d e7f7 ff3d
00000290: 962e 6c3e 88ce aa3d e5e4 1c3e 24f8 25be
000002a0: fc19 963e e197 a0be 5941 9cbe 3e77 6cbe
000002b0: a07a 6cbd 0351 6cbd bdd0 db3d f090 033e
000002c0: 52e8 a8be 1705 d0bd a700 1e3e cc1d b4bd
000002d0: dc66 06be 44bb a43e 1ddd da3e f193 21be
000002e0: 6917 32be dac7 eb3d 05c7 b93d c209 983e
000002f0: f492 aebd aded 983e 3d00 ef3e b21f b8bd
00000300: 836a 0d3e 0ddd 743d b5b7 1c3e a7a4 38bc
00000310: 1b9d 38be 844c 013e 12ac 733d 14f0 92bd
00000320: 3833 d33d 20d1 0cbe f99b 2ebd f680 e03d
00000330: 14c5 bc3e c57e 6f3c fc0e 023e 2103 b4bd
00000340: ecbe d3bd bf2d 143e bea0 3abe 331d 953b
00000350: cd0c 8b3e 9a39 653e fa76 ddbc baa8 693b
00000360: b1b8 c1bd 4122 01bd cf04 8c3a c63e 65bc
00000370: cb4f b63c 1801 04bc cf9c 5dbe ae16 40bd
00000380: 9fe2 6ebe 5b0e 9abd 5570 9cbe 4cde 1a3e
00000390: a948 403d 78a3 0dbd 2e45 6ebe 9375 c8bd
000003a0: 718a f43c b837 d83e 2b4d 7dbe eaab 64bd
000003b0: b8ab 3ebe 9a64 abbc 565f 823e f534 94be
000003c0: 9792 4c3e 8c15 e73e 55b5 c43d 8e9c a1bd
000003d0: 1f25 333d eea1 47bc f54e 87bc 15ed 7ebd
000003e0: 5ff4 ba3e 593e b33d 5982 6dbe ee38 f3bc
000003f0: 0de9 1e3e e40e 90bc 6e02 04be 06d1 77be
0.1774391 -0.027409308 0.06467193 -0.047093116 -0.05731465 -0.22912392 -0.24781813 0.22987895
-0.16598764 -0.021282958 -0.02908441 0.05553725 0.39578858 0.3152945 0.17032756 0.07732857
0.16021562 -0.10931319 -0.10876855 0.27154878 0.08482101 0.040751502 -0.18694775 0.18247968
0.12678306 0.060961593 0.40203664 -0.19032113 0.056281693 0.28002462 -0.06412484 -0.08365728
-0.22389397 -0.06783894 0.10682375 -0.05651504 -0.19083153 -0.06865758 -0.01722183 -0.0627876
0.2028154 0.029477853 0.091518335 0.50256604 0.061258912 -0.0124514885 -0.091466196 0.15471588
-0.062361114 0.031278837 -0.33062208 0.3658302 0.31632844 -0.20801094 -0.057678867 0.041168634
-0.15735437 0.008869822 -0.1155867 0.3288147 -0.052454866 0.03875542 0.2053544 0.14888403
0.22218959 -0.12339957 0.072523706 -0.17974569 0.05162539 -0.07504441 0.07165979 -0.1283077
-0.1647044 -0.15008673 -0.2742212 0.11023491 0.023209479 -0.13903399 0.24259898 0.03998293
-0.118361786 -0.41756636 -0.012764954 0.26865762 0.3220399 -0.3149388 0.0126894545 -0.2870837
0.012555697 0.07562712 -0.017096201 0.1988324 -0.07658582 -0.048754986 -0.2939425 0.011948875
0.1622635 -0.21558015 -0.09645429 0.2069103 0.25422326 -0.19850701 0.147557 0.15717228
0.053440377 0.02057298 0.0073170676 0.17860435 -0.09499995 0.07660092 0.035269693 -0.10866969
0.10017276 -0.13014223 0.085627414 0.037905663 0.15418617 -0.4126252 0.09206367 0.23105076
-0.17365977 -0.079582825 0.123473346 -0.108425476 -0.22054078 -0.07699226 0.096715346 0.11470726
0.1698366 -0.29037535 -0.15467425 -0.2704525 -0.027594779 -0.06015306 0.209259 -0.20747869
0.11136487 0.0839815 0.08429366 0.10067086 -0.09080509 -0.08465185 0.24959108 0.06149023
0.10431646 -0.27837533 -0.31798887 0.34972 0.078857966 0.19088562 -0.012258303 -0.06597781
-0.023508644 -0.12129424 -0.016008094 -0.007049868 0.3824064 0.092911854 0.051203016 -0.09134271
0.12746339 -0.19228826 0.051032476 0.124984555 0.23064646 0.08340174 0.15321691 -0.1620794
0.293167 -0.31365874 -0.30518606 -0.23092362 -0.05773413 -0.057694446 0.10733173 0.12848258
-0.32989746 -0.10157221 0.15429936 -0.08794746 -0.13125175 0.32174122 0.4274682 -0.15779091
-0.17391743 0.11512728 0.09071163 0.29694945 -0.08524123 0.29868832 0.4667987 -0.089904204
0.13810162 0.059781123 0.15304454 -0.011269725 -0.18028681 0.12626845 0.05949027 -0.071746975
0.103125036 -0.1375165 -0.042629216 0.10962097 0.3686911 0.014617627 0.12701029 -0.08789659
-0.1033915 0.14470576 -0.18225381 0.0045506 0.27158204 0.22385255 -0.027034272 0.0035653547
-0.09459055 -0.031526808 0.0010682585 -0.013992017 0.022254845 -0.008056901 -0.21641849 -0.04689663
-0.23328637 -0.07522269 -0.30554453 0.15123862 0.046944294 -0.034579724 -0.23268577 -0.097880505
0.02985117 0.4223001 -0.24736468 -0.055828013 -0.18620193 -0.020921994 0.2546336 -0.28946653
0.19977795 0.45133626 0.09604899 -0.078911886 0.043736573 -0.012184603 -0.016517142 -0.062237818
0.36514565 0.08752126 -0.23194255 -0.029690232 0.1551859 -0.017585225 -0.12891552 -0.2420083

base.mlp.fc1.0.bias f4 [64]
00000000: c376 1a3c fa18 ba3a 8360 5bbc fadb 45ba
00000010: 3270 183c 8163 6dbc 13f8 163c cd0e 69bb
00000020: 28c4 0ebc dfec 6638 0de6 8cbc d930 59bc
00000030: 5677 863a 9d07 053c b42c 3c39 9b32 85bb
00000040: fb01 3f3b 5650 b33b a078 82bb 5967 933c
00000050: 93f8 3a39 6d6a c03b 14a9 53bb cc54 0e3c
00000060: 813a 9bbc 9073 31bc bd4a 86bb 45cc be3b
00000070: 0155 b23c a41d 5dbc ed7b 683c ddf1 d2b8
00000080: 84e0 973a f570 bf3a 1386 6dbc b849 1fba
00000090: 2bbf 0cbc 8458 873b 46e4 7bbc 3ba7 05ba
000000a0: 97a2 d9bb c3ab 0abc d7cc 02bb f63b 1d3b
000000b0: 8803 59ba 1568 1abc 7fec 16bc c92e 4e3b
000000c0: aaf6 943a 1ee0 183b ce3f 8b3a 4ad6 533b
000000d0: 8ebd 8b38 b94c 863c 4fd1 90bc 3ff3 f63b
000000e0: 5949 4c3b eb21 853b 145b b03c a337 f93b
000000f0: 484a cb3b 1ed2 30bc 1675 003c 0b95 eeba
0.009427729 0.0014198117 -0.013389709 -0.00075477327 0.009304093 -0.014489056 0.009214419 -0.00355618
-0.0087137595 5.5056877e-05 -0.01719954 -0.013256275 0.0010258954 0.008119491 0.0001794573 -0.0040648705
0.0029145468 0.0054722233 -0.003981665 0.017993616 0.00017830943 0.005872062 -0.0032296823 0.008687209
-0.018948795 -0.010830775 -0.004098265 0.0058226907 0.021769049 -0.013495836 0.014189702 -0.00010058631
0.0011587297 0.0014605807 -0.014497298 -0.00060763536 -0.0085905 0.004130425 -0.015374249 -0.00050984666
-0.0066416967 -0.008463803 -0.001995852 0.0023992038 -0.0008278419 -0.009424229 -0.0092116585 0.0031460992
0.0011365016 0.0023326944 0.0010623874 0.003232377 6.663344e-05 0.016394006 -0.017677931 0.0075363214
0.0031171648 0.004062881 0.021527804 0.0076055094 0.0062039234 -0.010792283 0.007840415 -0.0018202377

base.mlp.fc1.2.weight f4 [64]
00000000: 9125 813f 85dc 7e3f 8145 7e3f 0c3e 803f
00000010: 91b9 7d3f 722f 7c3f c611 803f 2c27 7f3f
00000020: fc5a 7e3f 8653 813f 0bcd 813f 7db3 803f
00000030: e915 823f be83 823f 0d19 7d3f 67bd 7d3f
00000040: 024c 7e3f 428d 813f 9f83 7e3f 8b4d 813f
00000050: 0b5c 7d3f a35a 803f d42f 813f e2e0 803f
00000060: ca37 803f 14a1 7f3f 19de 7e3f cb76 803f
00000070: 5901 7d3f 0b49 7b3f ba29 7f3f 6404 813f
00000080: 42fc 803f 26b6 7d3f c3f7 7c3f 8651 823f
00000090: f1ca 803f 685d 813f 95e0 7c3f 32da 803f
000000a0: 4c51 7e3f b40f 813f c915 7d3f cd36 803f
000000b0: 1cdc 813f 0165 7d3f f23e 7e3f 448b 7e3f
000000c0: 4ab7 7c3f 0539 813f 9d37 7e3f 7700 803f
000000d0: 128d 813f 711e 803f 880d 7d3f 8ada 803f
000000e0: 373b 7f3f e452 803f 3977 7f3f 19d7 7f3f
000000f0: d882 823f e2f9 7f3f eb24 7d3f 8cca 7d3f
1.0089589 0.99555236 0.99324805 1.0018935 0.99111277 0.98509896 1.0005424 0.99669147
0.9935758 1.0103614 1.0140699 1.0054775 1.0162936 1.0196455 0.9886635 0.9911713
0.9933473 1.0121233 0.9941959 1.0101789 0.9896857 1.002766 1.0092721 1.0068629
1.0017025 0.9985516 0.99557644 1.0036253 0.9883018 0.9815833 0.99673045 1.0079465
1.0076983 0.9910606 0.98815554 1.0181129 1.0061933 1.010663 0.98780185 1.0066588
0.993428 1.0082917 0.98861367 1.0016724 1.0145297 0.98982245 0.99314797 0.9943125
0.98717177 1.0095526 0.9930361 1.0000142 1.0121176 1.000929 0.9884877 1.0066693
0.9969973 1.0025296 0.99791294 0.9993759 1.019618 0.99990666 0.9888446 0.99137187

base.mlp.fc1.2.bias f4 [64]
00000000: cea3 d1ba dad8 ac39 90b5 afbb 72b1 b1ba
00000010: 3071 103c 1a99 83bc f7f4 3c3c 7e20 caba
00000020: 5b4c b1bb 1814 56bc 04bb 80bc ab78 11bc
00000030: e210 01bc 6ad0 11bc 75a0 433b fba7 f93b
00000040: 5d3b d8ba 4b8a 123c 02cf 88bb a219 a93b
00000050: 6f77 c0bb 5628 323b 28b7 5dbc 5dc2 143c
00000060: 352c 44bc 90ea 1abc f441 04bb 35db 98bb
00000070: 6aeb 713c 44a2 76bb f2e2 2e3c 1724 d0bb
00000080: 9c26 033c 17b2 703b 53e2 b8bb b9f5 56bc
00000090: 2560 01bc 8edf 3cbb 2de5 7cbc 2e7a f6b9
000000a0: ae4a eabb 5077 c2bb 0e14 d0ba f3dd f73a
000000b0: 022e b5bb 53d9 a6bc ea84 25bc 2599 803b
000000c0: ed8d 703c f1e5 f7bb 8d5c 873a 0466 55b9
000000d0: 085b cdbb 0a60 373c 72f4 5dbc 8df2 8b3a
000000e0: 983a 793b f9ea 1e3c a318 b33c d821 0939
000000f0: 0ef8 58bb 9243 12ba 8961 b43b 8fdf 8cbc
-0.0015994252 0.00032967963 -0.00536222 -0.0013556911 0.0088160485 -0.016064215 0.011533014 -0.001542106
-0.0054107136 -0.013066314 -0.015714176 -0.008878867 -0.00787756 -0.008899787 0.0029850279 0.007618902
-0.0016497184 0.008944104 -0.004175068 0.0051605264 -0.0058736126 0.0027184687 -0.013532437 0.009079543
-0.01197343 -0.009455338 -0.0020180913 -0.0046648034 0.0147656 -0.003763334 0.010674225 -0.0063519585
0.008004811 0.0036727244 -0.0056422143 -0.013120108 -0.007896458 -0.0028819772 -0.015435499 -0.00047011807
-0.007150016 -0.0059346333 -0.0015875117 0.001891075 -0.005529166 -0.0203673 -0.01010249 0.0039245063
0.014682275 -0.007565253 0.0010327265 -0.00020351267 -0.0062669553 0.011192331 -0.01354705 0.0010677144
0.003802931 0.0096995765 0.021862334 0.00013077946 -0.0033106836 -0.0005579527 0.005504791 -0.017196445

base.mlp.fc_h.0.weight f4 [64, 64]
00000000: 2de0 39be 5942 20be b57f e63b da3e 2d3e
00000010: a27a 00be 7cdd 27be d96b 80be 1f8f b63d
00000020: 96cc 9d3e 89d2 efbd 8b79 893e e3f7 24be
00000030: 22d1 263e 01ed 3cbe ee11 6dbe fedf 033e
00000040: f19e d3bc 79cc 2ebe a8fc 7d3d 4b1a ea3d
00000050: 03d5 4a3e 2a0a b73d d0f8 3abe b7be 63bd
00000060: 7709 0e3d d75d b93e 82e6 873d a1ca b53a
00000070: 416b 5fbe 6046 e23d 45ed d83e d983 e4bd
00000080: 6988 1cbe d6d5 803d 180d 81be 699e d73d
00000090: 0b37 733e f127 1cbe 2296 8ebc 66ae 0b3d
000000a0: 05aa 1c3d 7980 a83d 55b6 01be c457 d4bd
000000b0: c9e8 02be 1fb8 9e3c 3313 d93e 1227 1bbe
000000c0: fb8f 10bd ab0b fbbd 8ccc 60be 9c2d 51be
000000d0: 70f4 13be 24b9 1cbe d8f6 3a3d c7f5 a7be
000000e0: 1911 0abd 6717 a4bc 5055 2c3e 9efa 71be
000000f0: 7c1e ebbd fc48 0abe 8246 833e 9002 81be
00000100: 4a0c 2ebe c5fe b9bd a9e6 603e c42b 15be
00000110: 27cc 483d 30be 80be 7c5a 3e3c d50b 373c
00000120: 5635 073e d9a6 17be 5f05 c2bd a951 e53c
00000130: 3e29 bf3e 2791 3a3e 1c9e c7bd 35c7 a4bd
00000140: 1ca2 cbbe 7c0e af3a d1b3 76bc 6925 71be
00000150: b183 2bbe 129e 703d de1f 8ebe 4735 0dbd
00000160: ba76 af3c 9be1 37be 8234 82be eb47 423e
00000170: 9e49 34be 55f8 063d 1088 473d 0f23 8e3d
00000180: abc7 ecbd 61b3 b6bd 5549 123e 3221 47be
00000190: 3b3f 083d 14cc a13e 7a82 803e 3fd4 54be
000001a0: 53b5 4a3e 38b3 943e 71ec 33be f7c1 92be
000001b0: 317b 503d 4e1b eebd 05a4 edbc 3f97 32be
000001c0: 1917 2a3e 08a0 483e 95c4 2f3e 7358 34be
000001d0: fbab 873e abc9 e2bd 6d99 ef3c 279c a93e
000001e0: b1e3 42be fdcf 083d 1f9d 393e 7b91 393e
000001f0: b660 6bbe 9d5c 043e 9c9d 173e 3eed c0bd
00000200: be29 0e3e 9593 853e 65f2 a53d 08bf 9f3e
00000210: 89b9 29be 64a3 6a3e 0e10 2cbe 50d0 94bd
00000220: b4dc 91be 7412 a0be 02da 8dbe abf4 5d3d
00000230: c7d0 a7bd 4ef4 8a3d a38c 39be 12e1 9e3e
00000240: 9c83 1abd b53e fc3d 6f79 283e e2b0 2abe
00000250: 36d2 d53d ab70 ccbe f13e b5bc a635 8ebe
00000260: 8043 1abe 60a1 5ebd c1ab 0cbc b113 88be
00000270: 7014 ea3b 1a04 323d d3d5 2f3e 1859 8cbe
00000280: 63a1 1cbd 2b73 9ebd af41 153e b06e c7be
00000290: ae3f 683e 2fdb 80bd ea32 9f3e f8d2 93be
000002a0: d978 cabd 63c5 953d 8a5b 1b3d 7821 ffbc
000002b0: ce43 833d f1eb c9bd 5e52 f2bc 7370 18be
000002c0: 743f 313e f83d 5bbe 5c1a 333e 514e 603e
000002d0: d0b2 55be 2ba9 1b3d d450 27bc dc87 cfbd
000002e0: 96c0 38bb c8c6 3c3c 90e4 3abe ba2d 57bd
000002f0: 048e 113d 534c f03c 2ff5 643e 747c 98bd
00000300: 2104 ed3d 17b5 7ebc 806d 893c 1bd0 293e
00000310: e4a7 1dbe 4004 213e ed3b 0d3e 3c24 113e
00000320: 7ffb 7c3d 35e9 1bbe d818 623d 3207 1fbe
00000330: 9143 4e3c 25c7 923e 39f4 f1bd c4cb 42be
00000340: 9c31 2a3e 44e2 31be 0a72 63be af17 f6bd
00000350: ca9c 2d3e 9280 033e 9189 1a3e 6365 473e
00000360: 9819 00be c1ef 35bd 17dc 29bd 62e0 c9bd
00000370: b52c a13e e488 9abd 7598 e83e 26a2 14be
00000380: a703 62bd d769 843d e244 0a3e ca5f 3fbd
00000390: 3399 b43d 1b99 293e b506 4fbc 15a0 353c
000003a0: 7907 823e 228d 383e ba5d 3dbe c252 2fbd
000003b0: 1915 e23e 3bf8 8036 926b 5fbe f314 843e
000003c0: b69a a9be 1c22 913e 2508 253e c67d f9bb
000003d0: 3d07 f4bc 856a 7a3e 8398 d7bd 6241 2abe
000003e0: 28c1 2bbd 7a22 9abe 3c25 9e3e a1e4 e3bd
000003f0: 8494 233e 8acf 85bd cde3 08be cb1d 28be
-0.18151923 -0.1565031 0.007034267 0.16918507 -0.1254678 -0.16393083 -0.2508228 0.08914017
0.3082015 -0.11710078 0.26850542 -0.16110186 0.16290715 -0.18449785 -0.23151371 0.12878415
-0.025832625 -0.17070188 0.06200853 0.11430796 0.1980782 0.089374855 -0.18258977 -0.0556018
0.034676995 0.36204407 0.06635763 0.0013869592 -0.21818258 0.11048579 0.42368522 -0.111579604
-0.15286411 0.06290786 -0.25205302 0.10528261 0.23751466 -0.15249611 -0.017405573 0.034101866
0.03824808 0.08227629 -0.1266721 -0.103683025 -0.12784113 0.019374905 0.4239746 -0.15151623
-0.03529356 -0.12258085 -0.21953028 -0.20427555 -0.14448714 -0.15305 0.045645565 -0.328047
-0.03370771 -0.02003069 0.16829419 -0.23630759 -0.11480424 -0.13504404 0.2563973 -0.25197268
-0.16996875 -0.090817966 0.2196299 -0.14567477 0.04902282 -0.25145102 0.011618253 0.011172255
0.1320394 -0.14809741 -0.09473681 0.02799304 0.37336153 0.18219434 -0.09746954 -0.08045808
-0.39772117 0.0013355757 -0.01505752 -0.23549427 -0.16749455 0.058744498 -0.27758688 -0.034474637
0.021418918 -0.17957155 -0.25430685 0.18972747 -0.17606208 0.03295167 0.048713744 0.06940281
-0.11561521 -0.089209326 0.14285786 -0.19446257 0.033263426 0.31601012 0.25099546 -0.2078409
0.19795732 0.29042983 -0.17570664 -0.28663608 0.050898734 -0.11626302 -0.029008875 -0.17440508
0.16610374 0.19592297 0.17164834 -0.17611866 0.26498398 -0.11073621 0.029247964 0.33126947
-0.1903217 0.033401478 0.18126343 0.18121903 -0.22986111 0.12925954 0.14806217 -0.0942025
0.13883111 0.2608916 0.08102874 0.31200433 -0.16574682 0.22913891 -0.16803 -0.07266295
-0.28488696 -0.3126408 -0.2770539 0.05418841 -0.08194118 0.06784879 -0.18120055 0.3103109
-0.03772317 0.12316648 0.16452573 -0.16669038 0.10440485 -0.3992971 -0.02212474 -0.27775306
-0.15064812 -0.054353118 -0.008585871 -0.26577523 0.0071435496 0.043460943 0.17171411 -0.27411723
-0.038239848 -0.0773681 0.14575838 -0.38951635 0.22680542 -0.06291806 0.31093532 -0.28871894
-0.09886331 0.07313039 0.037929095 -0.031143889 0.06409417 -0.098594554 -0.029580291 -0.14886646
0.17309362 -0.21410358 0.17490524 0.21904875 -0.20868993 0.038003128 -0.010212142 -0.10133335
-0.0028190962 0.0115220025 -0.18251252 -0.052533843 0.035535827 0.02933327 0.22359155 -0.074456125
0.11573053 -0.015546105 0.016775846 0.16583292 -0.15396076 0.15724277 0.13792391 0.14173979
0.061763283 -0.1522568 0.055199474 -0.15530089 0.012589351 0.2866756 -0.1181416 -0.19023043
0.16620487 -0.1737147 -0.22211471 -0.12016236 0.16954342 0.12842014 0.1509154 0.1947227
-0.12509763 -0.0444181 -0.04146966 -0.09857251 0.3147942 -0.07545641 0.45428815 -0.1451498
-0.055179264 0.064655 0.13502839 -0.04672221 0.08818283 0.16562311 -0.012635876 0.01108553
0.25396326 0.18022588 -0.18492785 -0.042803533 0.4415672 3.843595e-06 -0.21818379 0.25797233
-0.33125848 0.28346336 0.16116388 -0.0076138703 -0.029788608 0.24454696 -0.10527136 -0.16626504
-0.041932255 -0.3010443 0.30887783 -0.11127592 0.15974623 -0.065337256 -0.13368149 -0.16417615

base.mlp.fc_h.0.bias f4 [64]
00000000: 0000 0000 0000 0000 0000 0000 0000 0000
00000010: 0000 0000 0000 0000 0000 0000 0000 0000
00000020: 0000 0000 0000 0000 0000 0000 0000 0000
00000030: 0000 0000 0000 0000 0000 0000 0000 0000
00000040: 0000 0000 0000 0000 0000 0000 0000 0000
00000050: 0000 0000 0000 0000 0000 0000 0000 0000
00000060: 0000 0000 0000 0000 0000 0000 0000 0000
00000070: 0000 0000 0000 0000 0000 0000 0000 0000
00000080: 0000 0000 0000 0000 0000 0000 0000 0000
00000090: 0000 0000 0000 0000 0000 0000 0000 0000
000000a0: 0000 0000 0000 0000 0000 0000 0000 0000
000000b0: 0000 0000 0000 0000 0000 0000 0000 0000
000000c0: 0000 0000 0000 0000 0000 0000 0000 0000
000000d0: 0000 0000 0000 0000 0000 0000 0000 0000
000000e0: 0000 0000 0000 0000 0000 0000 0000 0000
000000f0: 0000 0000 0000 0000 0000 0000 0000 0000
0.0 0.0 0.0 0.0 0.0 0.0 0.0 0.0
0.0 0.0 0.0 0.0 0.0 0.0 0.0 0.0
0.0 0.0 0.0 0.0 0.0 0.0 0.0 0.0
0.0 0.0 0.0 0.0 0.0 0.0 0.0 0.0
0.0 0.0 0.0 0.0 0.0 0.0 0.0 0.0
0.0 0.0 0.0 0.0 0.0 0.0 0.0 0.0
0.0 0.0 0.0 0.0 0.0 0.0 0.0 0.0
0.0 0.0 0.0 0.0 0.0 0.0 0.0 0.0

base.mlp.fc_h.2.weight f4 [64]
00000000: 0000 803f 0000 803f 0000 803f 0000 803f
00000010: 0000 803f 0000 803f 0000 803f 0000 803f
00000020: 0000 803f 0000 803f 0000 803f 0000 803f
00000030: 0000 803f 0000 803f 0000 803f 0000 803f
00000040: 0000 803f 0000 803f 0000 803f 0000 803f
00000050: 0000 803f 0000 803f 0000 803f 0000 803f
00000060: 0000 803f 0000 803f 0000 803f 0000 803f
00000070: 0000 803f 0000 803f 0000 803f 0000 803f
00000080: 0000 803f 0000 803f 0000 803f 0000 803f
00000090: 0000 803f 0000 803f 0000 803f 0000 803f
000000a0: 0000 803f 0000 803f 0000 803f 0000 803f
000000b0: 0000 803f 0000 803f 0000 803f 0000 803f
000000c0: 0000 803f 0000 803f 0000 803f 0000 803f
000000d0: 0000 803f 0000 803f 0000 803f 0000 803f
000000e0: 0000 803f 0000 803f 0000 803f 0000 803f
000000f0: 0000 803f 0000 803f 0000 803f 0000 803f
1.0 1.0 1.0 1.0 1.0 1.0 1.0 1.0
1.0 1.0 1.0 1.0 1.0 1.0 1.0 1.0
1.0 1.0 1.0 1.0 1.0 1.0 1.0 1.0
1.0 1.0 1.0 1.0 1.0 1.0 1.0 1.0
1.0 1.0 1.0 1.0 1.0 1.0 1.0 1.0
1.0 1.0 1.0 1.0 1.0 1.0 1.0 1.0
1.0 1.0 1.0 1.0 1.0 1.0 1.0 1.0
1.0 1.0 1.0 1.0 1.0 1.0 1.0 1.0

base.mlp.fc_h.2.bias f4 [64]
00000000: 0000 0000 0000 0000 0000 0000 0000 0000
00000010: 0000 0000 0000 0000 0000 0000 0000 0000
00000020: 0000 0000 0000 0000 0000 0000 0000 0000
00000030: 0000 0000 0000 0000 0000 0000 0000 0000
00000040: 0000 0000 0000 0000 0000 0000 0000 0000
00000050: 0000 0000 0000 0000 0000 0000 0000 0000
00000060: 0000 0000 0000 0000 0000 0000 0000 0000
00000070: 0000 0000 0000 0000 0000 0000 0000 0000
00000080: 0000 0000 0000 0000 0000 0000 0000 0000
00000090: 0000 0000 0000 0000 0000 0000 0000 0000
000000a0: 0000 0000 0000 0000 0000 0000 0000 0000
000000b0: 0000 0000 0000 0000 0000 0000 0000 0000
000000c0: 0000 0000 0000 0000 0000 0000 0000 0000
000000d0: 0000 0000 0000 0000 0000 0000 0000 0000
000000e0: 0000 0000 0000 0000 0000 0000 0000 0000
000000f0: 0000 0000 0000 0000 0000 0000 0000 0000
0.0 0.0 0.0 0.0 0.0 0.0 0.0 0.0
0.0 0.0 0.0 0.0 0.0 0.0 0.0 0.0
0.0 0.0 0.0 0.0 0.0 0.0 0.0 0.0
0.0 0.0 0.0 0.0 0.0 0.0 0.0 0.0
0.0 0.0 0.0 0.0 0.0 0.0 0.0 0.0
0.0 0.0 0.0 0.0 0.0 0.0 0.0 0.0
0.0 0.0 0.0 0.0 0.0 0.0 0.0 0.0
0.0 0.0 0.0 0.0 0.0 0.0 0.0 0.0

base.mlp.fc2.0.0.weight f4 [64, 64]
00000000: cc08 30be 845c 24be eb1a 873c f805 333e
00000010: 9d37 ecbd 2f24 25be 4697 87be 1a29 c03d
00000020: 522c a13e aa10 f0bd fd70 8f3e c572 18be
00000030: 7c4b 143e 9aed 50be e5cf 67be a2e0 0b3e
00000040: 16c6 02bc 499d 1bbe 7c8d 553d cadc 083e
00000050: 0eed 383e 7798 c63d fd1c 30be 25a7 46bd
00000060: 0476 7f3c 5227 b63e ece3 9b3d d9d2 41bc
00000070: 459b 54be cd84 003e 0942 d43e 0990 ebbd
00000080: 6e17 0abe 3903 523d cdd5 76be a63b f33d
00000090: 2ce3 613e 67b5 04be 1835 f8bc f608 393d
000000a0: 6709 3e3d 2542 b53d ca8d 02be 13a2 b3bd
000000b0: 66a9 f8bd 612b b63c db70 d93e 626b 25be
000000c0: 0f00 f1bc 8a28 02be 5b76 5abe 6033 5bbe
000000d0: b50b 09be 884b 16be 7c4d 103d cc50 9fbe
000000e0: 342b 82bc 6a1a 18bd 96c7 413e 8c41 74be
000000f0: da38 01be db8b 0dbe cf35 803e f88c 78be
00000100: 2a86 2dbe 7552 bbbd 06b4 643e 30a7 0ebe
00000110: 5426 373d ba32 70be a404 593c d7dd e4bb
00000120: 55df 023e dab6 13be d0a4 c5bd dfc3 a23c
00000130: d08e c63e d71c 493e 3fe1 a2bd 452d a8bd
00000140: 7ed7 c7be 0733 48bc ab28 9ebc fa7a 7cbe
00000150: 1222 1abe 3787 833d d872 8cbe be55 52bd
00000160: 2002 313d c5d0 2fbe 6ba3 80be 348f 403e
00000170: 6853 3ebe 15f9 b63c ee16 2c3d 6358 913d
00000180: 6021 04be 06de 9bbd bf3f 0d3e d68b 4ebe
00000190: 9d78 1d3d e2e4 973e 1386 833e 198a 5fbe
000001a0: 4c17 363e 6593 983e 35e8 34be ede5 99be
000001b0: 235a 643d 4548 d6bd cb23 bebc 03f3 26be
000001c0: 61e0 213e 7c77 4b3e c937 2d3e ae6d 34be
000001d0: 616c 8a3e b37d e9bd 52a1 d33c 9e33 a23e
000001e0: 84ca 51be 44da 363d 4454 283e 2d86 413e
000001f0: 3570 59be f7bc 073e 78ef 123e cbfc d0bd
00000200: 4cf6 113e 5c5f 8b3e db22 953d 3744 9f3e
00000210: 26b5 34be e40d 633e 8f4d 27be e65c 8dbd
00000220: 899c 94be 02a4 a3be 164c 90be 05a4 5f3d
00000230: 58ba 9ebd 30ef 903d 9de0 48be e136 9d3e
00000240: d448 1abd 64c4 063e 71a5 303e 51b2 22be
00000250: 5928 d63d c8cb d2be ba84 f4bc e53d 8abe
00000260: 7843 1dbe 50f2 56bd 6d5a 0bbc 8b2d 84be
00000270: 6421 ce3b 723b 233d 2e45 3d3e ba7d 8cbe
00000280: 05b8 37bd 9b8f abbd 8337 0f3e 332d cabe
00000290: ffc8 663e 77bf 89bd 24de 9f3e ebda 90be
000002a0: 9b12 b3bd d975 903d d6ae d83c 4604 9abc
000002b0: 34df 673d 5789 c7bd 4288 edbc 64b2 19be
000002c0: 6c72 353e 4837 60be c9df 353e a827 623e
000002d0: 71ed 65be d5e9 383d e11e 12bb 747b d7bd
000002e0: fd55 d5bb fbeb 193c c089 36be 54b4 5ebd
000002f0: a63a 1f3d ecae b23c 29f4 663e 954e 91bd
00000300: aa6e fd3d 5de2 d7bb 7413 a93c d3b6 2b3e
00000310: 984e 12be f78a 2a3e e118 163e d938 033e
00000320: d1fe 7d3d 81b8 1ebe a2db 573d b633 28be
00000330: cee2 f33c 15aa 993e 3830 e2bd fef0 42be
00000340: 8e99 233e b495 3fbe 64fe 65be 562e ffbd
00000350: 4fc4 353e 0645 043e 60fd 233e 61fb 453e
00000360: 1431 e2bd 0c11 10bd d8bf 2fbd d789 cfbd
00000370: ce6f a73e 7fc4 8fbd ec41 e53e 3bf0 1fbe
00000380: 5e7d 6cbd aec6 8d3d 6831 1b3e 0545 70bd
00000390: 8b2c b93d 04e7 203e c4bb 59bc 28f2 403c
000003a0: 1ae6 7a3e de09 393e 090b 3dbe a84b 75bd
000003b0: 82e6 e43e 3ddb c9bb 4166 60be 47a0 863e
000003c0: d935 a8be 91dd 963e 20d4 233e cd72 babc
000003d0: fde4 eebc dafd 773e df68 dfbd 4793 34be
000003e0: add1 6fbd 1f9c 97be 94a5 953e 0e50 dfbd
000003f0: 4418 2b3e 1100 89bd f035 04be 98f0 1cbe
-0.17190856 -0.16050917 0.016492328 0.17482746 -0.11534045 -0.16127084 -0.264826 0.093828395
0.31479126 -0.117219284 0.2801589 -0.14887531 0.1448192 -0.20403138 -0.22637899 0.1365991
-0.007981798 -0.15196718 0.052136883 0.13365474 0.18059179 0.09697049 -0.17198558 -0.048499245
0.015592102 0.35576874 0.07611832 -0.011830055 -0.20762356 0.1255066 0.4145663 -0.11502082
-0.134855 0.051272605 -0.24104996 0.118766114 0.22059315 -0.12959825 -0.030298755 0.04517456
0.046395686 0.08850507 -0.127494 -0.087711476 -0.12141685 0.022237482 0.42468914 -0.16154245
-0.029418973 -0.12710777 -0.21334212 -0.21406317 -0.13383372 -0.1467725 0.035230145 -0.3111633
-0.015889741 -0.037134565 0.18923792 -0.23853129 -0.12619343 -0.13822882 0.25041053 -0.24272525
-0.16945711 -0.09146587 0.22334298 -0.13930964 0.044714287 -0.2345685 0.013245735 -0.006984453
0.12780507 -0.14425221 -0.09650576 0.01986879 0.38780832 0.19639908 -0.079531185 -0.082117595
-0.39031595 -0.012219197 -0.019306501 -0.24656287 -0.1505206 0.064222746 -0.2743137 -0.0513513
0.043214917 -0.17169483 -0.25124678 0.18804628 -0.18586504 0.022335568 0.042014055 0.070969366
-0.12903357 -0.07610707 0.13793848 -0.2017053 0.038445104 0.2966681 0.25688228 -0.21830024
0.17782325 0.29799953 -0.17666705 -0.30058232 0.055750024 -0.10463003 -0.023210427 -0.16303639
0.1580825 0.19869798 0.16915812 -0.17619964 0.27035812 -0.11400928 0.02583376 0.31680006
-0.2048741 0.044641748 0.16438395 0.1889884 -0.2123421 0.13255678 0.14349163 -0.102044664
0.14254111 0.2722119 0.07282039 0.3110673 -0.17647228 0.22173268 -0.1633818 -0.069024846
-0.29025677 -0.31961066 -0.2818305 0.05459978 -0.07750386 0.070768714 -0.19616933 0.30705932
-0.03766711 0.13160855 0.17250611 -0.15888335 0.104569145 -0.41171098 -0.029848445 -0.27000347
-0.15357769 -0.05247718 -0.008505446 -0.25815997 0.0062906016 0.039851613 0.18483421 -0.27439672
-0.04485323 -0.08377 0.1398602 -0.3948761 0.22537611 -0.06725972 0.31224167 -0.2829202
-0.08743783 0.07053728 0.026450556 -0.018800866 0.056609347 -0.09742992 -0.028995637 -0.15009457
0.1771943 -0.21896088 0.17761149 0.2208544 -0.22453858 0.045144875 -0.0022296237 -0.10521594
-0.0065104947 0.009394641 -0.17825985 -0.054371193 0.03887429 0.021811925 0.22554077 -0.070950665
0.12374623 -0.006588264 0.020639159 0.1676896 -0.14287794 0.16654573 0.14657928 0.12814654
0.06201059 -0.1550007 0.052699693 -0.16425976 0.029771235 0.30012575 -0.11044353 -0.19037244
0.15976545 -0.18709451 -0.22460324 -0.1246001 0.17750667 0.12916955 0.16014624 0.19334175
-0.11044517 -0.035172507 -0.042907566 -0.10133713 0.32702488 -0.070199005 0.44776857 -0.15618984
-0.057736747 0.06922661 0.15155566 -0.058659572 0.09041699 0.15713125 -0.013289396 0.011776485
0.2450184 0.1807017 -0.18461241 -0.059886605 0.44707114 -0.0061601684 -0.21914007 0.26294157
-0.32853583 0.29465917 0.15998888 -0.02275982 -0.029161924 0.2421793 -0.109086744 -0.17634307
-0.05854957 -0.29611298 0.2922789 -0.10903941 0.16708475 -0.06689466 -0.129112 -0.15326154

base.mlp.fc2.0.0.bias f4 [64]
00000000: c707 17bc 8d51 e93a b25b d33b 9018 8a3b
00000010: f9ea 373c 4015 06bc 88dc a33b d58f 053c
00000020: c1bc feba 86c3 fbbb a0dd 76bc 85b6 aabb
00000030: 4218 35bc ec11 f53b 900e 68b9 a337 863b
00000040: 18b9 183c 2fa4 8ebb c63e 3dbb 24b8 233a
00000050: adb5 243c c4f2 d0ba 725b 51bc 88d1 0c3b
00000060: b4fb 28bb 8c52 673c 56eb 62b9 2471 1fbc
00000070: 2914 393c f8e9 673b b654 adbb 6ad6 58bc
00000080: 02fe 3dbc 1ef4 8fbb 5ed6 1b3c d955 423c
00000090: 7534 4fbc da14 febb 4e7f 95bb 8055 5dba
000000a0: 8599 863b 1dfd 4a3c 4637 503a 025a 36bc
000000b0: 5770 80bb b65c c43b 6008 6b3c b9dd 6dbc
000000c0: a0ce 863c e0fb 3d3b 14f5 a6bb 4772 26bc
000000d0: b8ee 4c3b 9228 013c 602d a3bb 7ae0 be3b
000000e0: 841b 363c 85c6 2d3c c181 f939 28d7 f73b
000000f0: 6962 09bb a79b 863b a001 5c3c 52d5 f3ba
-0.009218163 0.0017800793 0.00645014 0.004214354 0.011225455 -0.008183777 0.0050006546 0.008151968
-0.0019434915 -0.0076832203 -0.015067488 -0.0052097463 -0.011053147 0.007478943 -0.00022130669 0.004095988
0.009321474 -0.0043530683 -0.0028876527 0.00062453956 0.0100530805 -0.001594149 -0.01277815 0.0021487195
-0.0025784792 0.014118802 -0.00021640709 -0.009731565 0.01129631 0.003538726 -0.0052896393 -0.013234714
-0.011596205 -0.0043931147 0.009511558 0.011861288 -0.012646784 -0.0077539505 -0.004562295 -0.00084432214
0.0041076564 0.0123894485 0.00079428067 -0.011129858 -0.003919642 0.0059924973 0.0143452585 -0.014518195
0.016455948 0.002898924 -0.0050951336 -0.010159082 0.0031270217 0.007883208 -0.0049797744 0.0058250995
0.011114959 0.010606413 0.00047589655 0.0075634904 -0.0020963198 0.0041079107 0.013428122 -0.0018603003

base.mlp.fc2.0.2.weight f4 [64]
00000000: f738 803f 545f 803f 4209 823f ce87 813f
00000010: 57ee 813f c0de 803f 3fd1 803f d262 813f
00000020: e33e 803f eef3 803f eb98 803f e25d 803f
00000030: cec4 7e3f e4e5 803f d494 7f3f 6306 823f
00000040: c7b6 823f adba 803f 2c61 803f 9115 813f
00000050: a3ef 803f 3497 813f 682b 803f 5e16 813f
00000060: 5391 803f e455 823f 7e68 803f b8c5 803f
00000070: 5a3e 813f 9458 813f 5102 803f 4a46 823f
00000080: 8864 813f b32d 803f 691e 813f 590e 823f
00000090: ceac 7f3f c964 813f 3627 803f a846 7f3f
000000a0: 4566 803f 186d 823f 597c 803f e394 803f
000000b0: 28bf 803f 445a 813f d9a1 813f 7719 813f
000000c0: 686b 7e3f 54fa 813f 5a68 813f 41de 7e3f
000000d0: 6f1a 823f db06 803f bc7a 813f 35d3 813f
000000e0: 9e07 823f eb3a 813f 7984 813f dc17 803f
000000f0: 572b 813f 4ebe 7e3f 9656 803f 1870 7f3f
1.0017384 1.0029092 1.0159075 1.0119569 1.015086 1.0067978 1.0063857 1.0108283
1.0019192 1.0074441 1.0046667 1.0028651 0.9951905 1.0070157 0.9983647 1.0158199
1.0212029 1.0056969 1.0029655 1.0084707 1.0073131 1.0124269 1.0013247 1.0084951
1.004435 1.0182462 1.0031888 1.0060339 1.0097153 1.0105157 1.0000707 1.01777
1.0108805 1.0013946 1.0087405 1.0160629 0.99873054 1.0108882 1.0011966 0.9971719
1.003121 1.0189543 1.0037948 1.0045437 1.0058336 1.0105672 1.0127517 1.0085896
0.9938264 1.0154519 1.010997 0.9955788 1.0164317 1.0002092 1.011558 1.014258
1.0158575 1.0096105 1.0118552 1.0007281 1.0091351 0.9950913 1.0026424 0.99780416

base.mlp.fc2.0.2.bias f4 [64]
00000000: 8ec1 d33b 7f0b 25bc aa35 75ba 4976 a4bb
00000010: 1caf 4d3c d2d2 f33b 7ed9 80bb 0f98 4f3b
00000020: 03c9 b3ba 2f09 41bc 123c 50bb 85c6 dabb
00000030: 668b d339 b29d efbb cc37 92bb fe08 d93a
00000040: 6db1 fabb 0cb0 fdbb b6e2 983b ff61 283c
00000050: b758 993b 4193 0ebc f3b6 f93b 9b1b b2bb
00000060: 0b9c 9d3b 92a3 1eba 3528 0f3b edad 583b
00000070: 7381 d93b 18a5 ad3b 6a44 063c 0a54 3abc
00000080: 887a 213c 791b 38bb 57d4 2b3a 51dd aabb
00000090: ac1f 9ebb 3f9a 35bc 8118 d6bb df95 3b3c
000000a0: 0057 19ba 6f05 363c 1219 e13a 78aa 1fbc
000000b0: 834e bcbb 63f2 a53b fb11 0b3c d043 f0bb
000000c0: c43f 5f3c c014 66bc 9038 10bc 8701 803b
000000d0: 3209 05bc e788 633b 0008 85ba 5760 ed3b
000000e0: 2d61 a33b 1519 c03b 788d d6bb efc9 1fba
000000f0: cfc0 4fbb d453 983b a930 5f3c 6a55 15bb
0.0064622825 -0.010073542 -0.0009354005 -0.0050189835 0.012553956 0.007440903 -0.003932177 0.0031676327
-0.0013716522 -0.011781975 -0.0031774086 -0.0066764974 0.00040348916 -0.0073125 -0.004462218 0.0016558466
-0.0076505453 -0.0077419337 0.004665698 0.01027727 0.004679765 -0.0087021 0.007620686 -0.0054354197
0.0048098615 -0.00060515956 0.0021844034 0.0033062652 0.006637746 0.0052992217 0.008195022 -0.011372576
0.009855874 -0.0028092547 0.00065547734 -0.0052143713 -0.004825553 -0.011084138 -0.006533683 0.011449306
-0.0005849451 0.011109694 0.0017173609 -0.009745233 -0.005746664 0.005064295 0.008488174 -0.0073323026
0.013626043 -0.014043033 -0.008802548 0.003906432 -0.008119868 0.0034719051 -0.0010149479 0.0072441506
0.0049859495 0.005862365 -0.006547626 -0.0006095459 -0.0031700616 0.004648665 0.013622441 -0.0022786506

act.action_out.linear.weight f4 [5, 64]
00000000: 7719 e23b 087f eebb bb82 93bc ce26 e239
00000010: 92e6 e53b 1ee2 3f3c 0f95 253c 5773 873b
00000020: 2b43 6e3b 3812 1abc 8f3e 2b3c 0637 3cbb
00000030: d340 0b3c 8428 f8bb 1f49 afbb 06a1 8abc
00000040: 1046 a3bc d9bc aabb 8d70 96bb 3291 263c
00000050: 135f 933b 90a6 28bc f2aa cb3b d885 4d3c
00000060: c4a3 0cbc b934 f9bb 379f 033c b8b4 733c
00000070: f74b 4fbc 4b63 823c 06f6 bd3b 308b 1a3c
00000080: 7303 2b3c 53e1 073c 0fe4 0e3c 77c0 70bc
00000090: 070b 5abc 2ca6 47bc 9b8a 16bc a8a1 60bb
000000a0: fc70 fbba cbbb 903c 96b0 3e3c 1d29 13bc
000000b0: c592 6fba bac7 d43b 0f15 1d3b 8c68 f4bb
000000c0: c9d9 273c e95a 72bc c027 34bb b404 843a
000000d0: 7f02 30bc c1f0 ec3b b8d1 9aba 7dcd 3ebb
000000e0: 6cc9 813c 64a7 c23b a017 03bc a9b9 023c
000000f0: 3076 92bb 0856 02bc 1ec6 513b 6fdf d23b
00000100: 6318 9fbb cb3f 3c3c 47e7 063b f5dd 983a
00000110: adc7 7fbc 981c e8bb 651e 2abc baa4 9c3a
00000120: 4262 0cbc dd68 373c 44a5 243c 3bc2 8c3c
00000130: 75fa 1d3c 9f28 c7bb 1854 07bc eadf a13c
00000140: ebf0 b03c bee9 8e3c 500b d5bb 0d3e a2bb
00000150: 8809 f93a decb 593c bbfd 12bc 51eb 8abb
00000160: 9ce0 8a3a 877c 943b 4b48 c9bb a524 4dbb
00000170: 8d9c 2c3b b36b 6dbc a831 9eb9 9a98 843c
00000180: 8ed5 36bb 038b 873b 3d8d f6ba 8af3 7c3c
00000190: c2fd 1d3b b9cc 543c ce7a 2a3c 90e8 27bc
000001a0: 7bc0 8c3b 41b7 7cbc 9bd4 163c d2f4 513c
000001b0: e4be 263c 9533 20bb 660c 09bb 36bf 443c
000001c0: e223 a7bb 2fc1 d83b a1bf a13c fa0b 8abb
000001d0: 548f 223c 25b6 52bb a1cc 633c a243 0ebc
000001e0: 855c c93b 7ff3 2b3c 08b9 2b3c 2279 43b9
000001f0: 7698 65bc 4d5c 9bbb 982f 0ebb 4733 16bc
00000200: 4f33 443b b59d febb 10c4 4cbc 79b9 883c
00000210: 1038 573c b09f febb c1f0 433c efe1 703c
00000220: 1471 513c 704d e4b9 44f6 813b 90fa d13b
00000230: ed79 34ba 8974 303c f447 743a fd02 a3bc
00000240: 1607 3dbc b95e 183b 4f62 e0bb 34bb 6e3c
00000250: b2d3 693c 415b 8fbc 6c16 d7ba 426a 563c
00000260: cab3 18bc d522 b8bc e28b 2e3c c4e4 ab38
00000270: 3079 82bb e7f5 a8bb 558f febb a3e9 09bc
00000280: abb7 01bc 63be 1dbc 3c32 593c 7cda 55bc
00000290: 345e 973a 0c2f 01bc 230b ca3a 9558 3a3c
000002a0: 1087 443c d5cc 663b bb48 1f3b b694 f5bb
000002b0: a04c e43b 3b85 b43c 6038 a43c 3915 e63b
000002c0: e22b c93b 47ab 01bc f92b 14bc 802a 2bbc
000002d0: bdf5 b8bc 6b99 003c f561 683c 51bd 8bbc
000002e0: d873 753c 5766 033c df28 49bc 6de0 1b3c
000002f0: a951 883c eae7 9cbb d41b 903b 2584 353c
00000300: 34fc 0b3c 106b 1b3b b6c3 683c b388 1fbc
00000310: b541 9d3b 85b1 db3b b863 a0bb 52ec 7abc
00000320: 4303 d2bb 071e 97bc 9bee 0ebc 539f 0cbc
00000330: 3257 e0bb e4b0 afbb 53f4 473b 76fc 233c
00000340: 3658 753c 925b 8dbb 98ff d13b 7ec5 3abb
00000350: c37c 95bc 55d2 743c 3321 a63b 0d2c 05bc
00000360: 372d e93b e1a9 c33c 4934 67bc e288 b1bb
00000370: 43d5 943c a7ea cc3b c2a5 f03b 14f7 bebc
00000380: debe 063c dd67 68bb 646c 52bc 0105 aa3b
00000390: 201e 4abb 37bb a03a f80d 03bb a270 0cbb
000003a0: 120f 03bc b78b c43b 3a0c 34bb 9760 c33b
000003b0: bd96 24bc ed1b 55bc 34d5 adba 1d27 2fbc
000003c0: a881 1b3a 8011 9abb 241a 36bb b298 25bb
000003d0: a20c 1abb c7fb 02bc 1b16 58bc 3380 6c3c
000003e0: 4a06 61bc edae 16bc 5525 663b b1fd e6bb
000003f0: 4501 d2bb a37b 3c3c e060 003c 70f6 0bbb
0.0069000083 -0.007278327 -0.018006673 0.0004313499 0.0070160115 0.011711625 0.010106339 0.0041336226
0.0036355953 -0.009403758 0.010451927 -0.002871932 0.008499342 -0.007573189 -0.005349293 -0.016922485
-0.01993087 -0.0052105007 -0.004591054 0.010166453 0.0044974177 -0.010293618 0.0062154466 0.012544118
-0.008583967 -0.007605162 0.008033565 0.01487463 -0.012652389 0.015916487 0.0057971505 0.009432599
0.010437834 0.008293468 0.008721366 -0.014694325 -0.013308293 -0.012185615 -0.00918832 -0.0034276042
-0.0019183452 0.017667672 0.011638781 -0.00898197 -0.0009138997 0.006493536 0.002396885 -0.007458752
0.010244795 -0.0147921825 -0.0027489513 0.0010072202 -0.010742783 0.0072308485 -0.0011811769 -0.002911418
0.015843116 0.0059403647 -0.008001238 0.007978835 -0.0044696555 -0.007955082 0.0032008956 0.0064353268
-0.004855202 0.011489819 0.002058463 0.0011662828 -0.015611571 -0.0070834868 -0.010383223 0.0011950948
-0.008568348 0.011194435 0.010049168 0.01718246 0.009642233 -0.0060778405 -0.008259796 0.01976009
0.021599254 0.017445441 -0.0065015927 -0.0049512447 0.0019000033 0.013293235 -0.008971627 -0.0042394777
0.0010595503 0.0045314464 -0.006142651 -0.003130236 0.0026338429 -0.0144910095 -0.00030173105 0.016186047
-0.0027898285 0.0041364445 -0.0018810403 0.015438924 0.002410755 0.012988263 0.0104052555 -0.010248318
0.0042954064 -0.0154245505 0.0092059625 0.012814717 0.010177348 -0.0024444808 -0.002091193 0.012008479
-0.005100713 0.006614826 0.019744696 -0.0042128535 0.009921867 -0.0032152024 0.013903768 -0.008683117
0.0061450624 0.010495066 0.010481127 -0.00018641775 -0.0140134 -0.0047412277 -0.0021695849 -0.009167499
0.002993781 -0.007770265 -0.012497917 0.016690003 0.013135925 -0.007770501 0.011959256 0.014702304
0.012783308 -0.00043545244 0.0039661247 0.006408043 -0.00068846234 0.010769972 0.0009318583 -0.019898886
-0.011537334 0.0023249818 -0.006847657 0.014571 0.0142716635 -0.017499568 -0.001640988 0.013086857
-0.009320209 -0.022477547 0.010653468 8.196526e-05 -0.003981732 -0.005156267 -0.0077685514 -0.00841752
-0.007917325 -0.009627911 0.013256606 -0.013052579 0.001154846 -0.007884752 0.0015414696 0.011373659
0.011995092 0.0035217304 0.0024304825 -0.0074945344 0.006967142 0.022036185 0.020046413 0.007021573
0.0061392644 -0.007914371 -0.009043687 -0.0104471445 -0.022578115 0.007849078 0.014183511 -0.017058047
0.014981233 0.008020005 -0.012277811 0.0095139565 0.016640501 -0.0047883885 0.0043978486 0.011078869
0.008544017 0.0023714937 0.014206817 -0.0097371815 0.0047990927 0.0067045116 -0.0048947 -0.015315132
-0.0064090802 -0.018446935 -0.00872388 -0.008582908 -0.006846332 -0.005361663 0.0030510619 0.010008922
0.014974644 -0.0043138945 0.006408643 -0.0028499062 -0.018247968 0.014942725 0.0050698756 -0.008128178
0.0071159857 0.023884716 -0.014111587 -0.005417929 0.018168097 0.0062535587 0.0073439786 -0.023311175
0.008224217 -0.0035462298 -0.012843225 0.005188585 -0.003084071 0.0012262826 -0.001999734 -0.002142944
-0.0079991985 0.0059981006 -0.0027473108 0.005962442 -0.010045704 -0.013007146 -0.0013262392 -0.010690478
0.0005932101 -0.004701793 -0.0027786577 -0.0025268015 -0.0023506065 -0.007994599 -0.013188864 0.014434862
-0.01373441 -0.009196979 0.0035117466 -0.0070492853 -0.0064088427 0.011504087 0.007835597 -0.0021356605

act.action_out.linear.bias f4 [5]
00000000: 65d6 4fbb 3be3 4dbc d52c b5b9 e266 103c
00000010: c983 61bb
-0.0031713482 -0.012566383 -0.00034556413 0.008813592 -0.0034410825
