mappo_ros/onpolicy/scripts/results/MPE/simple_spread/mappo/check/wandb/offline-run-20230124_163230-8f9fu8gk/files/critic.pt (torch_old, 45240 bytes, 15 tensors)

base.feature_norm.weight f4 [28]
0	0x3f80cd9d	1.0062748
1	0x3f8019da	1.0007889
2	0x3f7f8260	0.9980831
3	0x3f801ab3	1.0008148
4	0x3f7dee67	0.991919
5	0x3f7fc13f	0.99904245
6	0x3f80dcb1	1.006735
7	0x3f802693	1.0011772
8	0x3f7f304d	0.99683076
9	0x3f7fe55c	0.9995935
10	0x3f801f64	1.000958
11	0x3f802fb5	1.0014559
12	0x3f7eee14	0.9958203
13	0x3f816ea0	1.0111885
14	0x3f7faf81	0.9987717
15	0x3f80053e	1.00016
16	0x3f80c9bb	1.0061563
17	0x3f7e2dc0	0.9928856
18	0x3f809dbb	1.0048136
19	0x3f800584	1.0001683
20	0x3f7f7656	0.9978994
21	0x3f7e20b4	0.9926865
22	0x3f80cbfb	1.006225
23	0x3f80f794	1.0075555
24	0x3f812253	1.00886
25	0x3f8145ad	1.0099388
26	0x3f810559	1.0079757
27	0x3f7f3220	0.9968586

base.feature_norm.bias f4 [28]
0	0x3b80ad31	0.003926896
1	0x3bad44ce	0.005287743
2	0x3bb710f1	0.0055867364
3	0xba9896a3	-0.0011641573
4	0xbb190d69	-0.002335394
5	0x3a8f76cd	0.001094544
6	0x392553e0	0.00015766872
7	0x3ab381cc	0.0013695299
8	0x3b85eb90	0.004086919
9	0xbb180c23	-0.0023200593
10	0x3a783bd3	0.0009469364
11	0x35a79450	1.2485634e-06
12	0xbbfa4b7d	-0.0076383934
13	0xbb50346b	-0.0031769525
14	0xb8610dc4	-5.3657e-05
15	0xbb80aa45	-0.0039265477
16	0xba37a789	-0.00070058607
17	0xb9d9c6bc	-0.00041537534
18	0x3a12c4dd	0.0005598793
19	0xbabe0baf	-0.0014499332
20	0xbb82ffdb	-0.0039977855
21	0x3ac6be35	0.0015162887
22	0x3b643384	0.0034820745
23	0x3bdbc7c0	0.0067071617
24	0x3bf8c6d5	0.007592062
25	0xbba4b96c	-0.005026987
26	0xbbf9a6f5	-0.00761878
27	0x3a9adf03	0.001181573

base.mlp.fc1.0.weight f4 [64, 28]
0	0x3e4eb990	0.20187974
1	0x3d5a5803	0.05330659
2	0x3d0d5b69	0.034511004
3	0xbd380a75	-0.044931848
4	0x3e38c102	0.18042377
5	0x3e1eca20	0.15506792
6	0xbe64a7d6	-0.2232965
7	0xbd391667	-0.04518738
8	0x3d8beccb	0.06832274
9	0x3d82200f	0.06353771
10	0xbd8026c1	-0.06257392
11	0x3ea25c60	0.31711102
12	0xbd91ceb4	-0.071195036
13	0xbe8c6052	-0.27417237
14	0x3ddf84cb	0.10914
15	0x3e76f89b	0.24118273
16	0xbd820c88	-0.063500464
17	0x3e9e4ee1	0.30919555
18	0x3d31c31e	0.04339897
19	0xbd84e6fb	-0.064893685
20	0xbe5a2ceb	-0.21306197
21	0xbd3fe096	-0.04684504
22	0xbeb23dc1	-0.3481274
23	0xbd8697a4	-0.06571892
24	0x3d897ee6	0.06713657
25	0x3e96aff0	0.29431105
26	0xbdfd7527	-0.12375861
27	0x3e24659a	0.16054383
28	0x3e294804	0.16531378
29	0xbce36ce1	-0.027761878
30	0x3900213e	0.00012219415
31	0xbe0f0f12	-0.13970593
32	0x3ed165fe	0.40898126
33	0x3e329c8f	0.17442535
34	0x3ed4fb7f	0.41598126
35	0x3ec3ecaa	0.38266498
36	0x3c80296c	0.015644751
37	0xbe7cc915	-0.24686082
38	0xbbd20618	-0.006409418
39	0xbd7229d0	-0.059121907
40	0xbdb88fea	-0.090118244
41	0x3e06a75c	0.1314978
42	0x3e3950d5	0.18097241
43	0xbdc4b551	-0.09604896
44	0xbe5b21e2	-0.21399644
45	0xbe6acb38	-0.22929084
46	0xbed78336	-0.42092294
47	0xbda507c9	-0.080581255
48	0xbea7c1ba	-0.3276499
49	0xbe8344c6	-0.25638407
50	0xbdaddc08	-0.08489233
51	0x3e7a6042	0.24450782
52	0x3e2d7bae	0.16941711
53	0xbde20f76	-0.11038105
54	0xbe54937c	-0.20759386
55	0xbeac7842	-0.336855
56	0x3e26e3f6	0.16297898
57	0x3e2c84a4	0.16847473
58	0x3cf0a6a0	0.029376328
59	0x3cb032e3	0.02150864
60	0xbd0ffe30	-0.03515452
61	0xbd02ff12	-0.031981535
62	0x3cf2f12f	0.02965602
63	0x3d0d0f5e	0.034438483
64	0x3dae7060	0.085175276
65	0x3dcdca55	0.100483574
66	0xbdf22ac3	-0.118245624
67	0x3cc2ddc8	0.023787394
68	0x3ecdac79	0.4017065
69	0x3ec2156a	0.37906963
70	0xbd99b130	-0.07504499
71	0x3e1e017b	0.15430252
72	0x3dee5e6e	0.11639105
73	0xbdb5332e	-0.088476524
74	0x3e699380	0.22810173
75	0xbe88ae04	-0.26695263
76	0x3cd7b442	0.02633107
77	0xbe30d1a6	-0.17267475
78	0xbe316b6f	-0.17326139
79	0x3e04b411	0.12959315
80	0xbd22fc97	-0.03979167
81	0x3c858316	0.016297858
82	0x3ca3e6d1	0.020007523
83	0xbca66ba4	-0.020314999
84	0x3e9d6bee	0.30746406
85	0xbd5e0387	-0.054202583
86	0xbd939562	-0.07206227
87	0xbed3b1cd	-0.4134659
88	0xbe221c61	-0.15831138
89	0xbd231ee4	-0.03982438
90	0xbdd83a93	-0.10558047
91	0x3dac2b69	0.08406717
92	0xbe3d4671	-0.18483903
93	0xbe5033a4	-0.203322
94	0x3d3a5806	0.045494102
95	0x3da66533	0.08124771
96	0xbe3328c7	-0.17496024
97	0x3e1902b0	0.14942431
98	0xbde2987a	-0.11064239
99	0x3d4b7fb4	0.049682334
100	0x3cf758df	0.030193744
101	0xbd8a7761	-0.06761051
102	0x3e5f4077	0.21801935
103	0x3e56169c	0.20907062
104	0x3e177338	0.14790046
105	0xbe0829fe	-0.13297269
106	0x3d0b016e	0.03393691
107	0x3cb16886	0.021656286
108	0x3e5f3e60	0.21801138
109	0xb9b3aed7	-0.00034271806
110	0xbc88aa9f	-0.016682921
111	0x3ec5cf65	0.38634792
112	0xbd612ce6	-0.05497446
113	0xbd5a7a92	-0.05333955
114	0xbe4d9d46	-0.20079526
115	0xbdecddd9	-0.115657516
116	0xbdd60494	-0.10450092
117	0xbe49a972	-0.19693545
118	0x3e5c2d8e	0.21501753
119	0xbefb9bcd	-0.49142304
120	0xbd10281e	-0.03519451
121	0x3e157aa9	0.14597572
122	0x3dc54478	0.096322
123	0xbe02a4b3	-0.1275814
124	0xbeb92eae	-0.36168426
125	0xbd74c2c8	-0.05975607
126	0x3dd16ad5	0.10225455
127	0x3e9b3b14	0.3031851
128	0xbcfe0709	-0.031009214
129	0xbde81cd1	-0.11333621
130	0x3c953f57	0.01821868
131	0xbdcd7ca7	-0.10033541
132	0xbe815519	-0.25260237
133	0x3adf7ef9	0.0017051391
134	0xbd7a14f4	-0.06105514
135	0xbe57210d	-0.21008702
136	0x3e458960	0.19290686
137	0xbd226e89	-0.039656196
138	0xbe06f666	-0.13179931
139	0x3d2ce3bb	0.04220937
140	0x3dd74af9	0.10512347
141	0xbd8c873c	-0.068617314
142	0xbe01b306	-0.12665948
143	0x3ce4c5a4	0.027926274
144	0x3d97f4e7	0.07419758
145	0xbd5ce230	-0.053926647
146	0x3d70defa	0.058806397
147	0xbdccdff5	-0.10003654
148	0x3e30390c	0.17209262
149	0xbe940ae0	-0.28914547
150	0x3e3bf334	0.18354493
151	0x3d230841	0.039802793
152	0x3d2ab899	0.041679952
153	0xbe218b3e	-0.15775773
154	0xbdc25fff	-0.09490966
155	0x3e21365b	0.15743391
156	0xbc1bf35d	-0.009518472
157	0xbe9b3c54	-0.30319464
158	0x3d8bb02c	0.068207115
159	0xbe9f1359	-0.3106945
160	0x3ed3afc4	0.41345036
161	0xbdacb355	-0.08432642
162	0x3d9bb11f	0.076021425
163	0x3e0c45a4	0.13698441
164	0xbd64ee07	-0.055891063
165	0xbe60846c	-0.21925515
166	0x3c26da08	0.010183819
167	0xbd7bdcf4	-0.061490014
168	0xbe1782ba	-0.14795962
169	0x3e512b66	0.20426711
170	0xbe02b3cf	-0.12763904
171	0x3dc058e4	0.093919545
172	0x3d34d2de	0.04414641
173	0xbd0addf5	-0.03390308
174	0x3d41c6ce	0.047308736
175	0xbd91134c	-0.07083759
176	0x3e12aefd	0.14324565
177	0x3d41a22a	0.047273792
178	0xbd1e8399	-0.03869972
179	0xbe3068b4	-0.17227441
180	0x3d376a45	0.04477908
181	0xbd6c1bce	-0.057643704
182	0x3e17d615	0.1482776
183	0xbe96f5ac	-0.29484308
184	0x3d43ab0a	0.047770537
185	0xbdcfc438	-0.10144848
186	0x3d180632	0.037115283
187	0x3dad242f	0.08454167
188	0xbea70202	-0.3261872
189	0xbd8a3368	-0.06748086
190	0xbdab23e2	-0.083564535
191	0xbe645de3	-0.2230144
192	0x3e56ae98	0.2096504
193	0x3e049991	0.12949206
194	0xbe7bad43	-0.24577813
195	0x3c3d1b8a	0.01154221
196	0x3e86584a	0.26239234
197	0xbd92be54	-0.071652085
198	0xbcdbc521	-0.026827397
199	0x3ec582b4	0.3857628
200	0xbdc34131	-0.09533919
201	0xbe1ce752	-0.15322617
202	0xbe05d487	-0.13069354
203	0xbcbbf19c	-0.022942357
204	0x3d9bf761	0.07615543
205	0xbe85d90b	-0.26142153
206	0xbe54d312	-0.20783642
207	0xbc5bf847	-0.013425893
208	0x3e667e50	0.22509122
209	0xbe19866a	-0.14992681
210	0xbde5d2a6	-0.112218186
211	0x3e03d40b	0.12873857
212	0xbdeaafcd	-0.114593126
213	0xbe3ac5fd	-0.18239589
214	0xbe92cc89	-0.28671673
215	0x3e1cde5f	0.15319203
216	0x3c89d0c2	0.016823176
217	0x3d6d225a	0.05789409
218	0x3e1e6ae1	0.15470459
219	0xbe123671	-0.1427858
220	0x3dcde22f	0.10052907
221	0x3eff042f	0.4980788
222	0xbc1a3ba7	-0.009413636
223	0xbd201ad6	-0.039088093
224	0xbe2095b2	-0.15682104
225	0x3e9fdf11	0.31224874
226	0xbda82587	-0.08210283
227	0x3e00fd29	0.12596573
228	0x3d8946ec	0.067029804
229	0x3dd5f514	0.104471356
230	0xbe248b57	-0.16068779
231	0x3d7301b0	0.05932778
232	0xbecf977a	-0.40545255
233	0xbdc0253e	-0.093821034
234	0x3da4bb4d	0.08043537
235	0x3e9192f7	0.28432438
236	0x3e3d6f73	0.18499546
237	0xbc9c06b4	-0.019046165
238	0x3cbdf0c6	0.023186099
239	0xbe317a0b	-0.17331712
240	0xbd7bda7d	-0.061487664
241	0x3ddc0f71	0.10745133
242	0xbe4197e1	-0.18905593
243	0x3e35f96b	0.17770927
244	0x3dfa7bc5	0.122306384
245	0xbe87a66d	-0.2649416
246	0xbebeb63a	-0.37248403
247	0x3dda2e5c	0.106533736
248	0xbea14c45	-0.31503502
249	0x3e1bcc36	0.15214619
250	0xbcc8e87b	-0.024524918
251	0x3d342aab	0.043986004
252	0xbea10752	-0.31450897
253	0x3e95ad97	0.29234
254	0x3dc4e450	0.0961386
255	0x3df1f294	0.11813846

base.mlp.fc1.0.bias f4 [64]
0	0xbbed511b	-0.0072423345
1	0x3b075563	0.002065026
2	0xbb981209	-0.004640822
3	0xba89d7e3	-0.001051661
4	0x3c275922	0.010214122
5	0xbb85c6a6	-0.0040825186
6	0xbbbf7ca3	-0.0058437153
7	0xbadab829	-0.0016686964
8	0xba49ea69	-0.00077024713
9	0x3b230f4f	0.002488095
10	0x3aca2eb6	0.0015425298
11	0x3a260238	0.0006332728
12	0x3afb8eaf	0.0019192303
13	0xbb2aa872	-0.0026040343
14	0xbb20f5fd	-0.0024560683
15	0xbbfd09c6	-0.0077221124
16	0x3adfd123	0.0017075877
17	0x3c52d4d9	0.01286813
18	0x3b985e15	0.0046498873
19	0xba4a0319	-0.000770615
20	0x3ba2fefb	0.0049742437
21	0xbb93e4f5	-0.004513378
22	0xbb60cc90	-0.0034301616
23	0xbc0fd59c	-0.008778956
24	0xbbca2f2e	-0.006170175
25	0x3b067b12	0.0020520133
26	0xbb53343e	-0.0032227184
27	0xbb273a73	-0.0025517016
28	0xbc1225b5	-0.008920123
29	0xbba6dd77	-0.0050923186
30	0x3a8b3812	0.0010621569
31	0x3a38b6a2	0.00070462574
32	0xbbc4184c	-0.0059843417
33	0xb9e470a0	-0.0004357146
34	0xbbdd0a89	-0.0067456407
35	0xbb4320b4	-0.0029774131
36	0xb90cce23	-0.00013428232
37	0x3b7da92f	0.0038705578
38	0x3b5ffeb4	0.0034178915
39	0xba0e6182	-0.00054314
40	0xba5cee8d	-0.0008427881
41	0xbc3a997d	-0.0113891335
42	0xbb4f4a77	-0.0031630078
43	0xbb68d806	-0.003552915
44	0x3b578bdd	0.0032889761
45	0xba241120	-0.00062586553
46	0x3c0083e4	0.007843945
47	0xbb3e5319	-0.002904123
48	0xbaf39d22	-0.0018586258
49	0x3a912411	0.0011073371
50	0x3b53c00e	0.0032310518
51	0xbb1b8686	-0.0023731305
52	0xbb50462b	-0.0031780105
53	0xbb38efaa	-0.0028219023
54	0xb9b100cf	-0.00033760673
55	0x3c01f357	0.007931552
56	0xbbaaf236	-0.005216862
57	0x3ba538e2	0.0050421814
58	0x3b9137e3	0.004431711
59	0x3c1926d8	0.00934764
60	0x3b9987d9	0.0046853838
61	0x3b99151c	0.004671706
62	0xbc1e2a11	-0.009653584
63	0xbbaf37dd	-0.0053472356

base.mlp.fc1.2.weight f4 [64]
0	0x3f800aa1	1.0003244
1	0x3f801433	1.0006164
2	0x3f80f853	1.0075783
3	0x3f801b0e	1.0008256
4	0x3f801d55	1.0008951
5	0x3f7e29ac	0.99282336
6	0x3f803258	1.0015364
7	0x3f800530	1.0001583
8	0x3f7f7a8f	0.99796385
9	0x3f8067d0	1.0031681
10	0x3f807e79	1.0038596
11	0x3f805434	1.0025697
12	0x3f80fb8d	1.0076767
13	0x3f80546f	1.0025767
14	0x3f80a32d	1.0049797
15	0x3f7ec7a4	0.9952338
16	0x3f7f7b1b	0.9979722
17	0x3f809f7d	1.0048672
18	0x3f80f318	1.0074186
19	0x3f7f2743	0.99669284
20	0x3f7f8df8	0.99826
21	0x3f7e4343	0.99321383
22	0x3f80a082	1.0048983
23	0x3f7ee2dd	0.99564916
24	0x3f7f3319	0.99687344
25	0x3f810056	1.0078228
26	0x3f7eab4b	0.9948012
27	0x3f7ef5e1	0.9959393
28	0x3f801c18	1.0008574
29	0x3f7f807c	0.99805427
30	0x3f80a02d	1.0048882
31	0x3f805647	1.002633
32	0x3f7e7c39	0.994083
33	0x3f7e2974	0.99282
34	0x3f7e8d14	0.9943402
35	0x3f807c7a	1.0037987
36	0x3f7e67bb	0.9937703
37	0x3f80b4c9	1.0055171
38	0x3f8017db	1.000728
39	0x3f815689	1.0104533
40	0x3f7f1808	0.99646044
41	0x3f8071c1	1.0034715
42	0x3f7e260c	0.99276805
43	0x3f7eb87f	0.9950027
44	0x3f80f175	1.0073687
45	0x3f8030a5	1.0014845
46	0x3f7ffdc2	0.9999658
47	0x3f7eb13c	0.9948919
48	0x3f7f6a50	0.99771595
49	0x3f7f0b15	0.99626285
50	0x3f8063e4	1.0030484
51	0x3f7fadce	0.9987458
52	0x3f7fa86f	0.99866384
53	0x3f7d5340	0.98955154
54	0x3f804e17	1.0023831
55	0x3f80a206	1.0049446
56	0x3f7ec111	0.99513346
57	0x3f7f2276	0.9966196
58	0x3f81855e	1.0118825
59	0x3f806521	1.0030862
60	0x3f806db4	1.0033479
61	0x3f804c83	1.002335
62	0x3f7f4bd8	0.99725103
63	0x3f7fc4b5	0.99909526

base.mlp.fc1.2.bias f4 [64]
0	0xbb60ee33	-0.0034321665
1	0x3ba0f9af	0.004912577
2	0xbc0566f1	-0.008142219
3	0x3ab646c7	0.0013906591
4	0x3b4ca5e1	0.0031226801
5	0x3a2ec468	0.000666684
6	0x378a0a04	1.6455546e-05
7	0x3b67caa8	0.0035368595
8	0xba660fab	-0.00087761384
9	0xba8bef6b	-0.001067621
10	0xba1c8d5a	-0.0005971991
11	0x3abe886c	0.0014536506
12	0x3ac92c54	0.0015348294
13	0xbab88d76	-0.0014080245
14	0xbb01c9d6	-0.0019804141
15	0xbbbef99e	-0.0058280965
16	0x3b00256b	0.0019553553
17	0x3bf1dc55	0.007381002
18	0x3a9cc3d6	0.0011960219
19	0x3b56a83a	0.003275408
20	0x3b5ec541	0.0033992084
21	0xbb3a1039	-0.0028391017
22	0xbb8a9758	-0.0042294674
23	0xbb3bc99c	-0.0028654104
24	0xbb6fa7e0	-0.0036568567
25	0xba994148	-0.0011692429
26	0xbb985cbf	-0.004649728
27	0xbb6d632a	-0.0036222436
28	0xbbecea26	-0.007230061
29	0x39e3c390	0.0004344252
30	0xb8a190c4	-7.704043e-05
31	0xb955d85b	-0.00020393862
32	0x3af3d6eb	0.0018603479
33	0x38ec410d	0.000112654736
34	0xbaeae733	-0.0017921686
35	0xbaf365e7	-0.0018569798
36	0xba9c7357	-0.001193623
37	0x3b61d6aa	0.0034460225
38	0xbac4e205	-0.0015020972
39	0xbb465ac9	-0.0030266515
40	0xbb0d8c69	-0.0021598584
41	0xbbe23262	-0.0069029788
42	0xbb1fd778	-0.0024389904
43	0xba6b1df9	-0.0008969005
44	0x3b48e999	0.0030656813
45	0xba8065d5	-0.0009795973
46	0x3c0bf463	0.008542153
47	0xbb79abbd	-0.0038096749
48	0x3b16e4c8	0.0023024548
49	0x3ba65743	0.0050763204
50	0x3abd85f7	0.001445948
51	0xbb8bdb18	-0.0042680614
52	0x3badb8d8	0.005301576
53	0x3bcf23cd	0.0063214065
54	0x3b44d4af	0.0030033996
55	0xbaad5f95	-0.0013227338
56	0xbb9b4f95	-0.0047397115
57	0x3c210798	0.009828471
58	0x3a8b17f5	0.0010611998
59	0x3b96f198	0.004606437
60	0x3a8a5db9	0.0010556496
61	0xbb90e3fa	-0.004421708
62	0xbc06e202	-0.008232595
63	0xbbc1fba2	-0.0059198895

base.mlp.fc_h.0.weight f4 [64, 64]
0	0x3d034de9	0.032056723
1	0x3c001819	0.007818245
2	0x3d8644f2	0.06556119
3	0x3ed4ed94	0.41587508
4	0x3d845a3e	0.06462525
5	0xbec30553	-0.3809
6	0x3de9a97a	0.11409278
7	0x3db33e7f	0.087521546
8	0x3d54d101	0.051957134
9	0x3d9d4273	0.0767869
10	0x3e01d00a	0.12677017
11	0xbe5c327e	-0.21503636
12	0x3d8a574b	0.06754931
13	0x3e58e54b	0.21181218
14	0x3e90a22a	0.2824872
15	0xbea98979	-0.33112696
16	0xbe5a4d0a	-0.2131845
17	0x3ca974db	0.020685604
18	0xbd7520e0	-0.059845805
19	0x3da28b58	0.07936734
20	0xbd52ea60	-0.05149305
21	0x3e863b58	0.2621715
22	0xbda1b361	-0.07895542
23	0xbee3908e	-0.44446224
24	0x3e53b4e8	0.20674479
25	0xbe8e13ee	-0.2774958
26	0x3e1d51c3	0.15363221
27	0xbe68ea19	-0.22745551
28	0x3ebcd292	0.36879402
29	0x3ce386cf	0.027774243
30	0xbe2d9d55	-0.16954549
31	0xbd9f1c9f	-0.07769131
32	0xbdcdc854	-0.10047975
33	0xbddf11bd	-0.10892055
34	0x3e8f8e8d	0.28038445
35	0xbddb5676	-0.107098505
36	0x3d83038b	0.0639716
37	0x3cfa9290	0.030587465
38	0x3dd1a0d7	0.10235756
39	0x3b887746	0.004164609
40	0xbd948c37	-0.07253306
41	0xbd932ace	-0.07185899
42	0x3d835fa6	0.06414728
43	0xbcbaab48	-0.022786751
44	0xbde8cbfb	-0.11367031
45	0x3e449761	0.19198371
46	0x3d070363	0.032962214
47	0x3d8d4f7c	0.06899926
48	0xbe2ddd77	-0.16979013
49	0xbddb5085	-0.10708717
50	0x3cd321c3	0.025772935
51	0x3b70963d	0.0036710643
52	0x3e1629ab	0.14664333
53	0x3e918d8a	0.28428298
54	0x3e7a7ac3	0.24460892
55	0xbe332c7c	-0.17497438
56	0xbd98ec72	-0.07466973
57	0x3acea960	0.001576703
58	0xbd2d49e0	-0.04230678
59	0xbdc0f7df	-0.09422278
60	0x3bf80b75	0.007569725
61	0xbdc2145c	-0.094765395
62	0x3edc8bd3	0.43075427
63	0xbd20e770	-0.039283216
64	0xbe465eb1	-0.1937206
65	0x3d97d4e4	0.074136525
66	0x3e8b73d4	0.27236807
67	0xbe7c3e89	-0.2463323
68	0xbc9a4e89	-0.018836277
69	0xbe9dbd8a	-0.3080867
70	0xbe86a2fe	-0.26296228
71	0xbe7bde90	-0.2459662
72	0x3cabb2f3	0.020959353
73	0x3db2f3e3	0.08737924
74	0x3e976449	0.295687
75	0xbde66d11	-0.112512715
76	0xbd993890	-0.074814916
77	0xbea1d549	-0.31608036
78	0x3dc77367	0.09738808
79	0x3df57030	0.11984289
80	0x3df1365c	0.11777946
81	0x3e937d1b	0.28806385
82	0x3e441fd6	0.1915277
83	0xbb99ba8d	-0.004691428
84	0x3ea980ae	0.33105987
85	0xbbd439e3	-0.006476627
86	0xbce7db88	-0.028302923
87	0xbddaf986	-0.10692124
88	0xbe9dd419	-0.3082588
89	0xbdf400f9	-0.11914248
90	0x3cab36f9	0.020900236
91	0x3cd75551	0.0262858
92	0x3d8206bf	0.06348943
93	0xbc057500	-0.008145571
94	0xbe1afd8a	-0.1513578
95	0xbea085b5	-0.3135201
96	0x3da42166	0.08014183
97	0x3e28d210	0.16486382
98	0x3dba2c8a	0.090905264
99	0x3e72ee28	0.23723662
100	0xbe4c5aa4	-0.19956452
101	0xbcf5d10e	-0.030006912
102	0xbdd0e8e9	-0.10200674
103	0x3e68fb15	0.2275203
104	0xbd7299fc	-0.059228882
105	0xbe8a8f73	-0.27062568
106	0xbc782e1a	-0.01514771
107	0xbcd854f2	-0.026407693
108	0xbe8e7e48	-0.2783072
109	0x3d45fc3e	0.04833626
110	0x3da41005	0.08010868
111	0x3ea6a326	0.32546347
112	0x3e1f67c1	0.15566923
113	0xbe27adc5	-0.16374882
114	0x3d09e380	0.033664227
115	0xbd51186f	-0.051048692
116	0xbaa72f95	-0.0012755269
117	0xbe00375b	-0.12521116
118	0x3ea1eff4	0.31628382
119	0x3df743f7	0.1207351
120	0xbe25120a	-0.16120163
121	0x3d00bcd6	0.031430088
122	0x3c7a9f95	0.015296836
123	0xbe54208a	-0.20715538
124	0xbea519ee	-0.32246345
125	0x3dd27834	0.10276833
126	0xbe2a214c	-0.16614264
127	0xbca302e9	-0.019898849
128	0xbd0dc36a	-0.03461019
129	0xbbbd998e	-0.0057861274
130	0xbd1ea6b7	-0.03873321
131	0x3df42a35	0.11922113
132	0x3ddbd87a	0.10734649
133	0xbd5357b0	-0.051597297
134	0xbea95c88	-0.33078408
135	0xbe61155a	-0.21980801
136	0x3d85e0e3	0.06537034
137	0x3f019ee6	0.50633085
138	0xbc8b18a9	-0.016979532
139	0x3d00791a	0.03136549
140	0xbe3c5a88	-0.1839391
141	0xbe558878	-0.2085284
142	0xbdc03212	-0.0938455
143	0x3e5fb5a8	0.2184664
144	0xbd817dd0	-0.06322825
145	0x3e32cbf9	0.17460622
146	0xbdc7bb6d	-0.097525455
147	0xbe92bd97	-0.2866027
148	0x3d8650fd	0.06558416
149	0x3e14e722	0.14541295
150	0xbe0f15a9	-0.13973106
151	0x3e494df0	0.19658637
152	0x3e3ecdff	0.18633269
153	0xbd059740	-0.032614946
154	0x3e0b36b4	0.13595086
155	0xbe703986	-0.23459443
156	0x3e23ef02	0.16009143
157	0x3e5b2621	0.21401264
158	0x3df1cb4c	0.11806354
159	0xbe1dccac	-0.15410107
160	0xbe3b1a2d	-0.18271704
161	0xbe884495	-0.26614824
162	0xbcbc5f83	-0.022994762
163	0xbe90eb6e	-0.2830462
164	0x3e34f370	0.17670989
165	0x3e1c7496	0.15278849
166	0xbce33b0e	-0.02773812
167	0xbd854fee	-0.06509386
168	0xbe613dd3	-0.2199624
169	0x3e33c6f9	0.17556371
170	0x3dfd9a40	0.123829365
171	0x3e3ad9bd	0.18247123
172	0x3e29ffc2	0.1660147
173	0xbe47b9f6	-0.19504532
174	0x3bc0c2f4	0.005882615
175	0x3c874ade	0.016515192
176	0xbe82e658	-0.25566363
177	0x3d9eeb30	0.07759702
178	0xbe9a6677	-0.301563
179	0xbe589207	-0.21149455
180	0xbe4a49fb	-0.19754784
181	0xbe87264a	-0.263964
182	0xbdfdfcd8	-0.12401742
183	0xbe91abb9	-0.28451326
184	0x3d2c1d11	0.042019907
185	0x3e5d81a6	0.21631488
186	0x3d8837db	0.066512786
187	0xbc83f212	-0.016106639
188	0xbe927c24	-0.28610337
189	0xbd027343	-0.031848203
190	0xbc7e5377	-0.015522829
191	0xbcc35e01	-0.023848535
192	0x3d4e227a	0.05032585
193	0x3ebf2686	0.3733408
194	0x3cfe1be8	0.031019166
195	0x3e8d8925	0.27643695
196	0xbc476993	-0.012171167
197	0x3e79832a	0.24366441
198	0xbeb4fcdd	-0.3534917
199	0xbde05c6d	-0.10955129
200	0x3d190bf2	0.037364908
201	0xbe28372b	-0.16427295
202	0x3d1d5f1c	0.03842078
203	0xbe9cbe85	-0.30614105
204	0x3d07a264	0.033113852
205	0x3e8daf02	0.27672583
206	0xbd9788e0	-0.07399154
207	0x3e65ba0c	0.22434253
208	0x3e8295e6	0.25504988
209	0x3e338097	0.17529522
210	0x3dfe12a1	0.12405897
211	0x3e892e6d	0.26793233
212	0x3e141dab	0.14464442
213	0xbec370df	-0.3817205
214	0xbc30683b	-0.010767038
215	0xbe2afeb5	-0.16698726
216	0xbd86b348	-0.06577164
217	0xbe60cb18	-0.21952474
218	0x3d74c5cf	0.059758957
219	0x3b4a08c6	0.0030827983
220	0xbda2cb2d	-0.07948909
221	0x3c68a9ee	0.014200671
222	0x3e09f4c7	0.13472281
223	0x3d9ab0e9	0.07553274
224	0xbd8bbd71	-0.068232425
225	0xbe116145	-0.14197262
226	0xbd00ad25	-0.031415123
227	0xbec550e5	-0.3853828
228	0xbddfca1e	-0.10927223
229	0xbc8f298a	-0.017475862
230	0xbdb52c71	-0.08846367
231	0xbe079552	-0.13240555
232	0x3ca4eddd	0.020132953
233	0x3e3f89ce	0.18704912
234	0x3e0d4766	0.13796768
235	0x3ed4254f	0.41434714
236	0x3dfe8538	0.12427753
237	0x3ddd6a2a	0.10811265
238	0xbded90bf	-0.11599874
239	0xbe2cffd3	-0.16894464
240	0xbd8953d4	-0.06705442
241	0xbea4c545	-0.32181755
242	0x3d9b4846	0.075821444
243	0x3d8bbfa8	0.06823665
244	0xbe129268	-0.14313662
245	0x3e6ada1e	0.22934768
246	0x3de59be0	0.112113714
247	0x3dff836e	0.1247624
248	0xbe0a4b3d	-0.13505264
249	0xbe2de800	-0.16983032
250	0x3db0fbfe	0.08641814
251	0xbe66db2f	-0.2254455
252	0x3cde6920	0.027149737
253	0x3c955443	0.018228656
254	0xbe1e2710	-0.15444589
255	0x3d9df8d9	0.077134795

base.mlp.fc_h.0.bias f4 [64]
0	0x00000000	0.0
1	0x00000000	0.0
2	0x00000000	0.0
3	0x00000000	0.0
4	0x00000000	0.0
5	0x00000000	0.0
6	0x00000000	0.0
7	0x00000000	0.0
8	0x00000000	0.0
9	0x00000000	0.0
10	0x00000000	0.0
11	0x00000000	0.0
12	0x00000000	0.0
13	0x00000000	0.0
14	0x00000000	0.0
15	0x00000000	0.0
16	0x00000000	0.0
17	0x00000000	0.0
18	0x00000000	0.0
19	0x00000000	0.0
20	0x00000000	0.0
21	0x00000000	0.0
22	0x00000000	0.0
23	0x00000000	0.0
24	0x00000000	0.0
25	0x00000000	0.0
26	0x00000000	0.0
27	0x00000000	0.0
28	0x00000000	0.0
29	0x00000000	0.0
30	0x00000000	0.0
31	0x00000000	0.0
32	0x00000000	0.0
33	0x00000000	0.0
34	0x00000000	0.0
35	0x00000000	0.0
36	0x00000000	0.0
37	0x00000000	0.0
38	0x00000000	0.0
39	0x00000000	0.0
40	0x00000000	0.0
41	0x00000000	0.0
42	0x00000000	0.0
43	0x00000000	0.0
44	0x00000000	0.0
45	0x00000000	0.0
46	0x00000000	0.0
47	0x00000000	0.0
48	0x00000000	0.0
49	0x00000000	0.0
50	0x00000000	0.0
51	0x00000000	0.0
52	0x00000000	0.0
53	0x00000000	0.0
54	0x00000000	0.0
55	0x00000000	0.0
56	0x00000000	0.0
57	0x00000000	0.0
58	0x00000000	0.0
59	0x00000000	0.0
60	0x00000000	0.0
61	0x00000000	0.0
62	0x00000000	0.0
63	0x00000000	0.0

base.mlp.fc_h.2.weight f4 [64]
0	0x3f800000	1.0
1	0x3f800000	1.0
2	0x3f800000	1.0
3	0x3f800000	1.0
4	0x3f800000	1.0
5	0x3f800000	1.0
6	0x3f800000	1.0
7	0x3f800000	1.0
8	0x3f800000	1.0
9	0x3f800000	1.0
10	0x3f800000	1.0
11	0x3f800000	1.0
12	0x3f800000	1.0
13	0x3f800000	1.0
14	0x3f800000	1.0
15	0x3f800000	1.0
16	0x3f800000	1.0
17	0x3f800000	1.0
18	0x3f800000	1.0
19	0x3f800000	1.0
20	0x3f800000	1.0
21	0x3f800000	1.0
22	0x3f800000	1.0
23	0x3f800000	1.0
24	0x3f800000	1.0
25	0x3f800000	1.0
26	0x3f800000	1.0
27	0x3f800000	1.0
28	0x3f800000	1.0
29	0x3f800000	1.0
30	0x3f800000	1.0
31	0x3f800000	1.0
32	0x3f800000	1.0
33	0x3f800000	1.0
34	0x3f800000	1.0
35	0x3f800000	1.0
36	0x3f800000	1.0
37	0x3f800000	1.0
38	0x3f800000	1.0
39	0x3f800000	1.0
40	0x3f800000	1.0
41	0x3f800000	1.0
42	0x3f800000	1.0
43	0x3f800000	1.0
44	0x3f800000	1.0
45	0x3f800000	1.0
46	0x3f800000	1.0
47	0x3f800000	1.0
48	0x3f800000	1.0
49	0x3f800000	1.0
50	0x3f800000	1.0
51	0x3f800000	1.0
52	0x3f800000	1.0
53	0x3f800000	1.0
54	0x3f800000	1.0
55	0x3f800000	1.0
56	0x3f800000	1.0
57	0x3f800000	1.0
58	0x3f800000	1.0
59	0x3f800000	1.0
60	0x3f800000	1.0
61	0x3f800000	1.0
62	0x3f800000	1.0
63	0x3f800000	1.0

base.mlp.fc_h.2.bias f4 [64]
0	0x00000000	0.0
1	0x00000000	0.0
2	0x00000000	0.0
3	0x00000000	0.0
4	0x00000000	0.0
5	0x00000000	0.0
6	0x00000000	0.0
7	0x00000000	0.0
8	0x00000000	0.0
9	0x00000000	0.0
10	0x00000000	0.0
11	0x00000000	0.0
12	0x00000000	0.0
13	0x00000000	0.0
14	0x00000000	0.0
15	0x00000000	0.0
16	0x00000000	0.0
17	0x00000000	0.0
18	0x00000000	0.0
19	0x00000000	0.0
20	0x00000000	0.0
21	0x00000000	0.0
22	0x00000000	0.0
23	0x00000000	0.0
24	0x00000000	0.0
25	0x00000000	0.0
26	0x00000000	0.0
27	0x00000000	0.0
28	0x00000000	0.0
29	0x00000000	0.0
30	0x00000000	0.0
31	0x00000000	0.0
32	0x00000000	0.0
33	0x00000000	0.0
34	0x00000000	0.0
35	0x00000000	0.0
36	0x00000000	0.0
37	0x00000000	0.0
38	0x00000000	0.0
39	0x00000000	0.0
40	0x00000000	0.0
41	0x00000000	0.0
42	0x00000000	0.0
43	0x00000000	0.0
44	0x00000000	0.0
45	0x00000000	0.0
46	0x00000000	0.0
47	0x00000000	0.0
48	0x00000000	0.0
49	0x00000000	0.0
50	0x00000000	0.0
51	0x00000000	0.0
52	0x00000000	0.0
53	0x00000000	0.0
54	0x00000000	0.0
55	0x00000000	0.0
56	0x00000000	0.0
57	0x00000000	0.0
58	0x00000000	0.0
59	0x00000000	0.0
60	0x00000000	0.0
61	0x00000000	0.0
62	0x00000000	0.0
63	0x00000000	0.0

base.mlp.fc2.0.0.weight f4 [64, 64]
0	0x3ca1c037	0.019744975
1	0x3c93945d	0.018015081
2	0x3d7be9a0	0.0615021
3	0x3ed56c7d	0.41684332
4	0x3d8c849a	0.06861229
5	0xbec3f102	-0.38269812
6	0x3de84100	0.11340523
7	0x3dbf7bb3	0.09349766
8	0x3d25126e	0.04030078
9	0x3d88a387	0.06671815
10	0x3e07f01e	0.13275191
11	0xbe61e277	-0.22059046
12	0x3d80835a	0.06275053
13	0x3e5b8c6a	0.21440282
14	0x3e90eaa0	0.28304005
15	0xbea83fb4	-0.32861102
16	0xbe5847b6	-0.21121106
17	0x3cf242d5	0.029572884
18	0xbd6200a2	-0.055176385
19	0x3dae26d6	0.08503501
20	0xbd55402e	-0.05206316
21	0x3e81ff18	0.25389934
22	0xbda9c2cc	-0.08289108
23	0xbee6b3a1	-0.4505892
24	0x3e4fbd74	0.20287114
25	0xbe8ac6df	-0.27104852
26	0x3e17a7f5	0.14810164
27	0xbe61cc9c	-0.22050709
28	0x3ebfd1e3	0.37464818
29	0x3ce62843	0.02809537
30	0xbe2f7584	-0.17134672
31	0xbdab1e65	-0.08355407
32	0xbdc2112c	-0.094759315
33	0xbdcf5dda	-0.10125323
34	0x3e93ed83	0.28892145
35	0xbdd5a9dc	-0.10432789
36	0x3d68a368	0.05679646
37	0x3cdfe953	0.027332937
38	0x3dce0db1	0.10061205
39	0x3c6e3c79	0.014540785
40	0xbd936bfc	-0.07198331
41	0xbd8aad88	-0.0677138
42	0x3d619f37	0.05508348
43	0xbcdcc90a	-0.026951332
44	0xbdd4b8f3	-0.10386839
45	0x3e430f69	0.19048847
46	0x3d105cb0	0.035244644
47	0x3d98948e	0.074502096
48	0xbe30c77a	-0.17263594
49	0xbddce68b	-0.1078616
50	0x3cb6591f	0.022259293
51	0x3b28ab99	0.0025737046
52	0x3e14cbc7	0.1453086
53	0x3e96466f	0.29350612
54	0x3e74e0b8	0.23913848
55	0xbe3b2926	-0.18277416
56	0xbd9bd1fc	-0.07608411
57	0x3b2494a4	0.002511301
58	0xbd248a14	-0.040170744
59	0xbdbd211e	-0.09234832
60	0x3c02131c	0.007939126
61	0xbdd3c6dd	-0.103406645
62	0x3edbe5a5	0.42948642
63	0xbd169929	-0.03676716
64	0xbe4485a1	-0.191916
65	0x3d9794ce	0.07401429
66	0x3e8a8c8c	0.27060354
67	0xbe7b2da1	-0.24529125
68	0xbcb06625	-0.021533081
69	0xbe9acdd0	-0.30235147
70	0xbe87f27d	-0.2655219
71	0xbe7ccf49	-0.24688448
72	0x3cb98eae	0.022651043
73	0x3db6ad43	0.08919766
74	0x3e982093	0.29712352
75	0xbde6f7fc	-0.11277768
76	0xbda33b98	-0.07970351
77	0xbea32e9a	-0.31871492
78	0x3dcf839f	0.101325266
79	0x3debf7a6	0.115218446
80	0x3dec0a3c	0.115253896
81	0x3e93b904	0.28852093
82	0x3e42adc8	0.19011605
83	0xbc215f10	-0.009849325
84	0x3ea8f76c	0.33001268
85	0x39af9790	0.00033491524
86	0xbcdc4783	-0.026889568
87	0xbddef593	-0.10886683
88	0xbe9d572f	-0.30730578
89	0xbdf203bc	-0.118171185
90	0x3cb89959	0.02253406
91	0x3cc8499d	0.024449164
92	0x3d675dc6	0.056485914
93	0xbc3818de	-0.011236398
94	0xbe1e0543	-0.15431695
95	0xbea041f7	-0.31300327
96	0x3d9b5bde	0.07585882
97	0x3e1e221c	0.15442699
98	0x3db4f50d	0.08835802
99	0x3e718d69	0.235891
100	0xbe4d2e0d	-0.20037098
101	0xbcf1ac49	-0.029501097
102	0xbdd0d9e5	-0.1019781
103	0x3e6020a7	0.21887456
104	0xbd656573	-0.056004953
105	0xbe8bddd7	-0.27317688
106	0xbbc6e998	-0.006070327
107	0xbcbb41f3	-0.022858595
108	0xbe8dc908	-0.27692437
109	0x3d3bba52	0.045831986
110	0x3da7d38c	0.08194646
111	0x3ea56c7c	0.3230933
112	0x3e1eb76c	0.15499657
113	0xbe283216	-0.16425356
114	0x3d06993c	0.03286098
115	0xbd663a8c	-0.05620818
116	0xbb695128	-0.0035601351
117	0xbe010e9a	-0.12603226
118	0x3ea23435	0.31680456
119	0x3df86302	0.12128259
120	0xbe242400	-0.16029358
121	0x3d14553b	0.036214095
122	0x3c8a5fa7	0.016891314
123	0xbe51abd5	-0.20475705
124	0xbea54604	-0.3227998
125	0x3dd65534	0.1046547
126	0xbe2e9c12	-0.17051724
127	0xbc98c65b	-0.01864927
128	0xbd1c4cc3	-0.038159143
129	0xbb1835e6	-0.0023225485
130	0xbd1edb36	-0.038783275
131	0x3dedeedc	0.116178244
132	0x3ddcdb7b	0.1078405
133	0xbd682af8	-0.056681603
134	0xbea960e2	-0.33081728
135	0xbe6222b4	-0.2208355
136	0x3d81c7a1	0.06336904
137	0x3f0066e9	0.5015703
138	0xbc8a0990	-0.016850263
139	0x3cfe24f1	0.031023474
140	0xbe399412	-0.1812289
141	0xbe57189a	-0.21005479
142	0xbdc49719	-0.09599132
143	0x3e662e18	0.22478521
144	0xbd7ca968	-0.061684996
145	0x3e35d6a0	0.17757654
146	0xbdbf6df1	-0.093471415
147	0xbe8e6955	-0.27814737
148	0x3d8d1fdf	0.068908446
149	0x3e0f0fc8	0.13970864
150	0xbe115b1b	-0.1419491
151	0x3e44b508	0.19209683
152	0x3e3d7a5a	0.18503705
153	0xbd082ba7	-0.033244755
154	0x3e07fbee	0.13279697
155	0xbe6df5ba	-0.23238268
156	0x3e2e1bc8	0.17002785
157	0x3e5ab93a	0.21359721
158	0x3df1e2da	0.118108466
159	0xbe1e5551	-0.15462233
160	0xbe3383b5	-0.17530711
161	0xbe815980	-0.25263596
162	0xbcb5aeac	-0.022178017
163	0xbe91af1a	-0.28453904
164	0x3e30e6c5	0.17275532
165	0x3e15e9d2	0.14639977
166	0xbcc8ddb9	-0.024519788
167	0xbd5bb398	-0.05363807
168	0xbe64a6dc	-0.22329277
169	0x3e317508	0.173298
170	0x3ded148b	0.11576184
171	0x3e370777	0.17873941
172	0x3e2c7447	0.16841231
173	0xbe490f0f	-0.1963465
174	0x3b9b95d3	0.004748085
175	0x3ca0698b	0.019581577
176	0xbe836142	-0.2566014
177	0x3da736fe	0.08164786
178	0xbe9c0e6b	-0.3047975
179	0xbe5795b1	-0.21053196
180	0xbe4b3338	-0.19843757
181	0xbe860ceb	-0.2618173
182	0xbdfc3499	-0.1231472
183	0xbe93f57c	-0.28898227
184	0x3d28c4b9	0.041203234
185	0x3e590505	0.21193321
186	0x3d885dd8	0.06658524
187	0xbc97b0cb	-0.018516919
188	0xbe935f36	-0.28783578
189	0xbd07a72a	-0.033118404
190	0xbc78413d	-0.015152273
191	0xbcee7e0b	-0.029112836
192	0x3d5308ad	0.051521946
193	0x3ec0711a	0.3758629
194	0x3ce8d982	0.028424028
195	0x3e8aad3f	0.270853
196	0xbc4979e8	-0.012297131
197	0x3e70ba14	0.23508483
198	0xbeb504fe	-0.3535537
199	0xbde04630	-0.10950887
200	0x3d254e71	0.04035801
201	0xbe28face	-0.16501924
202	0x3d10fb23	0.035395753
203	0xbe9dc472	-0.30813938
204	0x3d0f310d	0.034958888
205	0x3e8e9254	0.27846014
206	0xbda20d5a	-0.07912703
207	0x3e6e38e0	0.23263884
208	0x3e817022	0.25280863
209	0x3e34df42	0.17663291
210	0x3e02b385	0.12763794
211	0x3e8dfbdc	0.27731216
212	0x3e1499ef	0.14511846
213	0xbec75e94	-0.38939345
214	0xbc9410b0	-0.018074363
215	0xbe3049e8	-0.17215693
216	0xbd873aa8	-0.06602985
217	0xbe63c1c5	-0.22241886
218	0x3d6d86a2	0.057989724
219	0x3b3084ba	0.002693458
220	0xbd8d6a56	-0.069050476
221	0x3c4b6992	0.012415307
222	0x3e0df874	0.13864309
223	0x3d9a6a24	0.07539776
224	0xbd745e3f	-0.059660193
225	0xbe06844f	-0.13136409
226	0xbd007c6f	-0.03136867
227	0xbec2679e	-0.3796968
228	0xbde5bffa	-0.11218257
229	0xbcb40cc9	-0.021978753
230	0xbdb46da7	-0.08809977
231	0xbe006675	-0.12539084
232	0x3c7eb9e5	0.01554725
233	0x3e401d2e	0.18761131
234	0x3e03e222	0.12879232
235	0x3ecf2a3b	0.40461907
236	0x3e00b02f	0.12567209
237	0x3ddd748f	0.108132474
238	0xbdf3e3f3	-0.11908712
239	0xbe2aa033	-0.16662674
240	0xbd871f11	-0.06597722
241	0xbea2cc96	-0.31796712
242	0x3d964c57	0.073387794
243	0x3d930cc3	0.071801685
244	0xbe102b52	-0.14079025
245	0x3e696a6c	0.22794503
246	0x3de9cb0d	0.11415682
247	0x3df5801d	0.11987326
248	0xbe0c0b18	-0.13676107
249	0xbe37699d	-0.17911382
250	0x3db069d0	0.08613932
251	0xbe6b345d	-0.22969194
252	0x3ce329b6	0.02772985
253	0x3ca7173e	0.020396825
254	0xbe173c93	-0.14769201
255	0x3d94835e	0.07251619

base.mlp.fc2.0.0.bias f4 [64]
0	0xba3fb2f1	-0.0007312736
1	0x3b37af0d	0.0028027922
2	0xbb396509	-0.0028288981
3	0x3a98eae4	0.0011666683
4	0x3bd96c61	0.006635234
5	0xbb199e96	-0.0023440472
6	0x3afd6679	0.0019332907
7	0x39f66ed6	0.00047003356
8	0x3a3abfd9	0.00071239244
9	0x3b15770c	0.0022806553
10	0xba9a4dd0	-0.0011772458
11	0x3bb13757	0.0054082084
12	0xbb878a93	-0.0041363924
13	0x3c134b5c	0.008990135
14	0xbb352aa9	-0.0027643836
15	0x3abde3e2	0.001448747
16	0xbae321ef	-0.0017328839
17	0x3b6cba96	0.0036121956
18	0x3b584493	0.0032999858
19	0xbc150ee6	-0.00909779
20	0x3be3dacc	0.006953573
21	0x3b133f59	0.0022468178
22	0x39e72e2e	0.0004409416
23	0x3a6b1679	0.0008967887
24	0x3b0b85d5	0.0021289487
25	0x3b940a78	0.0045178495
26	0xbb889834	-0.0041685347
27	0x3b9bddd8	0.0047566704
28	0x3c0e7b79	0.00869643
29	0xbc21614e	-0.009849859
30	0xbaf81072	-0.00189258
31	0x3ad053e6	0.0015894144
32	0x3941d0c4	0.00018483686
33	0xb9bb3f7f	-0.00035714728
34	0x3aad440d	0.0013219133
35	0x37875556	1.6132992e-05
36	0xbb1a1580	-0.002351135
37	0xbaf7a77b	-0.0018894518
38	0x3b8f5859	0.0043745455
39	0x3b53a4ac	0.0032294197
40	0xb9055e2d	-0.00012718952
41	0x3aa3bd2e	0.0012492293
42	0x3c059354	0.008152802
43	0xbb2347e3	-0.0024914674
44	0xbc07391a	-0.00825336
45	0x3b4ab047	0.0030927823
46	0x3b5bda10	0.0033546723
47	0xbc238b34	-0.009981919
48	0x3b3987b2	0.002830964
49	0xbb0d932a	-0.002160261
50	0x3b733a8d	0.0037113756
51	0x3bf90f5e	0.007600709
52	0xbb932c21	-0.0044913446
53	0x3b6caa36	0.0036112196
54	0x3ba2ebff	0.0049719806
55	0xbb45f075	-0.0030203138
56	0x3bcb2cfd	0.0062004314
57	0xb88578cc	-6.3644344e-05
58	0xba2b728d	-0.0006540202
59	0x3ae58078	0.00175096
60	0xbb118293	-0.0022203072
61	0xba51a57b	-0.0007997376
62	0x3a050b14	0.0005075198
63	0x3c2aa9fb	0.010416503

base.mlp.fc2.0.2.weight f4 [64]
0	0x3f802ced	1.001371
1	0x3f7d264e	0.98886573
2	0x3f7ea61b	0.99472207
3	0x3f7f8f79	0.99828297
4	0x3f7f9cf6	0.9984888
5	0x3f7eac03	0.9948122
6	0x3f800f1d	1.0004612
7	0x3f7e87a9	0.9942575
8	0x3f7faa75	0.9986947
9	0x3f7f6a30	0.99771404
10	0x3f7ead2f	0.9948301
11	0x3f7fcd3b	0.9992253
12	0x3f7f4475	0.9971383
13	0x3f7e8065	0.99414665
14	0x3f7fc6aa	0.9991251
15	0x3f7f518d	0.9973381
16	0x3f7fe90c	0.99964976
17	0x3f7fb057	0.9987845
18	0x3f7fd9ad	0.9994152
19	0x3f7ec3ab	0.99517316
20	0x3f7ff321	0.9998036
21	0x3f7ecb38	0.9952884
22	0x3f804237	1.0020207
23	0x3f7f1ee0	0.99656487
24	0x3f7effe0	0.99609184
25	0x3f7fe9e4	0.99966264
26	0x3f7eaa55	0.99478656
27	0x3f801c22	1.0008585
28	0x3f7ea635	0.9947236
29	0x3f805233	1.0025085
30	0x3f7faa21	0.9986897
31	0x3f7f4200	0.99710083
32	0x3f7f4ebd	0.9972952
33	0x3f7feb1a	0.9996811
34	0x3f808676	1.0041034
35	0x3f7d3606	0.9891056
36	0x3f7e3454	0.99298596
37	0x3f7fa3d0	0.99859333
38	0x3f7f32c1	0.9968682
39	0x3f7ff1cb	0.9997832
40	0x3f7fd90c	0.9994056
41	0x3f7ec314	0.99516416
42	0x3f7ffeed	0.9999836
43	0x3f7f113a	0.9963566
44	0x3f7e9e4a	0.9946028
45	0x3f7cd36e	0.98760116
46	0x3f7d6bbc	0.98992515
47	0x3f7ec7c4	0.9952357
48	0x3f800151	1.0000402
49	0x3f80488c	1.002214
50	0x3f80b0ef	1.0053996
51	0x3f80052b	1.0001577
52	0x3f7f16db	0.9964425
53	0x3f7f7f1c	0.9980333
54	0x3f8066f0	1.0031414
55	0x3f7fa239	0.9985691
56	0x3f7f7c8e	0.9979943
57	0x3f804d87	1.002366
58	0x3f7f0dbe	0.99630344
59	0x3f7ed81f	0.99548525
60	0x3f7facb6	0.9987291
61	0x3f7f7438	0.9978671
62	0x3f80b338	1.0054693
63	0x3f81538d	1.0103623

base.mlp.fc2.0.2.bias f4 [64]
0	0xbb60430d	-0.0034219653
1	0x3b5e0eb0	0.0033883266
2	0xbb66b3e2	-0.0035202433
3	0xbb61c408	-0.003444912
4	0xbb7c4d90	-0.003849838
5	0x3b6677e7	0.0035166682
6	0x3b656a00	0.0035005808
7	0xbb6480c3	-0.0034866787
8	0x3b65e266	0.003507757
9	0x3b65f3d4	0.003508796
10	0x3b671059	0.0035257547
11	0x3b77652c	0.0037749512
12	0x3b6613e5	0.0035107073
13	0xbb2aa3ac	-0.0026037497
14	0xbb626827	-0.0034546943
15	0x3b6bfd3a	0.003600909
16	0xbb63d35b	-0.003476343
17	0x3b640e5c	0.0034798598
18	0x3b67e030	0.003538143
19	0xbb5f60ec	-0.003408487
20	0xbb633a59	-0.003467223
21	0x3b6b6d11	0.0035923163
22	0x3b6bb6bc	0.0035967072
23	0xbb647fcd	-0.0034866214
24	0x3b628eb0	0.0034569912
25	0xbb64b286	-0.0034896447
26	0xbb609160	-0.0034266338
27	0x3b6541d0	0.0034981854
28	0x3b999d69	0.004687954
29	0xbb637d85	-0.0034712267
30	0xbb6681a7	-0.0035172494
31	0x3b650ca2	0.0034950157
32	0xbb6a9439	-0.0035793914
33	0xbb663a43	-0.0035129942
34	0xbb531357	-0.0032207572
35	0x3b6390c8	0.0034723748
36	0xbb662ed7	-0.0035123134
37	0x3b7755be	0.0037740315
38	0xbb67bd27	-0.0035360546
39	0x3b6b2c50	0.0035884567
40	0x3b66fdbf	0.003524646
41	0xbb64b1b3	-0.0034895956
42	0x3b681149	0.0035410693
43	0xbb6587d6	-0.0035023591
44	0xbb64d5a6	-0.0034917383
45	0x3b63294a	0.0034662061
46	0xbb263f64	-0.0025367374
47	0xbb5fe4a5	-0.0034163382
48	0x3b72d5d1	0.0037053714
49	0xbb64398e	-0.0034824344
50	0x3b6831d5	0.0035430093
51	0xbb0fe259	-0.0021954982
52	0x3b670db5	0.0035255973
53	0xbb665ba0	-0.0035149828
54	0x3b6a2c7e	0.0035732086
55	0x3b66895d	0.003517709
56	0x3b6a05f5	0.0035709117
57	0xbb62feda	-0.0034636767
58	0x3b41989d	0.0029540427
59	0xbbf73dd3	-0.007545212
60	0xbb673b12	-0.0035283011
61	0xbb6663f6	-0.0035154796
62	0xbb6359d3	-0.003469099
63	0xbb628d7f	-0.0034569202

v_out.weight f4 [1, 64]
0	0x3d1ff779	0.039054368
1	0xbd06abea	-0.032878794
2	0x3dd5ef62	0.10446049
3	0x3db6bb9d	0.08922503
4	0x3bb68db8	0.0055710934
5	0xbe736169	-0.23767628
6	0xbe374bbf	-0.17899989
7	0x3e0e825c	0.13916916
8	0xbe19b673	-0.15011005
9	0xbe347d82	-0.17626002
10	0xbe768377	-0.24073587
11	0xbca789d3	-0.020451462
12	0xbe784dcf	-0.24248432
13	0x3b8e32e8	0.0043395646
14	0x3e2b6e11	0.16741206
15	0xbd6f5986	-0.058434986
16	0x3d8dbc27	0.06920653
17	0xbe6ba3bb	-0.23011677
18	0xbdad176a	-0.084517315
19	0x3d545946	0.05184295
20	0x3d9ad8ce	0.075608835
21	0xbd47c798	-0.04877433
22	0xbd5cb29a	-0.053881265
23	0x3e2e8c94	0.17045814
24	0xbdca5264	-0.09878996
25	0x3dbdfe8b	0.09277066
26	0x3d1127f7	0.035438504
27	0xbd0ac9c3	-0.03388382
28	0x3a39c2d0	0.0007086219
29	0x3e3937bb	0.18087666
30	0x3e3b79e6	0.1830822
31	0xbe6e3599	-0.23262633
32	0x3d76f3a6	0.060290955
33	0x3e057488	0.13032734
34	0x3c617620	0.013761073
35	0xbd87fec8	-0.066403925
36	0x3e275bdb	0.16343634
37	0xbc35fbba	-0.01110738
38	0x3ce50b02	0.02795935
39	0xbdca4d36	-0.09878008
40	0xbe8a7e04	-0.27049267
41	0x3e27d9ad	0.1639163
42	0xbdb948e7	-0.09047108
43	0x3dc9d2f4	0.09854689
44	0x3df4ffdb	0.11962863
45	0xbdcb1623	-0.099163316
46	0xb7e44800	-2.7213246e-05
47	0x3d61e7e7	0.0551528
48	0xbb7eb096	-0.0038862578
49	0x3db58cc5	0.0886474
50	0xbdaaff00	-0.08349419
51	0x3b9a158f	0.004702277
52	0xbdde0186	-0.10840134
53	0x3d847105	0.06466869
54	0xbd4fe627	-0.0507566
55	0xbe00e45a	-0.12587109
56	0xbda0c3a3	-0.07849815
57	0x3e017ef1	0.1264608
58	0xbb20d16b	-0.0024538885
59	0x3b7505ba	0.0037387447
60	0x3e91cdac	0.28477228
61	0x3e0d49d9	0.13797702
62	0x3d8062a5	0.06268815
63	0x3dce715e	0.10080217
